tron1-rl-deploy-python-main/controllers/model/PF_TRON1A/policy/isaaclab/policy.onnx (onnx, 763732 bytes, 8 tensors)

0.bias f4 [512]
0	0xbb5cd3f8	-0.003369568
1	0xbd898f01	-0.06716729
2	0x3d830723	0.063978456
3	0x3cc829e8	0.024434045
4	0xbe2d829b	-0.16944353
5	0x3d855dd0	0.06512034
6	0x3e2a5453	0.1663373
7	0xbb81474f	-0.003945268
8	0xbe66c6c9	-0.22536768
9	0xbdc328d1	-0.095292695
10	0x3d4517d7	0.04811844
11	0xbd990749	-0.07472093
12	0xbe029630	-0.12752604
13	0x3ddd05b8	0.107921064
14	0xbdf324f7	-0.11872285
15	0xbddd6238	-0.10809749
16	0x3d5212f4	0.051287606
17	0xbdd90959	-0.10597486
18	0xbe0b6a70	-0.13614821
19	0xbc7af047	-0.015316076
20	0xbc5e966a	-0.013585666
21	0x3deff170	0.117159724
22	0x3c01f414	0.007931728
23	0xbe5ba2bf	-0.21448801
24	0xbdbac1a8	-0.09118968
25	0x3aac0fae	0.0013127232
26	0x3b5efe1e	0.0034025977
27	0x3dbc5afc	0.091970414
28	0xbd252a25	-0.040323395
29	0x3dc564ce	0.096383676
30	0xbdb26ea5	-0.0871251
31	0x3dfbb2ee	0.122899875
32	0x3db839e8	0.0899542
33	0xbd4993e7	-0.049213316
34	0xbdfddcb7	-0.12395614
35	0x3e1ce096	0.15320048
36	0x3d619653	0.055075
37	0x3dbbc881	0.091691025
38	0x3d5ee3a9	0.054416332
39	0x3e0ee668	0.1395508
40	0xbb902df3	-0.004400009
41	0xbc833466	-0.016016196
42	0x3df922db	0.12164851
43	0xbe4c54e3	-0.19954257
44	0xbde66587	-0.112498336
45	0x3e18ff86	0.14941224
46	0xbd3e7ee3	-0.046507727
47	0x3e30df4f	0.17272685
48	0xbe1b61a8	-0.15173972
49	0x3c0f92b6	0.008763006
50	0xbd8135f7	-0.06309121
51	0xbe028c98	-0.12748945
52	0xbd93b536	-0.072122976
53	0xbde769cf	-0.11299478
54	0x3da2ce86	0.079495475
55	0x3e0cc315	0.13746293
56	0xbd989924	-0.07451084
57	0x3d343d63	0.044003855
58	0xbdd2663e	-0.102734074
59	0xbdffed7a	-0.12496467
60	0x3ddf3d54	0.10900369
61	0x3c6fdf6e	0.014640672
62	0x3d18ac73	0.037273835
63	0x3d3453a5	0.044025082
64	0x3e100576	0.14064583
65	0xbe1d3edc	-0.1535601
66	0x3d1cc1fa	0.038270928
67	0xbc982cd9	-0.018576073
68	0x3e54cbd3	0.20780878
69	0x3d8b9c25	0.068168916
70	0xbc808d7f	-0.01569247
71	0xbd0a7f1f	-0.03381264
72	0x3c653c2d	0.013991398
73	0x3dcc4771	0.09974564
74	0x3e3e222d	0.18567725
75	0xbcfbddb5	-0.030745367
76	0x3ddfd938	0.10930103
77	0xbdb5a6fa	-0.08869739
78	0xbcbddab1	-0.02317557
79	0xbe0633e0	-0.13105726
80	0x3e0b1524	0.13582283
81	0xbdb417ed	-0.08793626
82	0x3cf54892	0.02994183
83	0xbd56f3e1	-0.052478675
84	0xbdffc16f	-0.124880664
85	0xbbea87dc	-0.007157309
86	0xbd380100	-0.04492283
87	0xbe0146aa	-0.12624612
88	0xbd84c44c	-0.06482753
89	0x3c5ea8d4	0.013590056
90	0x3de4d0a9	0.11172611
91	0x3ce1ebae	0.027578201
92	0xbdeaab70	-0.1145848
93	0x3d97feb4	0.07421628
94	0x3d80c2fb	0.062871896
95	0x3e19e398	0.15028226
96	0xbe01149e	-0.12605521
97	0xbd1fcff2	-0.03901667
98	0x3d2a1c0d	0.041530658
99	0x3e0aa4ff	0.13539504
100	0x3e166b3f	0.14689349
101	0x3e4b43ff	0.19850157
102	0x3d66fac8	0.056391507
103	0x3e29fcce	0.16600344
104	0xbd829cc1	-0.06377555
105	0xbdb325a2	-0.08747412
106	0xbd5e3085	-0.05424549
107	0x3da0c225	0.0784953
108	0x3d974daf	0.07387864
109	0xbbc7c1e2	-0.0060961107
110	0x3db8a396	0.090155765
111	0xbde7c44c	-0.113167375
112	0x3e0c5dc8	0.1370765
113	0x3dc9dd8d	0.098567106
114	0x3d612066	0.05496254
115	0xbe04072d	-0.12893362
116	0xbe1361d5	-0.14392789
117	0x3c832941	0.016010882
118	0x3d2e84a9	0.042606983
119	0xbda0da09	-0.07854087
120	0xbd03b75f	-0.0321573
121	0xbdca66b5	-0.09882871
122	0xbdb68b86	-0.08913331
123	0xbd10d708	-0.03536132
124	0x3d8ad936	0.06779711
125	0xbdafbb8b	-0.08580693
126	0x3e0e6bb8	0.13908279
127	0xbce2b85d	-0.027675802
128	0xbd906238	-0.07049984
129	0xbc23897e	-0.009981511
130	0xbc04b08d	-0.008098734
131	0xbe3123a8	-0.17298758
132	0x3d873e33	0.066036604
133	0xbda1d14b	-0.079012476
134	0xbe053876	-0.1300982
135	0xbe146188	-0.1449033
136	0x3e168298	0.14698255
137	0xbcfc1e47	-0.030776156
138	0xbe040c71	-0.12895371
139	0xbc9b2dae	-0.01894268
140	0x3d7bff03	0.061522495
141	0xbdbdade7	-0.09261685
142	0x3e409def	0.18810247
143	0xbe32d7d3	-0.17465143
144	0x3d884bf8	0.06655115
145	0xbcdf5f3b	-0.02726709
146	0xbd40a9a9	-0.0470368
147	0xbe2ea556	-0.17055258
148	0x3e02479a	0.12722626
149	0x3dcda685	0.10041527
150	0xbd87173e	-0.0659623
151	0x3de89230	0.11356008
152	0xbd476275	-0.04867788
153	0xbdcac6c2	-0.09901191
154	0xbd51f8e9	-0.05126277
155	0x3e024136	0.12720188
156	0xbdd9ea06	-0.106403396
157	0xbe4f648c	-0.202532
158	0xbcad695f	-0.021168409
159	0x3dd54c2e	0.10414921
160	0xbde0a624	-0.10969189
161	0x3d868ffd	0.06570432
162	0xbc50f4d9	-0.012753689
163	0xbd9d797b	-0.07689186
164	0xbdf5dd0c	-0.12005052
165	0xbe14ebcc	-0.14543074
166	0xbc394a74	-0.011309255
167	0x3e20e7af	0.1571338
168	0xbdd4591a	-0.10368557
169	0x3d7de63c	0.061987147
170	0xbde8af4e	-0.11361562
171	0x3dc5a21e	0.09650062
172	0xbcbb2604	-0.022845276
173	0x3d4a46f8	0.049384087
174	0xbd84f32c	-0.06491694
175	0xbe27ee02	-0.16399387
176	0x3a8bba89	0.001066045
177	0xbe047c6d	-0.1293809
178	0xbd54b7b8	-0.05193302
179	0x3cf89dc8	0.030348673
180	0xbdcbe581	-0.09955884
181	0x3d745a46	0.059656404
182	0xbd2c6900	-0.042092323
183	0xbdb262ee	-0.087102756
184	0xbc0933f6	-0.008374205
185	0xbd7d263e	-0.06180405
186	0x3e162cad	0.1466548
187	0xbd4e7b26	-0.050410412
188	0x3e3ce5ff	0.18447112
189	0x3da48c14	0.0803453
190	0x3e120286	0.14258775
191	0xbcf48b07	-0.02985145
192	0x3e050e49	0.1299373
193	0x3cd50298	0.026002213
194	0x3d2c33cd	0.04204159
195	0xbde49644	-0.111614734
196	0x3d9c804d	0.07641659
197	0x3dbe887e	0.093033776
198	0xbce3c8ee	-0.027805772
199	0x3d5565f5	0.052099187
200	0xbd6584b2	-0.05603475
201	0xbc51fc4f	-0.012816503
202	0xbda66ef4	-0.081266314
203	0xbc9a12f3	-0.018807864
204	0xbdcd0c1c	-0.10012075
205	0x3de23271	0.11044777
206	0xbdec7746	-0.11546187
207	0xbb5dbb83	-0.003383369
208	0xbe08161e	-0.13289687
209	0x3ca91027	0.020637585
210	0xbd8e5a2d	-0.069507934
211	0x3e2b7a6c	0.16745919
212	0xbbf38790	-0.007431932
213	0xbd866f8d	-0.065642454
214	0xbcce2292	-0.025162969
215	0x3da98611	0.08277524
216	0xbe0932af	-0.1339824
217	0x3d631269	0.05543748
218	0xbdc3e378	-0.095648706
219	0xbce4e7b2	-0.027942512
220	0x3df09fe2	0.11749245
221	0x3c156964	0.009119365
222	0xbd521399	-0.05128822
223	0xbe55ca5d	-0.20877977
224	0x3ca8f3bf	0.02062404
225	0xbdf0ed7b	-0.11764046
226	0x3e2838e7	0.16427957
227	0x3d3f2ba0	0.046672463
228	0x3e49a84e	0.1969311
229	0x3c8b0cbc	0.016973846
230	0xbe1bf3d9	-0.15229739
231	0xbe2b7cdb	-0.16746847
232	0xbe5c6325	-0.21522196
233	0x3dd13b04	0.102163345
234	0xbda1cf62	-0.07900883
235	0x3dd22641	0.102612026
236	0xbda655e4	-0.08121851
237	0xbd8a8e64	-0.0676544
238	0xbe3d52b5	-0.18488581
239	0x3d6bc6d3	0.05756266
240	0xbdb68a15	-0.08913056
241	0x3d057570	0.0325827
242	0x3d6d1086	0.057877086
243	0xbc761cd8	-0.015021525
244	0x3caf14c0	0.021372199
245	0xbe0f96f2	-0.14022425
246	0x3bcd78e4	0.006270515
247	0x3dd812d1	0.10550464
248	0x3e253608	0.16133893
249	0xbc6573e8	-0.014004685
250	0x3c3ad041	0.011402191
251	0x3dc328b6	0.09529249
252	0xbe2c84fc	-0.16847605
253	0xbe6b1389	-0.22956671
254	0x3bf3756a	0.0074297683
255	0x3df5a137	0.1199364

2.bias f4 [256]
0	0xbc2f2fe5	-0.010692571
1	0xbd41d210	-0.04731947
2	0xbd476e29	-0.04868904
3	0xbde89782	-0.11357023
4	0x3c226fbd	0.009914336
5	0xbe1388eb	-0.14407699
6	0xbe1d74d2	-0.15376595
7	0xba71b6a0	-0.00092206337
8	0xbd4d85a6	-0.050176285
9	0xbd912fd7	-0.07089203
10	0xbd4ff8e9	-0.05077449
11	0xbdaeea7e	-0.085408196
12	0xbda18d07	-0.07888227
13	0xbd66a907	-0.05631354
14	0xbe112181	-0.14172937
15	0x3b502191	0.0031758288
16	0xbda5c75f	-0.08094668
17	0xbc58573e	-0.013204394
18	0xbd311670	-0.04323429
19	0xbcec5d87	-0.028853191
20	0xbdb9f920	-0.0908072
21	0xbdd3324f	-0.1031233
22	0xbc47a205	-0.012184625
23	0xbd64fae9	-0.05590335
24	0xbd57276c	-0.05252783
25	0xbd914e06	-0.0709496
26	0x3d16d103	0.036820423
27	0xbd88ba5d	-0.06676171
28	0xbcc4fe48	-0.024047032
29	0x3d5f373a	0.054496028
30	0xbdb4e71f	-0.08833145
31	0x3ca45baa	0.02006324
32	0xbdd2f42c	-0.10300478
33	0x3a3ffafe	0.00073234725
34	0xbd9b615f	-0.075869314
35	0x3cdc916b	0.02692481
36	0xbde60cd5	-0.11232916
37	0xbd7d0cc4	-0.061779752
38	0xbd1b4e4a	-0.03791646
39	0x3b56596f	0.0032707115
40	0xbca18dc8	-0.019720927
41	0xbdc43f2c	-0.095823616
42	0xbccf8b2c	-0.025334917
43	0x3ce70efe	0.028205391
44	0xbde628b9	-0.11238236
45	0xbda33a47	-0.079701
46	0xbdba25c3	-0.09089234
47	0xbc200d44	-0.009768788
48	0xbd5dbd70	-0.05413574
49	0xbd15e26c	-0.036592886
50	0x3c2ecbfd	0.010668752
51	0xbe13a962	-0.14420083
52	0x3bfef4b6	0.0077806367
53	0xbd40d1ce	-0.047075085
54	0xbd637243	-0.05552889
55	0xbd94333e	-0.07236336
56	0xbd87f092	-0.06637682
57	0x3c42e2bb	0.011894877
58	0x3cdf9c13	0.027296102
59	0x3c6d9e0f	0.014503016
60	0xbd7bf5cd	-0.06151371
61	0x3ab3f863	0.0013730641
62	0xbd8b71ea	-0.06808837
63	0xbc8b97f2	-0.017040227
64	0xbdc3ef8f	-0.095671766
65	0xbd647c00	-0.055782318
66	0xbcb3a8e2	-0.021931116
67	0xbd0fc7b1	-0.03510255
68	0xbc7885e6	-0.015168643
69	0x3bc69864	0.006060647
70	0x3d47b994	0.048760965
71	0xbdcfeb62	-0.101523176
72	0xbd58db70	-0.052943647
73	0xbc8f9f73	-0.017532086
74	0x3c6057a6	0.013692772
75	0x3bcff05f	0.006345793
76	0xbe10e914	-0.14151412
77	0x3d5d5adc	0.05404173
78	0xbbbdb340	-0.0057891905
79	0x3d1f442c	0.038883373
80	0xbda12835	-0.07868997
81	0x3cfaf234	0.03063307
82	0xbde0f86f	-0.10984885
83	0xbe132aff	-0.1437187
84	0xbd83a128	-0.064272225
85	0xbd8d8217	-0.06909578
86	0x3ca003ff	0.019533155
87	0xbdcf20bc	-0.101136655
88	0xbe0f137c	-0.13972276
89	0xbccef022	-0.025260989
90	0xbde997f1	-0.11405934
91	0xbd08130b	-0.033221286
92	0xbcb37444	-0.021906026
93	0xbd46fa42	-0.04857851
94	0x3c8c64e8	0.01713796
95	0xbd05143e	-0.032490008
96	0xbce2a0f6	-0.027664643
97	0xbd5ab663	-0.053396594
98	0xbdedde7e	-0.11614703
99	0xbdee1b51	-0.11626304
100	0xbc869a25	-0.016430924
101	0xbdd19347	-0.10233169
102	0x3da0a3ed	0.07843766
103	0xbd800080	-0.06250095
104	0xb9666d05	-0.00021975122
105	0xbda4ce5c	-0.080471724
106	0xbdaf60df	-0.085633986
107	0xbc62e8ef	-0.013849481
108	0xbd80fb1c	-0.06297895
109	0xbdd9ece7	-0.10640889
110	0xbb930e3d	-0.0044877813
111	0xbd98fb7a	-0.0746984
112	0xbd878ac1	-0.06618262
113	0x3c803b51	0.015653284
114	0xbc1fa6ab	-0.009744327
115	0x3c70807c	0.014679071
116	0xbdd6b53a	-0.10483785
117	0xbd81fce9	-0.06347067
118	0xbd911fe9	-0.070861645
119	0xbe26b7e1	-0.16281082
120	0xbdcb93a5	-0.0994027
121	0xbdd894ac	-0.10575232
122	0xbdad5b31	-0.08464659
123	0xbdb01b5d	-0.08598969
124	0xbcbf8f5e	-0.023383792
125	0xbdde8744	-0.108656436
126	0xbde36388	-0.111029685
127	0xbd7c6a66	-0.061624907
128	0xbd58857d	-0.05286168
129	0xba94dc33	-0.0011357128
130	0xbc779341	-0.015110792
131	0xbda3ea0b	-0.080036245
132	0xbdb79791	-0.08964456
133	0xbda7a77c	-0.08186242
134	0xbd9fed20	-0.078089
135	0xbc6e9316	-0.014561435
136	0xbcb19e71	-0.021681996
137	0xbd848d3f	-0.06472253
138	0xbc4614f4	-0.012089957
139	0xbd759f13	-0.059966158
140	0xbdd3af26	-0.10336141
141	0xbd57ac94	-0.052654818
142	0x3cb808c2	0.022465114
143	0xbc8710cb	-0.0164875
144	0xbd4e206a	-0.05032388
145	0xbd353002	-0.044235237
146	0xbcde68f1	-0.02714965
147	0xbc90b71b	-0.017665436
148	0xbd47830c	-0.04870896
149	0xbc699501	-0.014256717
150	0xbde5ed54	-0.11226907
151	0xbd936dcc	-0.071986765
152	0xbe04ac31	-0.12956311
153	0xbd64f8a7	-0.055901196
154	0xbc70ad97	-0.014689825
155	0xbcf079ac	-0.029354893
156	0xbd900c10	-0.07033551
157	0xbdcc690a	-0.09980972
158	0xbce1de86	-0.027571928
159	0xbd91b38c	-0.07114324
160	0xbcbfeff5	-0.02342985
161	0x3ba8a849	0.0051470143
162	0xbdc5f80b	-0.09666451
163	0xbd984f50	-0.07437003
164	0xbc90c1ae	-0.017670479
165	0xbd987293	-0.07443728
166	0xbcbbecc3	-0.022940045
167	0xbdb6c0ff	-0.0892353
168	0xbc928c49	-0.017889159
169	0xbd9979b9	-0.0749392
170	0xbc188524	-0.009309087
171	0xbdb046a2	-0.08607222
172	0xbd0b8951	-0.034066502
173	0xbdceb99c	-0.10093996
174	0xbceef0f9	-0.02916764
175	0xbbbd8ea4	-0.0057848264
176	0xbd928381	-0.07153989
177	0x3c88cea5	0.016700098
178	0xbdda458f	-0.106577985
179	0xbd09a79e	-0.033607118
180	0xbe5f2a84	-0.21793562
181	0xbd7094ff	-0.058735844
182	0xbd811a52	-0.06303848
183	0xbd9c1cce	-0.076226816
184	0xbd738f3f	-0.059462782
185	0xbd1e0115	-0.03857525
186	0xbdd47de6	-0.10375576
187	0xbe1c38f3	-0.152561
188	0xbe1043a3	-0.14088301
189	0x3c6c87ad	0.0144366445
190	0x3cdcaa6f	0.026936738
191	0xbda90c8e	-0.08254348
192	0xbda7389d	-0.08165095
193	0xbd3ace6a	-0.045607008
194	0xbde8dc59	-0.11370153
195	0xbe116dbc	-0.14202017
196	0xbdb20b61	-0.086935766
197	0xbc80f7f2	-0.01574323
198	0xbd9047b1	-0.07044924
199	0xbd3d8332	-0.046267696
200	0xbc882c50	-0.016622692
201	0xbcdf0374	-0.027223326
202	0xbd00c34b	-0.031436246
203	0xbc35ed96	-0.011104008
204	0xbe01b447	-0.12666427
205	0xbe2c553c	-0.1682939
206	0xbe0af6bc	-0.13570684
207	0xbd6ae252	-0.057344742
208	0xbd60eead	-0.05491512
209	0xbda405b6	-0.08008902
210	0x3d02a1ec	0.031892702
211	0xbd81ddd7	-0.06341141
212	0xbd55709e	-0.052109353
213	0xbc9195b2	-0.017771576
214	0xbdc0bd9a	-0.09411164
215	0xbac9488c	-0.0015356704
216	0xbdcabb41	-0.09898997
217	0xbd809d84	-0.06280044
218	0xbd7ca5cf	-0.061681565
219	0x3ca08738	0.019595727
220	0xbd768caf	-0.06019276
221	0xbe1408c7	-0.14456473
222	0xbd820fc0	-0.0635066
223	0xbd0e6c42	-0.03477121
224	0x3c44e82f	0.0120182475
225	0xbd58442f	-0.0527994
226	0xbd73502c	-0.05940263
227	0x3b8c42ab	0.0042804084
228	0xbd61a159	-0.055085514
229	0xbcc128cd	-0.023579026
230	0xbc77c6dd	-0.015123096
231	0xbda9edb0	-0.082972884
232	0xbdb05bfe	-0.08611296
233	0xbd081f73	-0.033233117
234	0xbd6c4e2f	-0.05769175
235	0xbd14d495	-0.036335547
236	0xbc92d206	-0.017922413
237	0xbd78cb26	-0.060740612
238	0xbc91a21a	-0.017777491
239	0xbb98e68b	-0.0046661547
240	0xbe03df44	-0.12878138
241	0x3cd9794e	0.0265471
242	0xbcaa174b	-0.02076306
243	0x3c8f6dca	0.017508406
244	0xbdb658f8	-0.08903688
245	0xbb83197d	-0.004000841
246	0xbcc36b17	-0.023854775
247	0xbe03127f	-0.12800024
248	0x3d41558c	0.047200724
249	0xbd44d80c	-0.0480576
250	0xbc52cbff	-0.012866019
251	0xbde90541	-0.11377955
252	0xbd66dd38	-0.056363314
253	0xbd8bd189	-0.06827075
254	0xbc00390a	-0.007826099
255	0xbd6dafaa	-0.058028854

4.bias f4 [128]
0	0x3b885492	0.004160472
1	0xbd2b674d	-0.041846562
2	0xbe38f690	-0.18062806
3	0x3d4ead63	0.050458323
4	0xbd8ebb7a	-0.06969352
5	0xbdb08f98	-0.08621138
6	0xbbca2bb7	-0.006169762
7	0xbde8ab1b	-0.11360761
8	0xbcb65f05	-0.022262106
9	0x3d317230	0.04332179
10	0xbdeb5326	-0.11490469
11	0xbcb413ae	-0.02198204
12	0xbde1f7bb	-0.11033579
13	0xbce3dfc6	-0.027816664
14	0xbddc9cb8	-0.10772079
15	0xbbfd45d9	-0.0077292738
16	0xbd3f6fe0	-0.04673755
17	0xbdeabf15	-0.11462227
18	0x3d1b69bf	0.037942644
19	0xbd4b6f21	-0.049666528
20	0xbc95102b	-0.018196186
21	0xbbbce25a	-0.005764288
22	0x3bde414f	0.0067826877
23	0xbc962be8	-0.018331483
24	0x3bd95504	0.006632449
25	0x3bb81a5f	0.005618378
26	0xbcb3bbcd	-0.021940136
27	0xbd6e1557	-0.05812582
28	0x3d26e4d5	0.040745575
29	0xbcd121b9	-0.025528776
30	0xbdf04ee7	-0.117337994
31	0x3b733eb2	0.0037116227
32	0xbb375839	-0.0027976169
33	0x3cadd16b	0.021218022
34	0xbd5c3292	-0.053759165
35	0xbcd048e6	-0.025425386
36	0xbe4edce1	-0.20201446
37	0x3d2219b7	0.039575305
38	0x3d19f041	0.03758264
39	0xbdb06f68	-0.08614999
40	0xbdcc4817	-0.099746875
41	0xbd185c2e	-0.037197284
42	0x3cb94e11	0.022620233
43	0xbcd27d42	-0.025694493
44	0xbc833afd	-0.016019339
45	0xbd93dc6c	-0.072197765
46	0x3d309811	0.04311377
47	0x3cb7beba	0.022429813
48	0xbdb80bcc	-0.08986625
49	0x3d3c1878	0.045921773
50	0xbd9764a4	-0.073922426
51	0x3c70850b	0.014680157
52	0xbd5810b5	-0.052750308
53	0xbd4ccd5e	-0.05000054
54	0xbdb7c13f	-0.08972406
55	0x3da1c282	0.078984275
56	0xbde25509	-0.110513754
57	0x3c532492	0.012887137
58	0xbe8ada8b	-0.2711986
59	0xbd4b7880	-0.049675465
60	0xbe07d342	-0.13264182
61	0xbd0f7e5e	-0.035032623
62	0xbce16c59	-0.027517485
63	0x3d08b363	0.0333742
64	0xbe47c442	-0.1950846
65	0xbd959559	-0.073038764
66	0xbdcee3a3	-0.10102012
67	0x3d036f6d	0.032088686
68	0xbe00d68c	-0.12581843
69	0xbd8f33ad	-0.06992278
70	0xbd9878f5	-0.07444946
71	0x3d30220d	0.043001223
72	0xbcb53bd1	-0.02212325
73	0xbcad2ea6	-0.021140408
74	0xbe59d059	-0.21270885
75	0xbd20bf42	-0.039244898
76	0x3c343fbd	0.0110015245
77	0xbdf4edef	-0.11959445
78	0xbd800b79	-0.06252188
79	0xbd54c0b6	-0.051941596
80	0x3dc78e51	0.097439416
81	0xbd6e59d6	-0.058191143
82	0xbe3eeb80	-0.18644524
83	0xbd049b4f	-0.032374676
84	0xbde83854	-0.11338869
85	0xbaeb8e74	-0.0017971531
86	0x3c169ab7	0.00919216
87	0xbe4eaa24	-0.20182091
88	0xbd8e3743	-0.06944134
89	0xbda859ae	-0.0822023
90	0xbc76b2e7	-0.015057302
91	0xbda5831b	-0.08081647
92	0x3c12b97f	0.0089553585
93	0x3c4123fa	0.011788363
94	0x3c1e2f78	0.009654872
95	0xbd727906	-0.05919745
96	0x3d5697dd	0.05239092
97	0xbe13aafd	-0.14420696
98	0xbe277b70	-0.16355681
99	0xbd036421	-0.032077912
100	0xbe3c5f02	-0.18395618
101	0x3c96d2ca	0.018411059
102	0x3ca083d0	0.019594103
103	0xbe6520c9	-0.22375788
104	0xbe05720a	-0.13031784
105	0xbb2e7ea8	-0.0026625786
106	0xbc98241a	-0.018571902
107	0xbd891603	-0.066936515
108	0x3e215d37	0.15758215
109	0xbd4e2fa1	-0.05033839
110	0xbdc43608	-0.09580618
111	0xbd6052d6	-0.0547665
112	0x3d4be2b5	0.04977675
113	0xbd2a11c7	-0.04152086
114	0xbe5271c7	-0.20551215
115	0xbd581b90	-0.05276066
116	0xbd14f41e	-0.03636562
117	0xbdde93d9	-0.108680435
118	0xbc773b62	-0.015089842
119	0xbca6bbd7	-0.02035324
120	0xbcbadf49	-0.022811549
121	0xbcac0c93	-0.02100209
122	0xbd563b71	-0.05230278
123	0xbc558ead	-0.013034505
124	0xbdc14500	-0.09436989
125	0x3db5f72e	0.088850364
126	0xbcd9007f	-0.026489494
127	0xbd5c4656	-0.053778015

6.bias f4 [6]
0	0x3e71d67b	0.23616974
1	0xbca023f2	-0.01954839
2	0x3e350477	0.17677484
3	0xbe3f8c72	-0.1870592
4	0x3c9aa7b1	0.01887879
5	0xbe1989ad	-0.14993925

onnx::MatMul_24 f4 [36, 512]
0	0xbdcdcd15	-0.10048882
1	0xbdfa62bd	-0.12225864
2	0xbe0eca0f	-0.13944267
3	0xbe0af1ba	-0.13568774
4	0x3e360e89	0.17778982
5	0xbdbf34c7	-0.09336238
6	0xbdff1341	-0.12454844
7	0x3dfd1851	0.123581536
8	0xbd147d86	-0.03625252
9	0xbcf2f08b	-0.029655715
10	0x3dce5cc8	0.1007629
11	0xbd6eb779	-0.058280442
12	0x3e5bf748	0.21481049
13	0x3e3c1643	0.18367867
14	0x3e0425dc	0.12905067
15	0xbe17f27e	-0.14838597
16	0xbd77b765	-0.060477633
17	0x3a5c713f	0.0008409209
18	0xbe39a0aa	-0.18127695
19	0x3dd4a694	0.10383335
20	0xbce541d8	-0.027985498
21	0x3dd49bc3	0.10381272
22	0xbce5be91	-0.02804497
23	0x3e0472f0	0.1293447
24	0x3d3053d2	0.043048687
25	0xbda23270	-0.079197764
26	0xbe5f8f78	-0.21832073
27	0xbe8665e4	-0.2624961
28	0xbd82ff30	-0.063963294
29	0x3d924119	0.07141323
30	0xbda7b782	-0.08189298
31	0xbe0ff552	-0.14058426
32	0xbdda8b2b	-0.106710754
33	0x3ddb8811	0.10719312
34	0x3de690ff	0.112581246
35	0xbe5cb664	-0.21553952
36	0x3e3c34d2	0.18379524
37	0x3e58c289	0.2116796
38	0x3e4332d0	0.19062352
39	0x3e004e84	0.12529951
40	0x3c62f5e0	0.0138525665
41	0xbe33bbf9	-0.17552175
42	0x3c61bd97	0.013778112
43	0xbdb53fa7	-0.08850031
44	0xbd41b831	-0.0472948
45	0x3e447535	0.19185336
46	0x3d9712c8	0.07376629
47	0xbdd9be4a	-0.10631998
48	0xbe70f0e8	-0.23529398
49	0x3dfe460c	0.12415704
50	0x3dc34e9e	0.095364794
51	0xbda58a74	-0.080830485
52	0x3c3d9c11	0.011572854
53	0xbb14aea6	-0.0022687106
54	0x3d0cc8e6	0.03437128
55	0x3e395f01	0.18102647
56	0x3c22121a	0.009892011
57	0xbd4627c0	-0.048377752
58	0x3d7fc8eb	0.06244747
59	0xbe7487cb	-0.23879926
60	0x380cb4b4	3.3546894e-05
61	0x3d2889a1	0.04114688
62	0xbe3f47ca	-0.18679729
63	0xbd90f62d	-0.07078204
64	0xbcb010eb	-0.021492442
65	0xbcdc0974	-0.026859976
66	0xbe372191	-0.17883898
67	0xbdcc32c6	-0.09970622
68	0xbcc82b99	-0.024434851
69	0xbd11b896	-0.035576425
70	0x3dda371a	0.10655041
71	0x3d59a753	0.05313809
72	0x3d524456	0.0513347
73	0xbd2176c9	-0.039419923
74	0x3e049822	0.12948659
75	0xbd55ad82	-0.052167423
76	0xbe27786d	-0.16354533
77	0xbdd54755	-0.10413996
78	0xbe93a794	-0.2883879
79	0x3e3b11cc	0.18268508
80	0x3cc8a730	0.024493784
81	0x3dab483e	0.083633885
82	0xbe0401b1	-0.1289127
83	0xbe3968a6	-0.18106326
84	0x3d142f60	0.036177993
85	0x3e06aafa	0.1315116
86	0x3cf5035f	0.029908834
87	0x3e0e3ec8	0.13891137
88	0xbdbec2fe	-0.093145356
89	0x3d3f9726	0.046775006
90	0x3e05bcce	0.13060305
91	0x3d23c5bb	0.039983492
92	0x3e729db8	0.23692977
93	0xbddc7e09	-0.10766227
94	0xbde392c2	-0.11111976
95	0x3c0cad71	0.0085862735
96	0xbd8041df	-0.06262564
97	0x3dbf70e5	0.09347705
98	0xbe81584c	-0.25262678
99	0xbd43beec	-0.0477895
100	0xbd2d2984	-0.04227592
101	0xbbb91917	-0.005648743
102	0x3d75192e	0.059838466
103	0x3ceb39ee	0.028714146
104	0xbd84aeb6	-0.06478636
105	0x3e094069	0.13403477
106	0x3de52263	0.11188199
107	0x3e3353eb	0.17512481
108	0xbe0d14c9	-0.1377746
109	0xbcc333c7	-0.0238284
110	0xbd7a642e	-0.061130695
111	0x3d8e3498	0.06943625
112	0xbe1107d0	-0.14163136
113	0x3e0cc327	0.1374632
114	0x3e8b06c5	0.27153602
115	0xbcc3e4ba	-0.023912776
116	0xbc8b8f91	-0.017036231
117	0x3d5d0083	0.053955566
118	0x3cc1b25e	0.023644622
119	0x3e2aa37a	0.16663924
120	0x3b507916	0.0031810454
121	0x3dbd91cf	0.092563264
122	0xbe2c3707	-0.16817866
123	0xbe4736f3	-0.19454555
124	0xbe6c7140	-0.23090076
125	0xbe3de61c	-0.18544811
126	0x3e1ea404	0.15492254
127	0xbe1db7d7	-0.1540216
128	0xbe203ca3	-0.15648131
129	0x3d758057	0.059936848
130	0xbda63d4f	-0.081171624
131	0xbd2bba00	-0.04192543
132	0xbdfd0755	-0.12354914
133	0xbea5d52d	-0.32389203
134	0xbe3f21d0	-0.18665242
135	0x3d7bbba2	0.061458237
136	0xbe97a70f	-0.29619643
137	0x3dd74b1b	0.10512372
138	0xbd8c9476	-0.06864254
139	0xbdc48d92	-0.09597315
140	0xbd5201e0	-0.05127132
141	0xbcf02fd1	-0.029319676
142	0xbd410aad	-0.04712932
143	0x3e6a201b	0.2286381
144	0x3e06cc61	0.13163902
145	0x3dd0a591	0.10187829
146	0x3d3e15d4	0.046407536
147	0xbe748c3a	-0.23881617
148	0x3e0ff48c	0.14058131
149	0x3e146573	0.14491825
150	0xbc4f8b07	-0.012667424
151	0x3e3ebcb4	0.18626672
152	0x3cdaee7d	0.026725048
153	0x3dc32b52	0.09529747
154	0xbdfd2c75	-0.12361995
155	0xbd82280d	-0.06355295
156	0xbc8f11d7	-0.017464561
157	0x3dfd29e8	0.123615086
158	0xbde41b93	-0.11138072
159	0xbe92feb7	-0.28709957
160	0x3e74ada1	0.23894359
161	0x3e445edb	0.1917681
162	0x3d5ef5a2	0.054433472
163	0x3d155f1e	0.036467664
164	0xbe841944	-0.25800526
165	0xbe709b6e	-0.23496792
166	0xbd9c7023	-0.07638576
167	0xbd3ae1ce	-0.0456255
168	0xbd8d5497	-0.069009
169	0x3e12959c	0.14314884
170	0x3ddb0e06	0.10696034
171	0xbb564854	-0.003269692
172	0x3d1325ca	0.03592471
173	0x3d706d50	0.058698
174	0x3e24301b	0.16033976
175	0x3e17d823	0.14828543
176	0x3e0208a1	0.12698604
177	0xbe43570c	-0.19076174
178	0xbbac2448	-0.0052533485
179	0xbcf5d0b4	-0.030006744
180	0xbd305522	-0.04304994
181	0xbe3052b5	-0.1721905
182	0x3e4be29a	0.1991066
183	0x3e6607a4	0.22463852
184	0x3c967b06	0.018369209
185	0xbe9c8a92	-0.3057447
186	0xbe5ed476	-0.21760735
187	0x3e1b45fe	0.15163419
188	0xbd659f6e	-0.056060247
189	0x3b922015	0.004459391
190	0xbde796af	-0.113080375
191	0xbe93dff5	-0.28881803
192	0xbd9794dd	-0.0740144
193	0x3dba1607	0.09086233
194	0x3db77f9a	0.08959885
195	0x3e1e7a2d	0.15476294
196	0x3df065d2	0.11738171
197	0xbea19fcc	-0.31567228
198	0x3da7f90b	0.08201798
199	0x3c5f0f8a	0.013614545
200	0xbe5667f1	-0.20938088
201	0x3d2e5fcc	0.042571828
202	0xbe866efc	-0.2625655
203	0xbc4fbcf6	-0.012679329
204	0xbdb39b0d	-0.08769808
205	0xbde8b416	-0.11362474
206	0x3e206105	0.1566201
207	0xbd8a7758	-0.06761044
208	0xbc107575	-0.008817066
209	0x3d4c5214	0.049882963
210	0xbc8aa187	-0.016922725
211	0xbe035647	-0.12825881
212	0xbdc481dc	-0.09595081
213	0xbe1ad2ea	-0.1511952
214	0x3dc17f27	0.094480805
215	0xbd8fe3c5	-0.070258655
216	0x3cef508c	0.029213212
217	0x3d86afec	0.06576523
218	0x3dcb0485	0.099129714
219	0xbc943527	-0.018091751
220	0xbd5e5791	-0.05428273
221	0xbe39348e	-0.18086454
222	0x3e1d8e59	0.15386333
223	0xbe326127	-0.17419873
224	0xbe4bc78c	-0.1990034
225	0x3ce5e111	0.028061422
226	0xbe26117b	-0.16217606
227	0x3db9b265	0.09067229
228	0xbd1d6205	-0.038423557
229	0x3d64f8f8	0.055901498
230	0x3d6b3955	0.057427723
231	0x3dfa7252	0.12228836
232	0x3d616c34	0.05503483
233	0x3e0c6563	0.13710551
234	0xbd76406f	-0.060120042
235	0x3cbcc9a8	0.023045376
236	0x3ddf4ed1	0.10903705
237	0x3e80eae9	0.25179222
238	0x3ddceaac	0.107869476
239	0xbdae2529	-0.085031815
240	0x3d918413	0.07105269
241	0xbe0c61e8	-0.13709223
242	0x3d64559a	0.0557457
243	0xbe0cf73a	-0.13766184
244	0xbd706303	-0.058688175
245	0xbe241fb8	-0.16027725
246	0xbe0025c4	-0.12514406
247	0xbcfa8b33	-0.030583953
248	0xbe5c14e7	-0.21492349
249	0xbd6eeeb6	-0.05833312
250	0x3e166599	0.14687194
251	0x3e177fbf	0.14794825
252	0x3e163283	0.14667706
253	0x3e7d14cf	0.24714969
254	0xbe0163c7	-0.12635718
255	0x3e4f5ece	0.20251009

onnx::MatMul_25 f4 [512, 256]
0	0xbcd15cd2	-0.025556955
1	0x3c18b0a8	0.009319462
2	0xbd063d0c	-0.032773063
3	0xbe063a01	-0.13108064
4	0x3ce925f2	0.028460477
5	0x3c0950ee	0.008381112
6	0x3e0ded49	0.13860048
7	0xbd95b2a5	-0.07309464
8	0xbd4612c7	-0.04835775
9	0xbd820921	-0.063493975
10	0xbd018aa7	-0.03162637
11	0x3cfdb835	0.030971626
12	0xbdb8e573	-0.09028139
13	0xbd89fa17	-0.06737154
14	0xbd719387	-0.058978584
15	0xbd0cf241	-0.03441072
16	0xbda30a59	-0.07960958
17	0xbcfd31b5	-0.030907491
18	0x3daa3df3	0.08312597
19	0xbdd5e8e0	-0.10444808
20	0x3dc27563	0.09495046
21	0xbe168bee	-0.14701816
22	0xbd31bf2b	-0.043395203
23	0xbd03fe54	-0.032224968
24	0xbda75dbd	-0.08172176
25	0xbda8cfa8	-0.08242732
26	0xbd69df58	-0.057097763
27	0xbc9420c1	-0.018082025
28	0xbc058a8e	-0.00815071
29	0xbdd2befb	-0.10290333
30	0xbe79064c	-0.24318808
31	0x3d554f8b	0.05207781
32	0x3c04d9bb	0.008108552
33	0xbce16921	-0.02751595
34	0x3d05b38a	0.032641925
35	0x3990b289	0.0002759884
36	0x3d427b03	0.047480594
37	0x3d472f74	0.04862924
38	0xbd73d50f	-0.05952936
39	0xbce0a77b	-0.02742361
40	0x3e104d3e	0.14091966
41	0x3c1a2af5	0.009409656
42	0xbe3792b0	-0.1792705
43	0xbe41f150	-0.1893971
44	0x3a1a32a0	0.00058821775
45	0xbdcd23a3	-0.10016563
46	0x3c4f6517	0.012658379
47	0xbe1cf06d	-0.1532609
48	0x3db8f034	0.0903019
49	0x3ae7d27b	0.001768663
50	0xbdcbebaf	-0.099570625
51	0x3c9a7710	0.018855602
52	0x3c145c48	0.009055205
53	0xbc1c964b	-0.009557317
54	0x3c489a70	0.012243852
55	0xbe74c51f	-0.2390332
56	0xbe5ff2f4	-0.21870023
57	0x3de92851	0.11384643
58	0xbca2785c	-0.019832782
59	0xbdad2692	-0.08454622
60	0xbe86374d	-0.26214066
61	0x3d0d8e21	0.034559373
62	0xbc537cd0	-0.012908176
63	0x3d459d70	0.048245847
64	0x3cdb9417	0.026804013
65	0xbd6a5eb9	-0.05721924
66	0x3bb55e40	0.005534917
67	0x3d3f8423	0.046756875
68	0x3d1ddd65	0.038541216
69	0xbd5a1ab3	-0.05324812
70	0xbc6fb69f	-0.014630943
71	0x3d97e61b	0.07416936
72	0xbbf4b117	-0.0074674
73	0xbd8c486a	-0.068497494
74	0x3cda13b0	0.026620716
75	0xbd4da37f	-0.05020475
76	0xbd0c0231	-0.034181777
77	0xbd1fe510	-0.03903681
78	0x3cba721e	0.022759493
79	0xbdb37ab5	-0.08763639
80	0x3d84f39f	0.064917795
81	0x3d9785ec	0.073985904
82	0x3d517424	0.05113615
83	0x3b7c1cc6	0.0038469299
84	0x3e0afe60	0.13573599
85	0x3d70df16	0.0588065
86	0xbb709993	-0.003671263
87	0x3d9541c1	0.07287932
88	0xbc2e8b90	-0.0106533915
89	0xbd3e2dc8	-0.04643038
90	0xbdb251fd	-0.08707044
91	0x3c641d73	0.013923037
92	0xbd657457	-0.056019153
93	0x3db3ab10	0.08772862
94	0xbcde209c	-0.027115159
95	0x3ca9bf41	0.02072108
96	0x3cb273cf	0.021783737
97	0xbcc1b13b	-0.02364408
98	0x3ad7c661	0.001646232
99	0x3b74f6a3	0.0037378452
100	0xbdd2a48b	-0.1028529
101	0xbc2bf775	-0.01049601
102	0xbd511f61	-0.051055316
103	0x3d8040f9	0.062623926
104	0xbd1c106d	-0.038101602
105	0x3cfece1b	0.031104138
106	0x3cf1d2ac	0.029519401
107	0xbc883439	-0.016626464
108	0xbdca2282	-0.09869863
109	0xbd215636	-0.039388858
110	0xbd5818a1	-0.052757863
111	0x3d6ed053	0.058304142
112	0xbccb0e99	-0.024787234
113	0xbd5d53d2	-0.054035015
114	0xbd739063	-0.05946387
115	0x3d1455b2	0.036214538
116	0xbc8091cd	-0.015694523
117	0xbd872150	-0.06598151
118	0x3ca0c3a2	0.019624535
119	0x3d520c8e	0.051281504
120	0x3cf34e18	0.029700324
121	0x3d215c82	0.039394863
122	0x3d1f5a8a	0.038904704
123	0x3c2631a6	0.010143673
124	0xbd27622f	-0.04086512
125	0xbd63c2ea	-0.055605806
126	0x3d6e9357	0.058245983
127	0x3d2867ad	0.041114498
128	0xbd536377	-0.05160853
129	0xbd6ae249	-0.05734471
130	0xbdafc5ea	-0.08582671
131	0xbcc8c1b0	-0.02450642
132	0xbe04e4ce	-0.12977907
133	0x3c8d57e5	0.017253825
134	0x3df0d92d	0.11760173
135	0xbdb299ff	-0.08720779
136	0xbdadab7f	-0.08479976
137	0xbcf1f276	-0.02953456
138	0xbd61ec48	-0.055156976
139	0xbd80e34b	-0.06293353
140	0x3c4f0348	0.01263506
141	0xbd80c74f	-0.06288015
142	0x3cb11c9b	0.021620085
143	0xbde4b123	-0.11166599
144	0xbcd54b7f	-0.026036976
145	0x3c158686	0.009126311
146	0xbe849f6d	-0.25902882
147	0xbddf3775	-0.108992495
148	0xbe19c21c	-0.15015453
149	0xbe0a92b0	-0.1353252
150	0x3d124bd2	0.03571684
151	0x3d289137	0.041154113
152	0x3d306e7a	0.04307411
153	0xbc9a7051	-0.018852385
154	0x3a80009c	0.0009765807
155	0xbddc957f	-0.107707016
156	0x3cc9dddd	0.024641925
157	0x3cabf8bd	0.020992631
158	0xbda17696	-0.078839466
159	0xbcf8d239	-0.03037368
160	0xbdbef52a	-0.09324105
161	0xbde7af19	-0.11312694
162	0xbcdb060f	-0.026736287
163	0xbd960fa1	-0.073272
164	0xbe22e1c4	-0.15906435
165	0x3d2d97fc	0.04238127
166	0xbdbe9579	-0.093058534
167	0xbce92bc2	-0.028463248
168	0x3dc9ed56	0.09859721
169	0xbc43d9ca	-0.01195378
170	0xbd8dbae1	-0.0692041
171	0xbd89408f	-0.06701767
172	0x3d158d9b	0.036512
173	0xbd1df2e7	-0.038561728
174	0xbd8b05e1	-0.06788231
175	0x3dba6dfc	0.09103009
176	0xbddc7899	-0.1076519
177	0xbe18aedc	-0.14910454
178	0x3d1d381b	0.038383584
179	0x3c7fb72f	0.015607639
180	0xbd9f48a7	-0.07777529
181	0xbd897ba8	-0.06713039
182	0xbe57cf5e	-0.21075198
183	0xbca7af3b	-0.020469299
184	0x3dbdd8bc	0.092698544
185	0x3dbd08bf	0.09230184
186	0xbd8b8d07	-0.06814008
187	0xbc8e2032	-0.017349336
188	0xbdfa94f5	-0.122354425
189	0xbd2ba8cc	-0.041909024
190	0xbcf6918d	-0.0300987
191	0xbd662de6	-0.056196116
192	0xbac6215b	-0.0015116142
193	0xbdb87f02	-0.090086
194	0xbdbaa7de	-0.091140494
195	0xbd9d9669	-0.07694704
196	0xbd41a449	-0.047275815
197	0xbcb97e70	-0.022643298
198	0xbe0bbce4	-0.13646275
199	0xbcd46a9b	-0.02592974
200	0x3cc6cd9c	0.024267964
201	0xbca022ba	-0.019547809
202	0xbe0d4a19	-0.13797797
203	0xbe76b4ca	-0.24092403
204	0xbda09fb1	-0.07842959
205	0xbbe1929d	-0.0068839327
206	0x3d624a7a	0.055246808
207	0xbd48bc7b	-0.049007874
208	0xbdad9ab6	-0.084767744
209	0x3c526e44	0.012843672
210	0xbe0dc7d0	-0.13845754
211	0x3dc60e17	0.09670656
212	0xbcd997f8	-0.026561722
213	0x3c680f64	0.014163826
214	0xbd93530b	-0.071935736
215	0x3d2ee6c6	0.04270055
216	0xbd2420a9	-0.04007021
217	0xbe213366	-0.15742263
218	0x3bb589db	0.0055401153
219	0xbcf37ac8	-0.029721633
220	0x3ddf50b7	0.10904067
221	0x3cbace9f	0.022803603
222	0xbdc7e3db	-0.09760257
223	0xbd564820	-0.052314878
224	0xbd7b7db0	-0.06139916
225	0xbc3ccfa2	-0.011524113
226	0x3d906af0	0.07051647
227	0xbe80af1a	-0.25133592
228	0xbdac9f9d	-0.08428881
229	0xbba89f70	-0.0051459596
230	0xbe24f5db	-0.16109411
231	0x3c3c9c9b	0.011511947
232	0x3d6d94b6	0.05800315
233	0x3d849077	0.06472867
234	0x3d0760cc	0.033051297
235	0xbcf121a5	-0.029434988
236	0xbcac7b8b	-0.021055004
237	0x3d8ae029	0.067810364
238	0xbd81409b	-0.06311151
239	0x3d4f63a1	0.050632123
240	0xbcc42ab7	-0.02394615
241	0x3d362299	0.04446659
242	0xbd86f351	-0.06589378
243	0x3d51bbe0	0.051204562
244	0x3d317bc9	0.04333094
245	0x3cd6d27e	0.026223417
246	0xbd84f05d	-0.06491158
247	0xbab9aedc	-0.0014166492
248	0x3c597f8d	0.013275039
249	0xbd24957a	-0.040181614
250	0xbda99590	-0.0828048
251	0x3dc98a7e	0.098408684
252	0x3d61449d	0.054997075
253	0xbdbe2181	-0.09283734
254	0xbdac349f	-0.08408474
255	0xbdb9396d	-0.09044156

onnx::MatMul_26 f4 [256, 128]
0	0x3d0335ff	0.032033917
1	0x3d117add	0.035517562
2	0xbda83702	-0.08213617
3	0x3c0616b8	0.0081841275
4	0x3cd30b00	0.025762081
5	0xbc6286e5	-0.013826107
6	0x3d35fb52	0.04442913
7	0x3d95c12e	0.07312237
8	0xbd5ed5c5	-0.054403085
9	0x3c9cc420	0.019136488
10	0x3cb2dbd5	0.02183334
11	0xbcd05a18	-0.025433585
12	0xbdeb487d	-0.114884354
13	0xbb21826a	-0.0024644383
14	0x3d5543b6	0.052066527
15	0x3c4c01b9	0.012451583
16	0x3d1c743d	0.03819679
17	0xbcda47f4	-0.026645638
18	0x3b928f84	0.004472675
19	0x3d1506b2	0.03638334
20	0xbe3a4eb5	-0.18194087
21	0x3d3ba583	0.04581214
22	0x3d8ede10	0.06975949
23	0xbe2e0d18	-0.16997182
24	0xbb199b25	-0.002343842
25	0xbd39b4d5	-0.04533847
26	0x3d0bd837	0.034141745
27	0xb9c4ea3a	-0.00037558546
28	0xbccfb6f7	-0.0253558
29	0x3e2c7c29	0.16844238
30	0xbd23dae9	-0.04000369
31	0xbc38c2d4	-0.011276919
32	0x3c24f9c0	0.010069311
33	0x3bde8a49	0.006791387
34	0xbdd8f663	-0.105938695
35	0xbdb07695	-0.08616368
36	0xbd9fc131	-0.0780052
37	0xbac2038f	-0.0014802086
38	0xbd5da170	-0.054109037
39	0x3d6cf7da	0.057853557
40	0xbaa20a01	-0.00123626
41	0xbd9918df	-0.07475447
42	0xbb97ba36	-0.0046303524
43	0x3e2509d1	0.16117026
44	0xbd59d27c	-0.05317925
45	0xbdc8b543	-0.09800198
46	0xbd9022d1	-0.07037891
47	0x3d0b4910	0.034005225
48	0x3d529616	0.051412664
49	0x3cb72457	0.022356195
50	0x3cb20b3e	0.021733876
51	0x3d96f700	0.0737133
52	0x3c98d666	0.01865692
53	0x3db84bae	0.0899881
54	0xbe3a31b8	-0.18183029
55	0xbcd48bb6	-0.025945526
56	0x3d8d6a2f	0.069050185
57	0x3d91396e	0.07091032
58	0xbd826fc7	-0.06368976
59	0xbe0a8bba	-0.13529864
60	0xbd2378e3	-0.03991021
61	0xbc816bb8	-0.015798435
62	0xbcb379f1	-0.021908732
63	0xbd425ea5	-0.04745354
64	0xbce687a7	-0.028140856
65	0xbd10de11	-0.03536803
66	0xbd1babf7	-0.038005795
67	0xbd4613ae	-0.04835861
68	0xbc92722b	-0.017876705
69	0xbd80654e	-0.06269322
70	0xbcaaffe4	-0.020873971
71	0xbd7f36cc	-0.062308118
72	0x3d3d0e9c	0.04615651
73	0x3ccc641c	0.02495008
74	0xbd87fa89	-0.06639583
75	0x3d89cd69	0.06728632
76	0x3d634bdd	0.05549227
77	0xbdbb0abe	-0.09132908
78	0xbdcac710	-0.099012494
79	0x3d82d702	0.06388666
80	0x3a904630	0.0011007246
81	0xbaa1cc46	-0.0012344203
82	0xbd97f160	-0.074190855
83	0xbd2ee512	-0.042698927
84	0xbdd5b649	-0.10435159
85	0xbced8d20	-0.028997958
86	0xbdc8a0ac	-0.09796271
87	0xbbee2097	-0.0072670686
88	0x3dc2ad60	0.09505725
89	0xbde1c408	-0.11023718
90	0xbbbaaaf9	-0.005696651
91	0x3cca8b98	0.024724767
92	0x3cb053ac	0.021524273
93	0x3ded5eee	0.11590372
94	0xbca968a9	-0.020679789
95	0xbc8eaca2	-0.017416302
96	0x3d11f4e1	0.035633925
97	0xbd507ce9	-0.050900374
98	0x3d50d38b	0.050982993
99	0x3af40138	0.0018616086
100	0xbde95f27	-0.11395102
101	0x3c96be2d	0.01840123
102	0xbd8c100f	-0.068390004
103	0xbd0b5184	-0.034013286
104	0x3bf77851	0.0075521846
105	0xbc681b27	-0.01416663
106	0x3cf5184c	0.029918812
107	0x3d75a68e	0.059973292
108	0x3c346fbf	0.0110129705
109	0xbe2be01e	-0.16784713
110	0xbddad1a6	-0.106845185
111	0x3d9eb4e8	0.07749349
112	0x3d765f54	0.060149506
113	0x3d9194e2	0.07108475
114	0x3d25a755	0.040442783
115	0xbced2665	-0.028948972
116	0xbc8dc0bb	-0.017303815
117	0x3dc9d2ea	0.09854682
118	0x3de2ee28	0.11080581
119	0x3d55f753	0.05223782
120	0x3c8a3b42	0.01687396
121	0xbd9ed552	-0.07755531
122	0x3def187c	0.11674592
123	0xbe02d659	-0.1277708
124	0x3c8e0195	0.017334739
125	0xbe1e7187	-0.15472995
126	0x3c84e174	0.016220786
127	0xbd8162ef	-0.06317698
128	0x3d569c58	0.052395195
129	0xbd44e420	-0.04806912
130	0x3d22166a	0.039572157
131	0xbd89ae1e	-0.06722663
132	0x3daca208	0.084293425
133	0xbd0d98a7	-0.03456941
134	0x3d215f26	0.03939738
135	0xbd41a452	-0.04727585
136	0x3d7bddae	0.061490707
137	0xbbb04fb0	-0.0053805932
138	0xbce89f98	-0.028396413
139	0xbcbc92f5	-0.023019293
140	0xbddddd48	-0.10833222
141	0xbd031c86	-0.032009624
142	0xbcdebb98	-0.027189061
143	0x3c699e32	0.014258908
144	0xbbf42501	-0.0074507003
145	0xbdbe6b5d	-0.09297822
146	0xbc071a26	-0.00824598
147	0x3dc0c4ec	0.0941256
148	0xbc27ce1e	-0.010242013
149	0xbc6e5b79	-0.014548176
150	0x3c960c38	0.018316373
151	0x3cc5fd80	0.02416873
152	0x3d71e7af	0.05905884
153	0xbdac45d7	-0.084117584
154	0xbd4823cf	-0.048862275
155	0x3d9397a6	0.07206659
156	0x3d0a0266	0.033693694
157	0x3e3316d0	0.17489171
158	0xbd979ce0	-0.074029684
159	0x3ccd03d4	0.02502624
160	0x3aee85a5	0.0018197788
161	0xbd641801	-0.055686954
162	0x3ce3c29f	0.027802764
163	0x3d91f9bb	0.071277104
164	0x3d0d5d28	0.03451267
165	0xbc8bc689	-0.017062442
166	0xbd23f471	-0.04002804
167	0xbdc404bb	-0.09571215
168	0x3c89f5dc	0.016840868
169	0xbd995080	-0.07486057
170	0x3d1749c1	0.03693557
171	0xbc6e1afb	-0.0145328
172	0x3d93f48e	0.072243795
173	0xbd41522e	-0.047197513
174	0xbde35448	-0.1110006
175	0xbd15f0d0	-0.03660661
176	0xbd24952c	-0.040181324
177	0xbc6cc4d6	-0.014451226
178	0xbbf76ad5	-0.007550577
179	0x3c87c143	0.016571647
180	0x3d15e186	0.03659203
181	0x3af4eae8	0.001868573
182	0xbd77d1f2	-0.060502954
183	0xbd9247bd	-0.07142589
184	0xbbba135d	-0.005678578
185	0xbcdba88c	-0.026813768
186	0xbcdac23c	-0.026703946
187	0xbb2b6ab5	-0.0026156132
188	0xbd4c3a62	-0.049860366
189	0xbd8c42d6	-0.068486854
190	0x3d30d10b	0.04316811
191	0xbde56f69	-0.112028904
192	0xbd7a20fe	-0.06106662
193	0xbcb27a83	-0.021786934
194	0x3d0f85d2	0.03503973
195	0xbc09d557	-0.008412681
196	0xbd3087f5	-0.04309841
197	0x3e2a81c4	0.16651064
198	0xbcc40bb9	-0.023931371
199	0xbd5b37dd	-0.053520072
200	0x3d25344f	0.04033309
201	0xbc2f627e	-0.010704635
202	0xbd82c8ca	-0.06385954
203	0x3a495b42	0.000768114
204	0xbd7b7ce6	-0.06139841
205	0xbd0999ac	-0.03359382
206	0x3ce5df87	0.028060688
207	0x3d089080	0.03334093
208	0x3d1eb831	0.038749877
209	0x3c98be83	0.01864553
210	0x3cfc1953	0.030773794
211	0xbc1cf39a	-0.0095795635
212	0xbd8f5ef3	-0.07000532
213	0x3ccef7a5	0.02526457
214	0xbd03237c	-0.032016262
215	0x3d8fd36d	0.07022748
216	0x3c669fb8	0.014076166
217	0x3d43dfcb	0.047820847
218	0xbd31038a	-0.043216266
219	0xbd29c5da	-0.04144845
220	0xbd432efc	-0.04765223
221	0xbc682488	-0.014168866
222	0x3d991a6e	0.07475744
223	0x3d05a3c0	0.032626867
224	0x3aaff888	0.0013425509
225	0x3d495721	0.04915536
226	0x3d3849de	0.04499232
227	0x3d6f8ed2	0.058485813
228	0xbda38a84	-0.07985404
229	0xbd90eddd	-0.07076619
230	0xbd63a673	-0.05557866
231	0xbd25317e	-0.040330403
232	0xbdafee71	-0.08590401
233	0x3d79593e	0.060876124
234	0xbcaed0c2	-0.021339778
235	0x3d547bc2	0.051875837
236	0x3bdc79ee	0.0067284023
237	0xbc361739	-0.011113935
238	0x3b65333b	0.0034973163
239	0x3cbe09f5	0.023198107
240	0x3c5d57db	0.013509716
241	0xbad35456	-0.0016123157
242	0xbc2674c1	-0.010159672
243	0xbd4cc12c	-0.04998891
244	0x3c39d489	0.011342176
245	0xbd87263f	-0.06599092
246	0xbdd33e1b	-0.1031458
247	0x3df008e1	0.117204435
248	0x3c857e9e	0.016295727
249	0xbd07b0a8	-0.033127457
250	0xbd75c4f7	-0.060002293
251	0xbd4dee73	-0.05027623
252	0x3d1039d4	0.0352114
253	0xbdcf56a3	-0.101239465
254	0xbd04e71a	-0.032446958
255	0xbabd7035	-0.0014452996

onnx::MatMul_27 f4 [128, 6]
0	0xbd2d9da8	-0.04238668
1	0xbdb7eb6a	-0.089804485
2	0x3b31587b	0.0027060795
3	0xbcd08458	-0.025453731
4	0x3de59b16	0.11211221
5	0x3dcbc354	0.09949365
6	0x3c8db2c8	0.017297164
7	0xbb3f272f	-0.0029167642
8	0x3cc2734a	0.023736615
9	0x3c94932b	0.018136581
10	0xbe0f6a78	-0.14005458
11	0xbc29f1db	-0.010372604
12	0xbc9684f4	-0.018373944
13	0xbd549896	-0.05190333
14	0xbcdd1349	-0.026986735
15	0x3d12d6c7	0.03584936
16	0xbd3b6faf	-0.045760807
17	0x3daf8ffb	0.08572384
18	0xbc8dac50	-0.017294079
19	0xbc5db006	-0.013530737
20	0x3c110547	0.008851356
21	0xbc3b1d73	-0.011420595
22	0x3ce38cbc	0.027777068
23	0xbc5fd047	-0.013660497
24	0xbd945a31	-0.07243765
25	0xbcb034bc	-0.02150952
26	0x3d04542a	0.032306828
27	0x3cc8beb1	0.024504991
28	0xbd6b6b87	-0.057475593
29	0xbc819a89	-0.015820758
30	0xbd8413a8	-0.06449062
31	0xbb118679	-0.0022205396
32	0xbd10680e	-0.035255484
33	0x3c5854d1	0.013203816
34	0xbcaff4fe	-0.021479126
35	0x3c80b162	0.015709583
36	0x3da11693	0.07865634
37	0x3cc6e488	0.024278894
38	0x3c39febe	0.011352239
39	0x3d336ce7	0.04380503
40	0xbc774baa	-0.015093723
41	0x3d337813	0.043815684
42	0x3c8865c4	0.016650088
43	0xbcb1c28b	-0.02169921
44	0xbc85314e	-0.016258862
45	0xbdafd5d9	-0.0858571
46	0xbdf1e833	-0.118118666
47	0xbbd1318f	-0.0063840817
48	0x3bdafb64	0.0066828
49	0xbbb393fb	-0.005480287
50	0xbb810091	-0.003936835
51	0x3b9e4fe9	0.0048313034
52	0xbc4c6ca8	-0.012477078
53	0xb9d3fcdc	-0.0004043345
54	0x3bf9e032	0.007625603
55	0x3c9c31a2	0.019066636
56	0xbcf9102d	-0.030403221
57	0x3caee4f4	0.021349408
58	0x3c6ca3b0	0.014443323
59	0xbb9897c9	-0.004656766
60	0xbd6d43d1	-0.057926003
61	0x3d88b33d	0.06674812
62	0xbc9559b1	-0.018231245
63	0xbdc04c15	-0.093895115
64	0xbc43e91d	-0.011957434
65	0x3cb34df5	0.021887759
66	0x3cba4dbd	0.022742147
67	0xbb0be8fc	-0.0021348586
68	0x3badd845	0.0053053224
69	0xbc53a8d8	-0.012918673
70	0xbaadde9f	-0.0013265199
71	0xbd92606b	-0.071472965
72	0xbc440eb0	-0.011966392
73	0x3d90b1ae	0.0706514
74	0x3c53fbac	0.012938421
75	0xba645127	-0.00087096024
76	0x3da4a701	0.08039666
77	0xbddf062f	-0.10889851
78	0x3d1a47ac	0.037666008
79	0x3b06ff2c	0.0020598872
80	0xbc523ef0	-0.012832388
81	0x3b92a5c0	0.0044753253
82	0xbcb1fe31	-0.021727653
83	0xbd1b3c56	-0.037899338
84	0xbcc08c73	-0.023504471
85	0xbd31d2d2	-0.043413945
86	0xbd414e76	-0.047193967
87	0x3d95bc32	0.07311286
88	0x3d09c011	0.033630434
89	0x3d75b7d0	0.05998975
90	0xbd1f17ef	-0.038841184
91	0xbca303c3	-0.019899255
92	0xbd0a4f0e	-0.0337668
93	0xbd20fb1f	-0.039301988
94	0x3c569529	0.013097086
95	0x3c44209d	0.011970666
96	0x3dc62068	0.0967415
97	0xbe0081e2	-0.12549546
98	0x3d1a2f8b	0.037642997
99	0x3bebf3c2	0.007200689
100	0x3d929f99	0.07159347
101	0x3c80733d	0.01567995
102	0xbd55341c	-0.05205165
103	0xbc48f4d6	-0.012265405
104	0xbda1243f	-0.078682415
105	0xbd34affc	-0.044113144
106	0x3c2848ba	0.010271246
107	0x3e02103c	0.12701505
108	0xbcbfef63	-0.023429578
109	0xbc910b6a	-0.017705638
110	0x3c52976d	0.0128534855
111	0x3a9b4459	0.0011845931
112	0x3c07572a	0.008260528
113	0xbc7c1266	-0.015385246
114	0xbbd5cdc9	-0.0065247756
115	0xbccc226a	-0.024918754
116	0x3a2e2afd	0.0006643979
117	0x3b6839fe	0.0035434957
118	0xbc603030	-0.013683364
119	0xb8308ecc	-4.209466e-05
120	0x3dbf7b03	0.093496345
121	0xbcf87103	-0.030327326
122	0xbd2fd737	-0.042929854
123	0xbd9d226d	-0.07672582
124	0x3d5b94fd	0.053608883
125	0x3d37da1b	0.044885736
126	0x3b344f2f	0.0027513017
127	0x3c82a01c	0.015945487
128	0x3c5458db	0.012960638
129	0xbd67c334	-0.056582645
130	0x3cf32f59	0.029685663
131	0x3dec44bd	0.11536548
132	0xbcacfd9d	-0.021117026
133	0x3ac6ee03	0.0015177134
134	0xbc16d306	-0.009205585
135	0xbbeaa664	-0.0071609486
136	0xbb469e7e	-0.003030687
137	0xbcbf72c7	-0.02337016
138	0x3aa3fc80	0.0012511164
139	0x3d428768	0.047492415
140	0xbd8d214a	-0.06891115
141	0xbd11bd23	-0.035580765
142	0x3d0cef69	0.034408007
143	0x3d302eb7	0.0430133
144	0x3cdfdd8a	0.027327318
145	0x3aa736ce	0.0012757422
146	0x3c141189	0.009037384
147	0x3c6e21a0	0.014534384
148	0x3c8719f1	0.016491862
149	0x38270691	3.9822018e-05
150	0xba8492da	-0.0010114566
151	0x3c23b5dc	0.009992089
152	0x3bf08491	0.007340022
153	0x3b7e8292	0.003883515
154	0x3d12250e	0.03567987
155	0xbbcfb1e0	-0.006338343
156	0x3cc60e87	0.024176849
157	0xbcb13fe5	-0.021636913
158	0x3a8d08dc	0.0010760087
159	0x3c24fecb	0.010070513
160	0xbb027767	-0.0019907595
161	0xbc85d34a	-0.016336102
162	0x3d58f938	0.05297205
163	0xbc3e6d32	-0.011622714
164	0xbc524e71	-0.012836085
165	0xbce8bf9b	-0.028411677
166	0x3d43290c	0.047646567
167	0xbc296992	-0.010340111
168	0x3c4e610a	0.012596378
169	0xbd8202ec	-0.063482136
170	0xbc30e39f	-0.010796457
171	0x3ca7f21a	0.020501185
172	0xbc922b9e	-0.017843064
173	0xb94316f0	-0.00018605194
174	0x3c21a182	0.009865167
175	0xbd130bbb	-0.03589986
176	0x3b727bc8	0.003700005
177	0xbd231f20	-0.039824605
178	0xbd1c9b54	-0.03823407
179	0x3e431e3f	0.19054507
180	0x3dc34563	0.09534719
181	0x3d4f1f08	0.050566703
182	0xbd1cd4b7	-0.0382888
183	0xbc8cb812	-0.017177615
184	0x3cf6eb07	0.030141367
185	0x3d6c5a0d	0.057703067
186	0x3d98e346	0.07465224
187	0xbd98c274	-0.07458964
188	0x3d03de1e	0.03219425
189	0x3a4dbb9b	0.0007848085
190	0xbcac05bb	-0.020998826
191	0xbc55847e	-0.013032077
192	0xbcab388e	-0.02090099
193	0x3cdc30ae	0.026878681
194	0x3cae7e93	0.02130059
195	0xbcf44f8f	-0.029823093
196	0xbb304812	-0.0026898426
197	0xbc2bf709	-0.0104959095
198	0xbcb53368	-0.022119239
199	0xbcd39944	-0.025829919
200	0x3cc9ccbe	0.024633761
201	0xbcc1d818	-0.023662612
202	0xbcc5a410	-0.024126083
203	0xbc5dc2dc	-0.013535228
204	0x3d34bfe6	0.04412832
205	0x3bb19815	0.005419741
206	0x3d3b89be	0.045785658
207	0x3b959f5d	0.0045661167
208	0x3d86a6ed	0.06574807
209	0xbcd4b3da	-0.025964666
210	0xbc147d39	-0.0090630585
211	0xbd5ba6da	-0.05362592
212	0x3d8a98d2	0.067674294
213	0x3d2aad26	0.041669033
214	0x3e48fc68	0.19627535
215	0x3b9667b7	0.0045900005
216	0x3cebb36f	0.028772084
217	0x3c95c375	0.018281678
218	0xbc876e4a	-0.016532082
219	0x3d8a3a3d	0.06749389
220	0xbd82020c	-0.06348047
221	0x3da0e165	0.078554906
222	0xba264c17	-0.0006343736
223	0x3a7c15f2	0.0009616307
224	0x3b032865	0.002001309
225	0xbb19cd4f	-0.002346832
226	0xbb3b8ea1	-0.002861895
227	0xbb6a46e7	-0.0035747827
228	0xbccdc791	-0.025119575
229	0xbd1c3007	-0.03813174
230	0x3bce9822	0.0063047567
231	0xbbc56985	-0.006024542
232	0xb9438cf0	-0.00018649152
233	0x3b4f8b0a	0.0031668567
234	0x3d92a07d	0.07159517
235	0xbc1faa06	-0.009745127
236	0x3d3e1756	0.046408974
237	0x3d6439bd	0.055719126
238	0xbd91a77a	-0.07112022
239	0xbd96e7ae	-0.07368408
240	0x3d896483	0.06708624
241	0xb9d8d40b	-0.00041356715
242	0xbd58d670	-0.05293888
243	0x3bc8482e	0.00611212
244	0xbc9f0c4e	-0.019415047
245	0xbd160e9e	-0.036635034
246	0x3d31644d	0.043308545
247	0xbbab128e	-0.0052207178
248	0xbd9745d6	-0.07386367
249	0xbdbd25c6	-0.0923572
250	0xbdef732b	-0.116918884
251	0xbd51bf63	-0.05120791
252	0xbc9024a4	-0.017595597
253	0x3cd2b2e9	0.025720077
254	0xbc0aebe2	-0.00847909
255	0xbcbcb7a5	-0.023036787
