tron1-rl-deploy-python-main/controllers/model/WF_TRON1B/policy/isaaclab/encoder.onnx (onnx, 445274 bytes, 6 tensors)

encoder.0.bias f4 [256]
000000 14 0f 68 be 45 17 50 be c4 a9 79 be b0 e9 07 bf
       -0.22662002 -0.20321377 -0.24381167 -0.53090954
000010 59 4d 5d bd 09 09 39 be 2c 33 61 be f1 d0 b1 bc
       -0.054028843 -0.18069853 -0.21992177 -0.021706076
000020 79 69 25 c0 90 eb 8e 3b 88 59 e2 3d cf 74 0e bf
       -2.5845625 0.0043615773 0.11052233 -0.55646986
000030 b9 63 d4 be 43 09 0a 3e 0a 59 3d be b9 1a ad bd
       -0.41482332 0.13480096 -0.18490997 -0.084523626
000040 6a 8c 9c be 76 78 c3 be 17 6e 6c be 0a 14 b7 be
       -0.30575877 -0.38177842 -0.23088871 -0.35757476
000050 1f ba 24 bf 27 9e be be 66 79 7f 3e d4 f0 2f bd
       -0.643465 -0.37230036 0.24948654 -0.04295428
000060 58 92 91 be 97 ae c2 bc a5 5f 94 bf ff a6 04 40
       -0.28431964 -0.023764892 -1.1591688 2.0726926
000070 67 e4 10 be 3a 56 5b be 2d b2 41 be 71 9b 54 be
       -0.14149629 -0.21419612 -0.18915625 -0.20762421
000080 29 a6 44 be 1e a3 50 be ab bd 91 be 50 f4 c6 bd
       -0.1920401 -0.20374724 -0.28465018 -0.09714568
000090 ce 58 90 be 87 6d 0b be de 58 3d c0 12 1c d0 be
       -0.28192753 -0.13616 -2.958549 -0.40646416
0000a0 3a 4e c9 bf c6 ee 7e be 3c 85 bb bc bd 70 e4 bd
       -1.5726998 -0.24895772 -0.02289068 -0.111543156
0000b0 47 b7 c4 be 77 9b b4 bd fa 91 03 bf 05 1e cc be
       -0.3842108 -0.08818715 -0.5139462 -0.39866653
0000c0 77 db 13 c0 af 99 2b c0 52 09 4a be 97 df ff bd
       -2.31027 -2.681255 -0.19730118 -0.12493818
0000d0 67 af 4e bf 81 ff 6c bc 2c 83 b4 bc 13 77 e2 be
       -0.8073639 -0.014465214 -0.022035204 -0.4423147
0000e0 fb c5 a4 bd e4 18 6f be ba ea c5 bb 87 cf 70 be
       -0.08045574 -0.23349339 -0.0060399445 -0.23516665
0000f0 9c 01 9a be 19 e8 df 3e 35 28 8e be dc 0a 37 be
       -0.30079353 0.43731764 -0.2776505 -0.17875236
000100 38 c1 24 be d1 17 a5 be dc f1 9c be 2c c5 90 bf
       -0.16089332 -0.32244733 -0.30653274 -1.1310172
000110 8a a6 8c be a3 6a b5 bd a3 ae 8b 3d 4a 28 42 be
       -0.2747081 -0.0885823 0.06820419 -0.18960682
000120 11 43 63 3e 3f ec 5c bd 4b b6 8b c0 c9 a7 31 bd
       0.22193553 -0.05393624 -4.3660026 -0.043372903
000130 79 ed 71 c0 bb 3c 8f be 4e 44 8d 3c e0 ee 01 3d
       -3.7801192 -0.2797602 0.017244484 0.03172195
000140 f7 a4 9f be 7f 47 e9 bd 2b 50 e1 3d 4c 35 cf bf
       -0.31180546 -0.1139059 0.11001619 -1.618814
000150 56 cb 6d be 2c 9b 19 be 1a c8 df be 3e 59 f0 bc
       -0.23222098 -0.150006 -0.43707353 -0.029339429
000160 05 95 de be 69 cb 25 be 9e 61 e4 bf 67 a0 ac be
       -0.43473068 -0.16190876 -1.784229 -0.33716127
000170 19 ba 6a bf e5 5e f3 3b 68 97 47 be cb b0 a0 be
       -0.9169021 0.007427084 -0.1949135 -0.31384882
000180 5b 49 fe bd 2a d1 4f be ca e2 69 bd 66 3f 14 3d
       -0.12416335 -0.20294634 -0.05710105 0.036193274
000190 f1 8d 7d be b6 a4 87 be 79 c0 70 be ce db 16 bf
       -0.24761178 -0.26492852 -0.23510922 -0.58929145
0001a0 59 9d d2 3d 74 21 b1 bf 81 39 a5 bb 0e 5f 8c bd
       0.10283918 -1.3838334 -0.0050422554 -0.06854068
0001b0 59 19 87 be 04 a2 04 be 46 4e b0 bd e8 62 a0 be
       -0.26386526 -0.12952429 -0.086086795 -0.3132546
0001c0 fe 5b 0c c0 21 33 10 bf 33 d7 b7 bf 4a 34 a1 be
       -2.1931148 -0.56328017 -1.4362549 -0.31485206
0001d0 a9 f6 99 be b2 a9 ff be 32 64 37 c0 e0 84 71 be
       -0.30071 -0.49934155 -2.8654904 -0.23585844
0001e0 8c 6b 30 bc b6 e2 a0 bd 7c 9f 8e be fb 9a 34 be
       -0.010767829 -0.07855742 -0.27856052 -0.17637245
0001f0 4a 50 f2 3b 6d b0 34 c0 eb 8d c9 3c 2b 04 92 3e
       0.007394825 -2.8232682 0.024603805 0.28518805
000200 28 75 ef bd 91 c6 04 c0 c5 bc 8a bd 9c b2 5e 3d
       -0.11692268 -2.0746195 -0.06774286 0.054369554
000210 68 b1 82 bd 07 4d 0a bf 08 c7 6a 3e be f4 96 be
       -0.06381494 -0.54023784 0.22927487 -0.29483598
000220 1a e1 91 bf 77 b1 89 be 8d 7d 7e bf 74 ad 1b bf
       -1.139682 -0.26893207 -0.99410325 -0.60811543
000230 0e b7 df bd 8c 42 c6 bd 75 bc f8 bc a1 f3 06 bd
       -0.10923587 -0.096806616 -0.0303633 -0.032947186
000240 70 73 27 be 33 34 43 bd d2 5c 17 be aa 9e 92 be
       -0.1635263 -0.047657203 -0.14781502 -0.28636676
000250 e1 23 89 be 6f b9 98 be 82 c2 cc bd 86 d3 eb bd
       -0.26785186 -0.29828975 -0.09998037 -0.11514954
000260 25 87 52 bd f4 01 19 be f6 14 a4 bd 35 c0 29 be
       -0.051398415 -0.14942151 -0.080118105 -0.16577227
000270 ae 52 88 3c 40 c6 0d bf 23 34 a3 be 4d 35 45 be
       0.016640987 -0.5538063 -0.31875715 -0.19258614
000280 e3 75 a2 be b3 d5 17 bf f6 8a 76 bf d3 8c f5 bd
       -0.31730565 -0.59310454 -0.9630579 -0.11989751
000290 eb b9 71 be 0b c0 b3 3d d0 01 fa 3d 34 c8 d4 be
       -0.23606078 0.08776864 0.12207377 -0.41558993
0002a0 06 8c f2 bf 19 f2 1a be a1 66 b1 3d 8f ab 90 bd
       -1.8948982 -0.15131415 0.08662153 -0.07063972
0002b0 16 53 9d bd b9 12 fa 3e 5e 25 76 be 8f 94 7f be
       -0.07681863 0.4884241 -0.24037692 -0.24959014
0002c0 de 4a 53 be 53 14 32 3e 43 ca 8d c0 e6 f1 ae bf
       -0.20634028 0.17390566 -4.43094 -1.3667572
0002d0 7e 41 e9 bc 0f c3 1f be e4 60 05 bf e6 d4 03 be
       -0.028473612 -0.15601753 -0.5210097 -0.12874183
0002e0 05 07 22 3e 12 f6 c9 be ea 6f 89 be 39 80 4d be
       0.1582299 -0.3944555 -0.26843196 -0.20068444
0002f0 3a 04 32 be 92 67 0b bf f5 c7 50 be 7d 64 88 3f
       -0.17384425 -0.5445491 -0.20388778 1.0655667
000300 94 49 e8 bd 25 b6 dc be ef cf b9 3e 2d a5 b8 3d
       -0.11342159 -0.43107715 0.36291453 0.0901588
000310 c6 fa 64 be 34 47 25 be 1b 90 a2 bf 7b 48 3b 3c
       -0.22361287 -0.16140443 -1.2700227 0.011430855
000320 68 c9 bb bd 00 10 ca bd a5 a1 10 3e 95 b0 5a be
       -0.091692746 -0.09866333 0.14124162 -0.21356423
000330 83 06 df 3d 19 90 3e be 29 9c 34 be b4 bc 48 bf
       0.10889914 -0.18609656 -0.17637695 -0.7841294
000340 4f 7c c1 bd 69 42 b0 be a7 b6 9c bd 62 66 88 bf
       -0.09447538 -0.34425667 -0.07652026 -1.0656245
000350 1d 7d d2 3f 22 ac a3 bd 4c 47 de be f2 85 c1 bf
       1.6444432 -0.07991816 -0.4341377 -1.5119002
000360 64 49 ad bd c6 a8 44 be 35 01 e8 bd ad 52 8c be
       -0.08461264 -0.19205007 -0.11328355 -0.27406827
000370 ff 5b 95 bd 43 d7 47 bf 85 56 f1 bb 89 cf ce c0
       -0.072929375 -0.7806284 -0.0073650503 -6.462834
000380 07 83 e4 be 04 e8 e5 be e6 19 f1 3d 0e f3 1f 3e
       -0.44631216 -0.44903576 0.11772518 0.15620062
000390 a3 d4 22 bd 8a 4e f5 bd ba d8 62 bd f1 77 50 bb
       -0.039753567 -0.11977871 -0.055382468 -0.0031809772
0003a0 28 1f 85 be 7b 23 8e bf 4f 72 cf 3d f5 f4 b8 c0
       -0.26000333 -1.1104578 0.101292245 -5.779902
0003b0 51 51 22 c0 09 36 b7 be 2b 8f 01 bd b7 12 06 bf
       -2.5362132 -0.35783413 -0.031630676 -0.52372307
0003c0 cc 63 3d be 57 24 8a c0 31 fb c1 be 1e e7 61 be
       -0.184951 -4.316936 -0.37886956 -0.2206082
0003d0 ee bf 68 be 2c 3e 8d be c5 b0 fc 3e c7 65 a1 3e
       -0.22729465 -0.27586496 0.49353614 0.31522962
0003e0 33 ce 02 be b5 4b f9 be f1 b3 d3 3c cf f7 90 bd
       -0.12773971 -0.48690572 0.025842639 -0.07078516
0003f0 e6 01 26 bf c6 68 dd bd 24 8f b9 bc ff 3c 29 be
       -0.64846647 -0.108109996 -0.022651263 -0.16527174

encoder.2.bias f4 [128]
000000 4c e4 65 bd 94 3b 51 bd e7 77 0c bd 4a f8 8d bd
       -0.056125924 -0.05108221 -0.034294035 -0.06932123
000010 f3 94 1b bd 54 f9 65 bf 15 5f 1d bf 8b 1e eb 3c
       -0.037983846 -0.8983357 -0.6147321 0.028701087
000020 28 66 de be 28 81 88 bd 65 40 0d 3d b7 18 b5 bf
       -0.43437314 -0.066652596 0.03448524 -1.4148167
000030 96 33 b8 bd 7e 92 27 bd d3 ac 6e bd 8f ca da bd
       -0.08994214 -0.04091119 -0.058270287 -0.10683166
000040 b4 29 c6 bf d8 ed 7d be 61 bf e8 bd c8 3c 4e bf
       -1.5481477 -0.24797761 -0.11364628 -0.80561495
000050 51 dc 4c be 8a f8 3a 3d 72 96 24 c0 2c 04 2c bd
       -0.20005919 0.04564718 -2.5716825 -0.041996166
000060 79 8a e0 be ef 7b a3 bd 2a 4f 7b be 72 ed 5d bf
       -0.43855646 -0.07982623 -0.24541917 -0.8669044
000070 c6 24 a4 be 0b 5f 07 be 19 d9 41 3d 5c 87 25 bd
       -0.32059306 -0.1321985 0.04732618 -0.040412292
000080 ba 6c 35 bc 2e c3 38 bd 91 7e 0d bd 21 70 db bd
       -0.011073286 -0.045108013 -0.03454453 -0.10714746
000090 6c a3 d6 bd 5f 4e 73 be 43 c2 33 be 5f b9 81 bd
       -0.10480389 -0.23760365 -0.17554574 -0.06334185
0000a0 7f d3 96 bd ba 92 fb be fd ef 27 bf b8 a8 75 bd
       -0.073645584 -0.4913538 -0.6560057 -0.059975356
0000b0 e6 bf 15 be 09 0d 94 bd 90 8a db bd d2 5c 4c bf
       -0.14623985 -0.07229049 -0.10719788 -0.7982913
0000c0 90 bc 70 bf 18 1a 5c bd f2 ea 7e bd a9 d8 30 be
       -0.94037724 -0.053735822 -0.06223578 -0.1727015
0000d0 14 13 b7 3c 72 67 dd bd 0a d1 2b be f3 bb 6e bf
       0.022347964 -0.10810746 -0.16778961 -0.9325554
0000e0 75 91 86 bd 7a 88 a8 3e 71 e6 a6 be 97 1b b3 be
       -0.065707125 0.32916623 -0.32597688 -0.34981987
0000f0 c4 c8 07 bf a3 f3 8e bd 81 01 a4 bd eb 37 30 bf
       -0.5304072 -0.06980064 -0.08008099 -0.68835324
000100 15 05 fe bd 75 98 f3 be 24 45 c4 3b dc 45 9b bd
       -0.12403313 -0.47577253 0.0059896875 -0.07581684
000110 87 e7 53 bd b5 2f 95 bf 4c 8b c2 bd 13 12 78 bd
       -0.051734474 -1.1655184 -0.09499225 -0.060564112
000120 3d 60 10 bd 9a bb c9 bd ea e5 b8 bd 08 da 88 bf
       -0.03524803 -0.09850235 -0.090282276 -1.0691538
000130 da 42 b7 bd e2 66 5b bf a9 f7 7d bd 51 ad e6 bd
       -0.08948298 -0.8570386 -0.062003765 -0.11263526
000140 2b ea e0 bd da a3 9b 3e 76 9e 13 3b 1d b9 d0 be
       -0.10982164 0.30398446 0.002252487 -0.4076623
000150 3e 3a d6 be 54 ce 60 bd c0 e0 dc bc 50 a1 fe bd
       -0.4184131 -0.05488427 -0.026962638 -0.12433112
000160 48 db 57 be 2a f0 1e be f3 06 da bd 79 5a 28 c0
       -0.21079743 -0.15521303 -0.10645857 -2.630522
000170 75 0a 64 3d 91 ca 05 bd 5a 24 8c bf 38 5c 88 be
       0.055674035 -0.032663886 -1.0948594 -0.26632857
000180 cc 73 d9 be 98 bf 00 be 77 07 6b bf be 60 ab 3c
       -0.42471159 -0.12573087 -0.91808265 0.020920154
000190 76 5f 0b bf 86 71 9d 3e cd f2 81 bd 1a e8 d7 be
       -0.54442537 0.30750674 -0.06345139 -0.42169267
0001a0 ad a4 03 be 2d 25 0b bd 48 a0 23 3b 7c a3 01 3e
       -0.12855788 -0.033971 0.0024967361 0.1266002
0001b0 ff ea b2 bd d1 bb 46 3e 2c aa b2 bd 29 ba 26 bf
       -0.08736228 0.19407584 -0.08723864 -0.6512781
0001c0 75 54 03 bf a2 72 11 bf 80 36 20 bf 81 59 0c 3c
       -0.51300746 -0.5681554 -0.6258316 0.008566261
0001d0 87 57 a2 bd e8 65 08 bd 61 9f 93 bc 86 81 75 bd
       -0.07926851 -0.03330031 -0.018020334 -0.059937976
0001e0 84 e9 80 be 37 14 07 be 9f 6f 41 3c 67 c9 18 be
       -0.25178158 -0.13191305 0.011806398 -0.14920579
0001f0 a1 e7 9b be a3 1a 71 bd 92 eb 04 c0 cb fa 31 be
       -0.30450156 -0.058863293 -2.076878 -0.17380826

encoder.4.bias f4 [3]
000000 fe b4 59 3d e0 cb 97 bb 0d a1 5e bd
       0.053151123 -0.004632458 -0.05435281

onnx::MatMul_18 f4 [280, 256]
000000 97 95 93 bd b5 1c 19 3f 40 5a 7c be 6c a3 70 bf
       -0.072062664 0.5980943 -0.24643803 -0.9399936
000010 76 47 6e be d9 0b 21 3f f0 42 02 3f 88 38 8c 3e
       -0.23269448 0.62908703 0.5088339 0.2738688
000020 fc ef 8c bf 82 4a 92 3e b0 45 4a 3e 98 83 80 bf
       -1.1010737 0.2857247 0.19753146 -1.0040159
000030 06 4f 3a be 23 0c 96 3f 09 58 ac be 22 af cc 3d
       -0.18194208 1.1722454 -0.33660915 0.099943414
000040 8c 51 95 3d a5 bd 87 bf 26 94 9c 3f 89 65 83 be
       0.072909445 -1.060475 1.2232711 -0.25663403
000050 a2 02 de 3e 63 71 98 3e 97 f1 17 3e cb 40 9f 3d
       0.43361384 0.29774007 0.14838253 0.0777603
000060 e7 49 88 3f c2 68 d5 bf 3a 1e 9a 3f 6c ee 6a 3f
       1.0647553 -1.6672595 1.2040474 0.9177005
000070 62 eb e6 be eb 16 87 3f 7e c2 d9 3c 07 19 ad 40
       -0.45101458 1.0553869 0.026581999 5.409305
000080 76 4b 0e be d4 99 5a 3d ae 0c 9a 3e f5 bb 9a 3d
       -0.13895974 0.05336936 0.300878 0.07555381
000090 39 b2 af 3e 27 4f 02 be 70 04 c9 3d 21 b2 7f bf
       0.3431566 -0.12725507 0.098152995 -0.9988118
0000a0 49 75 ad 3e ee 3d 6a 3e f1 f6 0f 3f 96 e0 f6 3d
       0.33878544 0.22875187 0.5623618 0.12054555
0000b0 c4 37 5b 3e 00 e8 32 3e 7c 94 84 3e 9d 98 0d 3f
       0.21407992 0.17471313 0.25894535 0.55310994
0000c0 e5 94 a4 be 30 ff dc bf b2 23 fa 3e da af 12 bd
       -0.32144848 -1.7265377 0.48855358 -0.035812236
0000d0 08 9b 09 bf 15 77 77 3e 87 5a 9b be 15 7f 24 3f
       -0.53752184 0.2416652 -0.30342504 0.6425641
0000e0 b3 e3 23 3f 28 73 d0 3f 6b 8b 8a bc f8 ad 20 3e
       0.64019316 1.6285143 -0.016912183 0.15691364
0000f0 bd 25 0e be 47 e1 ce be ec f6 a9 be 7e 9d b5 3b
       -0.13881584 -0.40406248 -0.331962 0.005542456
000100 74 a9 5b bf 42 33 3b be 37 1e 70 bf 96 8f 9e bf
       -0.8580544 -0.18281272 -0.93796104 -1.2387569
000110 6d e9 fb 3e 18 c2 0f 3f 44 be 5c 3d df e1 d0 3f
       0.49201527 0.5615554 0.05389239 1.631893
000120 a1 b6 b2 bf 24 80 7e be 17 ee de 3d 40 52 13 be
       -1.3961984 -0.2485357 0.10885256 -0.14386845
000130 da 87 e1 be 17 3e 6e 3f e0 2a 3e bf 9c 37 8c bd
       -0.4404896 0.9306349 -0.7428417 -0.06846544
000140 f0 33 18 3d 60 5d 39 be c1 17 3a 3e 1f de 48 3d
       0.037158906 -0.18102026 0.18173124 0.049039956
000150 f7 32 7b 3f 0c a4 e3 be 49 9d 35 40 2e 61 07 3f
       0.9812464 -0.44461095 2.837725 0.5288266
000160 92 3d bb 3e c9 28 66 be da e7 8b 3f 15 0d 69 be
       0.36570412 -0.22476496 1.093013 -0.22758897
000170 44 db 14 3f 94 46 94 be 49 a2 d4 bf 22 37 80 3d
       0.5814707 -0.28960097 -1.6612025 0.06260516
000180 ec 5e 8c 3c a1 84 97 3e 3f 6e 49 be 82 2a f8 bd
       0.017135106 0.29593375 -0.19670962 -0.12117483
000190 31 e4 64 bd d3 66 47 bc c3 3a 61 3f ec e5 33 bf
       -0.055881683 -0.012170511 0.8798029 -0.7027271
0001a0 fc d6 6e be 93 73 0c 3e b6 b8 19 bf a3 26 99 3e
       -0.23324198 0.13715963 -0.6004747 0.2991229
0001b0 42 14 fa be 09 cd c8 be e7 61 0a be 3d d7 50 be
       -0.4884358 -0.3921893 -0.1351391 -0.20394607
0001c0 da a3 9e be 0d c9 2a 3e d0 ab 67 bf 0e 91 c7 bf
       -0.30984384 0.16678257 -0.9049654 -1.5591142
0001d0 0f da cd bd 72 55 c8 3d c4 83 7b 3e 43 64 d1 bc
       -0.10051357 0.097819224 0.24561983 -0.025560504
0001e0 79 e6 d8 3f 34 3f 15 3f 19 d1 d4 bc cd 1d 1d be
       1.6945335 0.58299565 -0.025978612 -0.153434
0001f0 a5 79 dc be 27 2c 57 3f a9 c1 57 be 67 3a f9 bd
       -0.43061557 0.84051746 -0.21069969 -0.121693425
000200 38 af 49 3f 1a 83 08 bf ae 37 0f 3e dc 72 0b be
       0.7878299 -0.53325045 0.13986084 -0.13618034
000210 7b 11 8d be db f0 b3 3e d5 43 6a 3f 9d ca 96 be
       -0.275524 0.35144696 0.91509753 -0.29451457
000220 a9 07 cf bf a1 d1 a3 be 77 07 b7 3e a6 0d b5 be
       -1.6174213 -0.31995872 0.35747883 -0.35361975
000230 30 fe a7 be df 0e d8 3d ec 3b 4e be 9c 31 d1 be
       -0.32811117 0.105497114 -0.20140046 -0.4085816
000240 0a 86 be 3e 3f 11 c2 3d 22 d6 c0 be fc e7 af be
       0.3721164 0.09475946 -0.3766337 -0.34356678
000250 56 26 2a c0 f9 7d d7 bd 83 7c 81 bf ca 8a 19 bf
       -2.6585898 -0.10522074 -1.0116123 -0.599774
000260 e8 1f cc be e7 02 83 bf 64 f3 96 be 44 18 85 bf
       -0.39868093 -1.0235261 -0.29482567 -1.039803
000270 92 30 07 bf c2 4b 86 3e 51 77 5c bb c8 48 0d be
       -0.5280849 0.26229674 -0.0033640454 -0.13797295
000280 07 43 2d 3f a2 7a ec be a4 3e fa bd d9 f8 75 3e
       0.676804 -0.4618731 -0.12218979 0.24020709
000290 0f c7 3b 3d ff ea 86 bd b2 24 4f 3c 89 e2 08 be
       0.045844134 -0.06587791 0.012643026 -0.13367666
0002a0 7d 28 59 bf ca f4 97 bd 24 a7 54 be 9a 63 95 3e
       -0.84827405 -0.07419737 -0.20766884 0.29177552
0002b0 ff b0 c3 bd 6d f9 02 bf 62 5c a6 be 2f 4c 4a be
       -0.09555244 -0.51161844 -0.32492357 -0.19755624
0002c0 9a 68 d1 bd f7 37 7d be 37 57 5f bf dc 22 1a 3f
       -0.10225029 -0.2472838 -0.87242454 0.6020944
0002d0 e5 89 d3 bc 24 46 ba be 96 28 94 bd 12 8d 72 be
       -0.02582259 -0.36381638 -0.07234304 -0.23686627
0002e0 66 87 00 3f ed 32 7a 3e 15 b6 aa 3e 40 4d 1d c0
       0.502066 0.24433489 0.33342043 -2.45784
0002f0 6a e8 d0 be 76 26 1f 3e e6 ad ee bd fa c2 6a 3e
       -0.40802318 0.15542015 -0.11654262 0.2292594
000300 10 9f 07 3f af 84 3b be 11 c9 6e bf a1 cf 57 3d
       0.52977085 -0.18312334 -0.93275553 0.052688245
000310 5a 9d 89 bf a9 33 d2 3e 92 03 db 3e b2 bc 80 3e
       -1.0751145 0.4105504 0.4277616 0.25143963
000320 c6 78 30 bd 4d c1 09 3e 8c 27 77 3e 46 d1 c2 3b
       -0.04308393 0.13452645 0.2413618 0.0059453575
000330 99 ab 23 bf 83 93 17 bd bf 44 f3 be 6e 30 2c 40
       -0.6393371 -0.037005913 -0.47513387 2.690456
000340 d8 93 43 3b c6 de 34 bf cd 5d f4 be f2 7a 48 3f
       0.002984276 -0.70652425 -0.47727814 0.783126
000350 8d 9d a2 bd 9c c8 fd be b7 b5 22 bf 27 e2 a5 3f
       -0.07940207 -0.49567115 -0.63558525 1.2959641
000360 e7 71 ac 3d e9 8e a8 3e 8b ff 17 3e e8 c4 85 3d
       0.08420163 0.32921532 0.14843576 0.065316975
000370 1e f8 16 bd e1 ec 72 3e c1 51 0c bf 54 91 12 be
       -0.036857717 0.23723175 -0.54812247 -0.14313251
000380 b6 fb 3e bf 5e d1 e6 3d 4e ab de 3e 68 76 e5 be
       -0.7460283 0.11270402 0.4349007 -0.448169
000390 3d 1d 07 3d e5 9c 4f 3f fd 34 c8 bd 9f 2a 8e 3e
       0.03298687 0.8109878 -0.09775732 0.27766892
0003a0 40 3d 19 bf 81 bb 77 3c b3 a4 f1 bc ef 05 76 3e
       -0.59859085 0.015120388 -0.02949748 0.24025701
0003b0 02 d6 83 3f 17 13 00 be 13 75 88 3c 67 1d 74 be
       1.0299685 -0.12507282 0.016657388 -0.23839341
0003c0 ea 28 42 3d 44 35 68 3f 8a 5c 8d 3f 1b cd f2 bd
       0.0474023 0.90706277 1.1043866 -0.11855527
0003d0 1f 01 96 3f 5c f8 79 3f 8a 25 f7 3e ec 6b d5 be
       1.1719092 0.9764459 0.48270828 -0.416839
0003e0 04 3a f8 be 47 3c b2 3f 42 fe a8 bd 54 31 1f bf
       -0.48481762 1.3924645 -0.08251621 -0.62184644
0003f0 29 59 e6 3c 13 2e c1 be d6 e2 57 be 56 64 5b bf
       0.028118687 -0.37730464 -0.21082625 -0.85699975

onnx::MatMul_19 f4 [256, 128]
000000 80 34 c7 bd c4 5d 81 bd a2 cf ed 3c fd 82 cb bd
       -0.097268105 -0.063167125 0.029029671 -0.099370934
000010 a2 54 28 be fb cb 42 be 37 1f b4 be 93 16 57 bc
       -0.16438535 -0.19023125 -0.35180065 -0.013127941
000020 3a 97 d8 3e 2a 83 23 bc 2d 80 95 bd 53 a1 3f 3f
       0.42302877 -0.009980002 -0.07299838 0.74855536
000030 90 7d 8e bd 7b 27 51 bc cc 2a 65 be 09 53 de 3d
       -0.06957543 -0.0127657605 -0.22379607 0.108556814
000040 c6 94 25 bf ff 73 30 3f 56 e5 f0 bd 15 a6 b1 be
       -0.64680135 0.68926996 -0.11762492 -0.34697023
000050 35 51 1f be f6 8e 18 bd 48 0d 58 bd 13 1d 01 3e
       -0.15558322 -0.037245713 -0.05274704 0.12608747
000060 19 f9 63 3d 51 5a 1d 3e 1a 40 23 3d d4 44 67 be
       0.05565748 0.15366484 0.039856054 -0.2258485
000070 e1 ca 03 be 69 61 49 3e e3 bf 1a 3e 14 d4 ff 3c
       -0.12870361 0.19666065 0.15112261 0.031229056
000080 98 6a 07 be ea 55 3a be c8 31 9e 3d 31 b0 7c 3e
       -0.13224256 -0.18196836 0.07724339 0.24676587
000090 9d c0 b8 bd 74 3b 3b bd ec 8b 22 be ab a9 ce 3d
       -0.09021113 -0.045710996 -0.15873688 0.10090955
0000a0 9c fb 1b 3d e2 e3 49 3e e9 b0 e1 bd 8b 31 ec bd
       0.03808175 0.19715837 -0.11020071 -0.11532887
0000b0 7a ab 3e 3e 5c 7c 15 bd e4 d5 8c 3e a5 fd 54 3e
       0.186201 -0.03649555 0.27506936 0.20799883
0000c0 a7 3d 6e 3d a1 5e 3e 3d 11 07 ff 3d b7 dc 29 3e
       0.058164265 0.046476964 0.1245252 0.16588102
0000d0 29 07 2a 3d a6 0d 03 be 84 48 1a 3e 27 8d 8b 3e
       0.041510735 -0.12798175 0.15066725 0.27256128
0000e0 39 47 b4 3d a4 c3 94 3e db 60 c2 3e 58 c5 2d 3f
       0.08802647 0.29055512 0.3796452 0.6787925
0000f0 4b 58 a5 3d e1 d5 d1 bc 72 25 9e 3c a2 97 4c be
       0.08073481 -0.02561468 0.019304965 -0.19979718
000100 73 b3 cf 3c 87 a6 3c bf 93 76 f8 bb ea d3 60 bd
       0.025354123 -0.736916 -0.0075824945 -0.054889597
000110 c6 7e 4e bd 89 90 64 3f 7f 96 40 3e db 24 0e 3e
       -0.05041387 0.89283043 0.1880741 0.13881247
000120 3c c3 9b bd 8b 08 85 3d 54 65 37 be de ce 5f 3f
       -0.076055974 0.0649577 -0.17909747 0.8742503
000130 79 a5 25 3d 84 b4 5f be 9b ce d5 3c b5 84 b3 bd
       0.04044101 -0.21846205 0.026099494 -0.08765546
000140 48 ad e4 3c 04 2d 20 be a0 62 6e be 02 02 18 3d
       0.027914658 -0.15642172 -0.2327981 0.03711129
000150 84 06 03 3f cd 56 11 3e d5 e0 32 bd 41 3e ba 3d
       0.5118182 0.14193268 -0.043671448 0.09093905
000160 27 7d 7d 3d 8f 17 99 3d 8a 5b 72 3d a7 c4 b6 3b
       0.061886933 0.074751966 0.05916933 0.005577642
000170 80 a3 9d bd 73 68 80 bd ed 68 7e 3d 2e 0e 38 bf
       -0.07697201 -0.06269922 0.062111784 -0.71896636
000180 38 9a 72 3d dc c6 10 3d fe de ac 3e 82 f3 e7 bd
       0.059229106 0.035345897 0.3376388 -0.11325742
000190 36 7c 59 3e 60 24 1b 3e d5 6a 8d 3d b3 69 90 be
       0.21238789 0.15150595 0.06905142 -0.28205642
0001a0 b3 db 6e bd 04 66 21 3e 36 c1 1f bd 6d 05 32 bb
       -0.05831499 0.15761572 -0.03900262 -0.0027163879
0001b0 32 88 30 be 74 d6 10 bd 1e bb b9 3e d9 74 82 3f
       -0.17239454 -0.03536077 0.36275572 1.0191909
0001c0 d6 61 95 3d ff 1b fd 3e b9 03 f6 3d 34 51 ef bc
       0.07294051 0.49435422 0.12012429 -0.029213525
0001d0 99 06 bc be 90 4c 3a be d7 d8 67 bd a0 2d ee 3c
       -0.36723784 -0.18193269 -0.05660328 0.02907449
0001e0 f6 b6 cf 3e 19 03 85 3e 10 92 49 3e ee 91 2a 3e
       0.40569276 0.25978926 0.19684625 0.1665723
0001f0 ef 49 d4 3e 80 66 42 bc de b7 e0 be 20 79 2e bd
       0.41462657 -0.011865258 -0.4389028 -0.042595983
000200 9e 63 24 bd e1 fa 2b 3d 9f dd 7c 3d 44 65 d0 3d
       -0.040134065 0.041987304 0.06173479 0.10175565
000210 64 24 d7 bd 30 08 34 be 8f 0f 4f 3d ef e7 32 be
       -0.10504988 -0.17581248 0.050551947 -0.17471288
000220 a2 10 a3 3d 71 04 d9 bd ff a9 a0 3d 78 f0 13 be
       0.07962157 -0.1059655 0.07844924 -0.144472
000230 8b fb 17 bd 43 13 ec 3d 70 32 07 3e 77 08 36 3c
       -0.037105124 0.115271114 0.13202834 0.011110417
000240 e7 ef 27 be 8f 92 94 be 9f b8 02 bf 24 fb c1 bd
       -0.16400109 -0.29018065 -0.5106296 -0.094717294
000250 1b c7 af 3c a3 17 26 bd 5f 36 ef bc b3 92 32 3d
       0.021457246 -0.040549885 -0.02920073 0.043596935
000260 36 84 6c be a9 bf 7f bd 61 65 37 3e d0 da 2d 3d
       -0.2309731 -0.06243864 0.17909767 0.042445004
000270 29 87 2f be 92 61 a8 bd 7a fd 94 be c3 5e dd 3d
       -0.17141403 -0.08221735 -0.29099637 0.1080909
000280 4b e6 a1 3d 2d 4d 84 bd 47 41 c7 bc f0 ed 8d bb
       0.07905253 -0.064600326 -0.024323119 -0.004331343
000290 be 41 46 bd d7 93 fe 3d ff ee 10 bf 64 5f 54 3e
       -0.04840254 0.12430542 -0.5661468 0.20739514
0002a0 2b d5 f0 3c 62 5c 13 3e 64 75 8f 3c 53 82 34 3c
       0.029398521 0.1439071 0.01751203 0.0110174
0002b0 97 60 b3 3d a3 41 18 3e e7 f3 fa be 9b 68 1b 3e
       0.087586574 0.14868788 -0.49014208 0.15176623
0002c0 46 9c 8b be af 2e bd 3e 98 78 b1 3d c6 7f 4e 3e
       -0.27267665 0.3694968 0.086655796 0.20165929
0002d0 fb 94 ca bd 8c c0 c3 bd db e6 bb bc bb 00 5f bd
       -0.09891697 -0.0955821 -0.022937229 -0.054444056
0002e0 52 03 17 bc a2 04 1b be 1d b4 0a be 51 3d 78 bc
       -0.0092171 -0.15138486 -0.1354527 -0.015151338
0002f0 1d e7 34 3e ee 69 bf be 9f 1b 40 3d 7b c4 91 3e
       0.17666288 -0.37385505 0.04690134 0.28470215
000300 2a b8 6f 3d 51 f9 da be b9 c8 9b 3d 9c cd cd bd
       0.058525242 -0.42768338 0.07606644 -0.100489825
000310 08 05 27 3d 3b 6a 09 bf a3 d3 71 3d 5e e2 6e 3d
       0.040776283 -0.5367772 0.059039723 0.05832135
000320 80 c7 53 3d 2f e0 ac 3d 9a c6 4d bd c3 7b 1e be
       0.05170393 0.08441197 -0.05023823 -0.15476899
000330 09 09 e0 3d 52 39 be bd a8 26 c2 be 35 d3 0b 3e
       0.10939223 -0.09288277 -0.37920117 0.13654788
000340 71 7b 5f 3c 6e 15 08 3e a9 da 07 be 87 11 2f 3e
       0.013640271 0.13289425 -0.13267006 0.1709653
000350 46 9c bb 3e fc 5a 80 bd 42 f5 8f bd fb be 23 3d
       0.36642665 -0.06267354 -0.07029201 0.039977055
000360 dc 99 8a be 46 17 10 3c 36 c9 80 3b ee 1b bf 3c
       -0.2707051 0.008794611 0.003930236 0.023328748
000370 b6 46 e2 bc 7b 16 96 be 3b 79 d5 bd a0 86 d3 be
       -0.027621608 -0.29314026 -0.104235135 -0.41313648
000380 b1 06 45 3e 80 0b 64 3e 39 8a 1d 3d af 1a a5 bd
       0.19240834 0.22270012 0.038461898 -0.0806173
000390 e6 fe 37 3c d5 fe 17 be b3 17 ab bd 0c 46 a9 3d
       0.011230206 -0.14843304 -0.0835413 0.082653135
0003a0 5d 60 50 3d 40 02 84 bd 30 54 98 bb c3 aa 91 bd
       0.05087315 -0.06445742 -0.004648708 -0.07112648
0003b0 3d ab 1c 3a ac 72 a6 3d 32 c3 3d be d3 fc 80 be
       0.0005976444 0.08127341 -0.18531492 -0.2519289
0003c0 93 b7 3d be b2 71 61 bb 6a 15 26 be e7 9a a1 ba
       -0.1852706 -0.0034400043 -0.16219106 -0.001232949
0003d0 e2 e8 b2 bd ea 72 ff bd d2 62 17 be b9 ca f2 bc
       -0.08735825 -0.1247309 -0.1478379 -0.029637681
0003e0 6b 27 5c bd ef 4a ec bc 0f 35 89 bc 3d a5 a5 3d
       -0.05374853 -0.028844325 -0.016748933 0.08088157
0003f0 ff 86 23 be e2 f5 80 3d 32 9f c7 3d 02 46 28 be
       -0.15969466 0.062968984 0.09747161 -0.16432956

onnx::MatMul_20 f4 [128, 3]
000000 c9 2c 7e bc 39 89 be bc c2 4c 11 3b 44 1b 25 3c
       -0.015513607 -0.023258792 0.0022170995 0.010077301
000010 78 e7 54 bc 5f 5f b4 3a eb 32 64 bb 96 8e d4 bc
       -0.01299464 0.0013761333 -0.0034820389 -0.025946897
000020 21 13 10 3b 4c 6a a1 3b 83 f0 8e bc f7 0f 71 bb
       0.0021984058 0.0049260017 -0.01744867 -0.0036783197
000030 7b ba 57 3b e3 8e db 39 27 79 39 bc 8a 57 bb bb
       0.0032917548 0.00041877394 -0.011320389 -0.0057172226
000040 94 ec 16 3c f0 86 80 3b 21 7c 77 3b 76 6f 25 3b
       0.009211678 0.003922336 0.0037763196 0.0025243438
000050 36 f4 45 3c 6e 48 af bb 51 10 87 ba 78 fc 57 bc
       0.01208215 -0.0053492105 -0.0010304545 -0.013182752
000060 ae e5 94 bb 00 76 e5 3c 7f e5 99 bb 7c 38 ff bb
       -0.0045439815 0.028010368 -0.0046965475 -0.007788716
000070 4e 38 03 3c d4 95 03 bb 22 6d d8 3b cc e7 5a 3c
       0.00800903 -0.0020078318 0.0066048065 0.013360929
000080 70 d7 a3 3c d6 37 1b bb ac 84 4e ba 8f ca b4 3c
       0.02000019 -0.0023684404 -0.0007878046 0.022069244
000090 9d ae cb 3b 3a bc 78 bc 22 9a 0a 3b df 3a 13 3b
       0.006215884 -0.015181595 0.0021149 0.002246551
0000a0 44 96 4f 3c 12 cd d7 3b 3c 9c 80 bc 87 23 4f 3b
       0.012670103 0.0065857256 -0.015699498 0.003160687
0000b0 ad c0 be 3a 9e 55 63 3c 5e 7a 62 3c 36 4c 21 3b
       0.0014553271 0.013875393 0.01382312 0.0024612076
0000c0 3f 03 15 ba 3e ed 43 bc eb 67 bf 3b 5c 6a 91 3b
       -0.00056843826 -0.011958418 0.0058412454 0.004437728
0000d0 9e 4d 30 bb 4a 42 be bb 01 c7 0e bc 5e 09 ba bb
       -0.0026901732 -0.005806242 -0.008714438 -0.005677386
0000e0 7d ab 0f 39 7e dc cc 3c e7 f0 1b ba 69 da d5 38
       0.00013701427 0.025007483 -0.0005948678 0.000101973135
0000f0 6a 39 4f 3b 93 dc 9a 3c af 63 92 ba a7 cc a6 3b
       0.0031619915 0.018904006 -0.0011168624 0.0050903144
000100 6a da 53 3c b1 f7 66 3b e0 16 c4 3a 42 bd aa 3b
       0.012930492 0.003524285 0.001496043 0.0052105496
000110 38 9b 9b 3c 78 bb bc 3b 63 20 35 3c 9b b7 1f bb
       0.018994913 0.0057596527 0.011055085 -0.0024370912
000120 17 d5 c6 bd 5d 45 41 bc 6f 1c a1 bb 0e 92 cc 3a
       -0.097086124 -0.011796323 -0.0049167196 0.0015607493
000130 5e 1d 1e 3c b2 2e 1d 3b 2d 1b bb 3c bb 06 43 bb
       0.009650556 0.0023984131 0.022840107 -0.002975865
000140 b4 6d c4 3a 07 98 bb 3c c1 64 06 3a 8a 77 c5 ba
       0.0014986307 0.02289964 0.0005126708 -0.0015065533
000150 c6 74 c4 3a 58 10 07 3d aa c8 ad 3b 41 f0 a2 bb
       0.0014988414 0.03297457 0.005303462 -0.004972488
000160 aa f2 83 3b 6d a5 70 bc 73 0e 9b ba 79 e6 8f bc
       0.0040267305 -0.014687878 -0.0011829868 -0.017565953
000170 f2 86 07 b7 49 ea 47 3b b6 e0 60 bc 4f 72 74 3b
       -8.078046e-06 0.0030504635 -0.01372545 0.0037299579
000180 b5 04 69 3c a9 cc 77 bb c7 c2 bb 39 24 d0 d0 3a
       0.014222314 -0.0037811196 0.0003581254 0.0015931171
000190 5c 25 e3 bb 3e ff cd 3b ea f8 3b bc c2 c1 c7 3c
       -0.006931944 0.0062865308 -0.01147292 0.024384383
0001a0 52 fc 06 bb b0 d2 92 bb bd 03 e4 bc a0 da 12 3a
       -0.0020597172 -0.0044806823 -0.027833814 0.00056020357
0001b0 a0 00 b7 3c 8d 5e f0 3a c3 86 00 ba ec 38 80 3c
       0.022339165 0.0018338725 -0.00049028936 0.015652142
0001c0 7e b0 03 3b 59 47 18 3b 96 21 b3 3a e2 d6 58 ba
       0.0020094211 0.0023235886 0.0013666626 -0.0008271766
0001d0 33 a7 74 3c 95 13 73 bc 0f dd 3d bb 82 77 24 bb
       0.0149324415 -0.014836212 -0.0028970873 -0.0025095646
0001e0 19 6b 0e bb 3e e3 1c 3b 2a 6c 49 bc d8 69 b7 37
       -0.0021731316 0.0023939158 -0.012293855 2.1864587e-05
0001f0 c6 eb 1f bc c6 a1 09 3d 1a 4e 71 3c bd 97 23 3c
       -0.009760803 0.033601545 0.0147280935 0.009984908
000200 dd 5f 48 3a 4a c4 91 ba 47 7e 91 3c 6b c2 3a 3a
       0.0007643679 -0.0011121121 0.017760409 0.00071243074
000210 a9 76 b1 b8 fb 84 92 bc bd be de ba a5 0a 38 3c
       -8.46212e-05 -0.017885676 -0.00169941 0.011233007
000220 3f 4b 5e 3b f8 f3 2b bb bc d7 ed 3a d7 69 87 bb
       0.0033919362 -0.0026237946 0.0018145959 -0.00413249
000230 46 18 0c bc 64 f2 c6 bd df c6 0f 3c a6 a7 82 bc
       -0.008550709 -0.09714201 0.008775442 -0.015949082
000240 43 e5 20 bc d8 92 0b 3b 28 f9 10 bb 5b 5e 49 bc
       -0.009820285 0.0021297242 -0.0022121165 -0.0122905625
000250 de fb e7 39 01 6d 56 3c 83 13 32 3c 84 9d 55 b9
       0.0004424741 0.013087512 0.01086891 -0.00020371942
000260 7b d2 24 bb 6e 5b f6 3b b6 52 47 3b 2e 9f 78 bb
       -0.002514987 0.0075182235 0.003041429 -0.0037936675
000270 96 a9 e9 3b 8d 91 b4 3c 66 6d ff b8 68 10 60 b9
       0.007130812 0.02204206 -0.000121797246 -0.00021368416
000280 5e d5 ca bc a0 5a 9a 3b ad f1 78 3c 72 bc c5 ba
       -0.024759945 0.0047105104 0.015194339 -0.0015086068
000290 1a a6 6d 3b f7 a0 3c 3a 8c d2 d4 3a 4a ac c9 3c
       0.0036262334 0.00071956165 0.0016237064 0.024618287
0002a0 ef 08 e0 bb 54 0d 69 ba de 4e 5d 3c 7c c9 8b bc
       -0.0068370025 -0.00088902307 0.013507573 -0.017063849
0002b0 87 7b 9f 3a 64 e1 8a ba 70 80 ae bc 0b b2 d2 ba
       0.0012167551 -0.0010595736 -0.021301478 -0.001607479
0002c0 14 e4 31 b9 ef 85 5c 3b 5c 91 05 ba ae 6c 24 bc
       -0.00016965001 0.0033649167 -0.00050952076 -0.010035677
0002d0 17 25 8f 3c 99 7c 9e bb 8e 0e a5 ba 82 7b 0b 3d
       0.01747374 -0.0048366305 -0.0012592839 0.034053333
0002e0 c6 69 cb 39 0d d0 fc 3b d9 c8 06 3c 71 04 d7 bb
       0.00038797985 0.0077152313 0.008226597 -0.0065618088
0002f0 68 0e 6d bc c0 22 49 3c f3 78 24 3b 8b d2 5c bb
       -0.014468767 0.012276351 0.0025096505 -0.003369483
000300 9b 41 78 3b dc ba 10 bc b5 c3 1a bc 05 77 e4 3a
       0.00378809 -0.008833613 -0.009446074 0.001743049
000310 1b 43 8e 3b 18 6d b8 3b ae d5 f4 ba 1a ef 3e 3a
       0.0043414957 0.0056282394 -0.0018679404 0.0007283554
000320 5a bd 48 3c ba d8 3e bb 9a 7a ef 3b 08 3e 67 3c
       0.012252176 -0.0029120878 0.0073083164 0.0141139105
000330 c2 d9 f6 ba 4a 20 be ba aa a7 49 3c 64 d9 08 ba
       -0.0018833207 -0.0014505472 0.012308041 -0.0005220382
000340 a9 78 10 38 35 aa cf 3b d3 00 29 bc d2 78 78 3c
       3.444465e-05 0.006337429 -0.010315138 0.015165525
000350 64 0b fe 39 00 1e e4 b8 da 7e ee 3b 02 27 7e bc
       0.00048455142 -0.00010877475 0.0072783055 -0.01551223
000360 6f 23 7c 3d c4 2e 8f bc c6 28 ce 3c e2 03 dc 38
       0.06155723 -0.017478354 0.025165927 0.00010491141
000370 56 2a 81 3c be 73 77 3a 29 2a 97 bb 76 7c f8 bb
       0.015767258 0.0009439549 -0.00461318 -0.0075831963
000380 01 2c 1d 3c 44 e2 78 3b a1 7a 04 ba 76 96 11 bc
       0.009593011 0.0037976662 -0.00050536735 -0.00888597
000390 42 25 dc 3b e3 29 12 3d 10 85 56 3c 80 d4 fe bb
       0.0067183087 0.035684478 0.013093248 -0.007776797
0003a0 c0 f4 39 3a d0 7f d2 bb b1 30 9e bc a5 da 07 b8
       0.00070936605 -0.006423928 -0.019310327 -3.2390137e-05
0003b0 45 85 c8 bc 86 63 5d ba 0f 79 97 3a 32 f8 2e 3c
       -0.02447761 -0.0008445311 0.0011556464 0.010679292
0003c0 45 0c df 3b de 92 c7 3b 4a c4 af bb d8 2f 90 bc
       0.0068068826 0.006090506 -0.0053639757 -0.017600939
0003d0 86 30 9f 3a 12 70 62 bb 06 51 3d bb f2 d9 39 3b
       0.0012145198 -0.0034551662 -0.0028887405 0.0028358665
0003e0 d0 3c 59 3c 89 c6 19 3b 2d 4b a9 bc a7 20 90 3a
       0.013259128 0.0023464283 -0.02066573 0.0010996059
0003f0 e4 c7 4c bb d4 70 b5 ba a0 a8 d5 b8 8e 89 8c bb
       -0.0031247074 -0.001384283 -0.0001018804 -0.0042888587
