tron1-rl-deploy-python-main/controllers/model/PF_P441A/policy/isaaclab/encoder.onnx (onnx, 465754 bytes, 6 tensors)

encoder.0.bias f4 [256]
-0.03783817 -0.010392333 -0.0097904205 -0.05446506 0.038546816 -0.06337279 -0.06345709 0.046647366
-0.03527853 0.0071395575 -0.0067387875 -0.05969984 0.005017071 0.042865667 -0.04190232 -0.030557368
-0.1462013 0.007712129 -0.030465622 -0.012361743 -0.052563526 -0.010220683 0.024106788 0.043848775
-0.03437788 -0.06259653 -0.0026464334 -0.008124812 -0.024985708 0.01916242 -0.02026636 -0.0015868531
-0.06071619 -0.10908708 0.04702026 -0.040833928 -0.032484036 -0.06541995 -0.012453991 -0.06933131
0.033442564 -0.0032533472 -0.05044344 0.05601673 0.012177572 -0.006259651 -0.025067747 -0.053483073
-0.024925558 -0.017590072 -0.027531644 0.019245364 -0.0039641885 -0.077577084 -0.010413207 0.03989821
-0.013827986 0.053076606 -0.07833479 -0.02165184 -0.012530441 0.033755004 -0.0035631 -0.07626018
-0.037748057 -0.0521588 -0.056610517 -0.0340048 0.016679393 0.009174543 0.0030177957 -0.018135594
0.019042911 0.016706143 0.030100653 -0.007835224 0.020260666 0.008594632 -0.014032746 0.012306563
0.051535014 -0.034985825 -0.06959255 -0.063535206 -0.0023642825 -0.021899106 0.050305024 -0.028477699
-0.07309236 -0.0381604 -0.047575187 0.020235347 -0.01000882 -0.07311833 -0.20265587 0.0044741933
-0.11743437 0.005577005 -0.0057758614 -0.021513322 0.05410433 0.007871353 -0.0060553118 -0.028126838
-0.03654417 0.0014505897 -0.08871541 -0.090680614 -0.06893234 0.042076644 -0.08414351 -0.00084744784
0.02665722 0.04117123 -0.015279794 0.00027054452 -0.016303003 -0.026221419 -0.06428836 -0.021107707
0.07162646 -0.025743024 -0.0049557905 -0.18266487 -0.07449657 -0.102045946 0.041394774 -0.05085882
-0.03411549 0.059502088 -0.077434294 0.014353995 -0.020105079 0.017583411 -0.009104921 -0.09993706
0.0016083716 -0.093370795 -0.0383693 -0.061121322 -0.04178969 -0.004989498 -0.019414831 -0.041609734
-0.059742842 -0.0033416862 0.0712183 -0.041446455 0.03984263 -0.081831016 -0.0046579475 0.00044163215
0.04878626 0.011503463 -0.09669423 0.04067254 0.018883571 0.037088893 0.0025688163 0.028207328
0.027805265 -0.03832218 -0.00038842467 -0.042152226 0.04802279 -0.0057335226 -0.036060937 -0.05172281
-0.017087512 -0.050218143 0.005412655 0.004715299 -0.004979317 -0.025937047 0.0006720767 0.052790273
-0.08517782 -0.0038007966 -0.034368888 -0.056161534 -0.019514877 0.031647585 -0.031448197 -0.04020897
-0.024516188 0.009499625 -0.012383328 0.029513923 -0.012995327 0.0142135685 -0.069736026 -0.04135959
0.011990446 0.033336107 0.0064061363 0.042853 -0.04644733 -0.0038016383 0.014861673 -0.057636324
-0.027134806 -0.06282114 0.009095875 -0.07934319 -0.073103786 -0.045919124 -0.009890265 0.06275048
0.0065921126 0.0062665334 -0.008930772 -0.0049680755 0.07775413 -0.056831904 -0.014953905 -0.015899537
-0.045081798 -0.046199203 -0.008187341 0.03724066 -0.009453436 -0.058503203 -0.047414504 -0.06751338
-0.041520733 0.009427529 -0.055214774 -0.09123605 0.00016058373 -0.027825043 -0.08871043 0.0062047658
-0.09636104 -0.0033691102 -0.008362602 0.050478913 0.045167454 0.036661588 -0.0605812 -0.0036524462
-0.020937065 -0.06590789 0.009857543 -0.19759138 0.024568588 -0.03154808 0.011493565 -0.059499368
0.025296945 0.0074160937 0.009006075 -0.07464639 0.047508072 0.025212452 0.011373642 0.029172096
00000000: 32fc 1abd 9b44 2abc 0068 20bc c116 5fbd
00000010: 44e3 1d3d 98c9 81bd caf5 81bd 4f11 3f3d
00000020: 3880 10bd f3f2 e93b 0cd1 dcbb d287 74bd
00000030: 3e66 a43b e993 2f3d c4a1 2bbd 7253 fabc
00000040: cbb5 15be 07b6 fc3b 0a93 f9bc e888 4abc
00000050: da4c 57bd a774 27bc 997b c53c c69a 333d
00000060: d2cf 0cbd 9c32 80bd c96f 2dbb ee1d 05bc
00000070: d4ae ccbc 82fa 9c3c a305 a6bc f4fd cfba
00000080: 8ab1 78bd 0c69 dfbd 5198 403d 7a41 27bd
00000090: fb0d 05bd e5fa 85bd d30b 4cbc 93fd 8dbd
000000a0: 12fb 083d 1c36 55bb c89d 4ebd cc71 653d
000000b0: 7084 473c c21d cdbb e05a cdbc 1111 5bbd
000000c0: af30 ccbc 0e19 90bc 0b8a e1bc 74a8 9d3c
000000d0: 06e6 81bb bce0 9ebd 289c 2abc 4e6c 233d
000000e0: c78e 62bc db66 593d fe6d a0bd 335f b1bc
000000f0: 7b4c 4dbc b042 0a3d e682 69bb 4c2e 9cbd
00000100: b59d 1abd 77a4 55bd 6ee0 67bd 9e48 0bbd
00000110: 39a3 883c d350 163c 36c6 453b 1991 94bc
00000120: e1ff 9b3c 52db 883c a595 f63c 505f 00bc
00000130: b2f9 a53c 80d0 0c3c 9ae9 65bc 77a1 493c
00000140: 6116 533d 4c4d 0fbd 8a86 8ebd bf1e 82bd
00000150: 14f2 1abb c165 b3bc a40c 4e3d 104a e9bc
00000160: 72b1 95bd 144e 1cbd 33de 42bd 99c4 a53c
00000170: 09fc 23bc 10bf 95bd 0585 4fbe 419c 923b
00000180: 6e81 f0bd 4fbf b63b 7043 bdbb b53c b0bc
00000190: 809c 5d3d d9f6 003c a36b c6bb 416a e6bc
000001a0: 57af 15bd b721 be3a 6db0 b5bd c2b6 b9bd
000001b0: 662c 8dbd 8f58 2c3d 6f53 acbd 4327 5eba
000001c0: 3e60 da3c 2aa3 283d 1a58 7abc dfd7 8d39
000001d0: e08d 85bc 4dce d6bc 9ea9 83bd 12ea acbc
000001e0: e5b0 923d 09e3 d2bc 2f64 a2bb 800c 3bbe
000001f0: a891 98bd 77fd d0bd 918d 293d 5751 50bd
00000200: afbc 0bbd 76b8 733d df95 9ebd 052d 6b3c
00000210: 68b3 a4bc 160b 903c ce2c 15bc cdab ccbd
00000220: ffcf d23a 3039 bfbd 2129 1dbd 5a5a 7abd
00000230: aa2b 2bbd f17e a3bb da0b 9fbc f86e 2abd
00000240: e9b4 74bd 3100 5bbb e6da 913d c2c3 29bd
00000250: 0732 233d 0597 a7bd b2a1 98bb dd8a e739
00000260: 1ad4 473d 0579 3c3c a007 c6bd 4098 263d
00000270: b8b1 9a3c 86ea 173d 9659 283b 0e13 e73c
00000280: dec7 e33c b8f7 1cbd 7aa5 cbb9 d0a7 2cbd
00000290: 8cb3 443d 46e0 bbbb a2b4 13bd 4cdb 53bd
000002a0: 1cfb 8bbc 8ab1 4dbd a45c b13b cb82 9a3b
000002b0: 8a29 a3bb ee79 d4bc 4e2e 303a 9d3a 583d
000002c0: b571 aebd c916 79bb 64c6 0cbd a309 66bd
000002d0: aadd 9fbc e6a0 013d d3cf 00bd 29b2 24bd
000002e0: 2cd6 c8bc 51a4 1b3c 71e3 4abc 2fc7 f13c
000002f0: 5aea 54bc 07e0 683c c3d1 8ebd ac68 29bd
00000300: 9373 443c 718b 083d 91ea d13b a186 2f3d
00000310: 8e3f 3ebd e824 79bb 607e 733c 1114 6cbd
00000320: d049 debc 5fa8 80bd dd06 153c af7e a2bd
00000330: 70b7 95bd b115 3cbd c70a 22bc 5383 803d
00000340: a602 d83b 7e57 cd3b 5f52 12bc 3dcb a2bb
00000350: 8f3d 9f3d 92c8 68bd 3901 75bc bf3f 82bc
00000360: b1a7 38bd 603b 3dbd 3224 06bc aa89 183d
00000370: 96e2 1abc 0ea1 6fbd b635 42bd 7444 8abd
00000380: a511 2abd ec75 1a3c e328 62bd f7d9 babd
00000390: 5e62 2839 58f1 e3bc d0ad b5bd 5951 cb3b
000003a0: f058 c5bd 4acc 5cbb 4c03 09bc fac2 4e3d
000003b0: 8201 393d 762a 163d fe23 78bd e15d 6fbb
000003c0: 3584 abbc b7fa 86bd 8881 213c 6555 4abe
000003d0: 1044 c93c 8f38 01bd 814f 3c3c 9cb5 73bd
000003e0: 8a3b cf3c b402 f33b 378e 133c 35e0 98bd
000003f0: d397 423d 588a ce3c 8358 3a3c 52fa ee3c

encoder.2.bias f4 [128]
-0.0072044586 -0.052098297 0.047824897 -0.0313631 -0.07993837 -0.015051092 -0.032689612 -0.045564733
-0.0044447025 -0.060094357 -0.07082314 -0.1001642 -0.042877138 -0.023027902 0.03118793 0.026099553
-0.09316951 -0.053547874 -0.07049383 -0.008021479 -0.006463994 0.0270992 -0.0564073 -0.06691052
-0.035469893 -0.040976774 0.03201633 0.02388732 -0.0513627 -0.05549732 0.03959075 -0.059029154
-0.0639267 0.048273012 -0.078953885 0.03819407 -0.045906316 -0.0018421711 -0.084767096 -0.10359727
-0.043251213 0.036360864 -0.047797248 -0.021694174 -0.03965663 0.026021278 0.0378769 -0.066854104
0.014128906 -0.010436171 -0.027537683 -0.038837373 0.04030914 -0.017057952 -0.054897536 0.009099723
0.027849125 -0.0065028956 -0.05004767 -0.08606834 0.045521826 -0.06666956 0.021096544 -0.10421332
-0.0031443 -0.039883025 -0.06638176 0.014015842 -0.00034630377 -0.004349759 -0.08976325 -0.03539713
0.044049 0.0019238116 -0.0051166536 -0.054195672 -0.05854551 -0.02067726 0.023988532 -0.11821529
-0.07423851 -0.050941527 -0.096308455 -0.074373156 -0.09408501 -0.04631605 -0.034051284 -0.055354383
-0.09169599 0.01765602 0.042810783 -0.13285281 0.009460616 -0.100768276 -0.067064516 -0.060104445
-0.0539554 -0.13589008 -0.07399975 -0.17494595 -0.10324361 -0.074676074 -0.06730515 -0.04620052
-0.036354207 -0.03527183 -0.0128767835 -0.10295955 -0.0650961 -0.04028153 -0.06857507 -0.0077910786
0.039992876 -0.0072969496 0.018514028 -0.051115517 0.0062357024 0.011280561 0.021671971 -0.05278206
-0.054863367 0.014903725 0.014387913 -0.045286357 -0.023712903 -0.037376765 -0.05917291 0.03643409
00000000: 6113 ecbb 0665 55bd 0ae4 433d 9876 00bd
00000010: bab6 a3bd db98 76bc 8be5 05bd 16a2 3abd
00000020: dea4 91bb 8025 76bd b90b 91bd e322 cdbd
00000030: f09f 2fbd 03a5 bcbc d47d ff3c bbce d53c
00000040: a8cf bebd 0455 5bbd 125f 90bd 856c 03bc
00000050: e9cf d3bb 24ff dd3c 570b 67bd 6208 89bd
00000060: e148 11bd 43d7 27bd 8e23 033d 57af c33c
00000070: b261 52bd 2851 63bd e929 223d 8ec8 71bd
00000080: 00ec 82bd ecb9 453d 93b2 a1bd 6371 1c3d
00000090: 4308 3cbd 0175 f1ba 5f9a adbd ce2a d4bd
000000a0: 2f28 31bd 21ef 143d 0cc7 43bd fbb7 b1bc
000000b0: fe6e 22bd 932a d53c cf24 1b3d ceea 88bd
000000c0: ed7c 673c 79fc 2abc b596 e1bc f013 1fbd
000000d0: 321b 253d 1ebd 8bbc 3ddc 60bd 0117 153c
000000e0: d923 e43c 3e16 d5bb c9fe 4cbd 9944 b0bd
000000f0: 1875 3a3d 0d8a 88bd a9d2 ac3c cb6d d5bd
00000100: 9a10 4ebb 625c 23bd 29f3 87bd b4a2 653c
00000110: 1b90 b5b9 6c88 8ebb cbd5 b7bd 95fc 10bd
00000120: b96c 343d 6828 fc3a 9aa9 a7bb 48fc 5dbd
00000130: 6bcd 6fbd 5b63 a9bc 9983 c43c dc1a f2bd
00000140: 5c0a 98bd 10a8 50bd 5e3d c5bd f450 98bd
00000150: a4af c0bd e6b5 3dbd 5c79 0bbd 47bb 62bd
00000160: 1bcb bbbd 5ca3 903c 5c5a 2f3d 910a 08be
00000170: b300 1b3c 995f cebd 1f59 89bd 1430 76bd
00000180: 5600 5dbd c526 0bbe 2e8d 97bd 0825 33be
00000190: 6371 d3bd c5ef 98bd 48d7 89bd c23c 3dbd
000001a0: 26e8 14bd 3279 10bd 25f9 52bc 75dc d2bd
000001b0: 1b51 85bd 3ffe 24bd 1671 8cbd 4e4c ffbb
000001c0: 92cf 233d 401b efbb bbaa 973c 815e 51bd
000001d0: dd54 cc3b 1ad2 383c 6b89 b13c 0032 58bd
000001e0: 69b8 60bd c12e 743c 48bb 6b3c 307e 39bd
000001f0: 9041 c2bc 6118 19bd 4b5f 72bd ea3b 153d

encoder.4.bias f4 [3]
0.02565664 0.0027462938 -0.028111959
00000000: e02d d23c 2afb 333b 0d4b e6bc

onnx::MatMul_18 f4 [300, 256]
-0.095616855 -0.11474131 0.40803498 -0.17271516 -0.06568173 -0.027915552 -0.04941393 0.003929541
-0.09321635 -0.16742447 -0.047184158 -0.013636682 -0.3864921 -0.12522855 0.019223792 -0.017298337
0.49878287 0.021269523 -0.03174286 0.09149144 -0.07869539 -0.1251573 -0.25766274 0.054034013
0.06535392 -0.00096336013 -0.09374512 0.113393575 0.12202282 -0.0047121276 -0.25851727 -0.028471824
-0.01608145 0.20699848 0.20003206 0.011607865 0.2150801 -0.15002623 0.055546492 -0.058038134
-0.15282482 0.34890273 0.36135587 -0.04969879 -0.01630947 -0.046478916 -0.0658412 0.114475675
-0.055302504 -0.061722774 0.017038286 -0.023848854 -0.16152847 -0.020731376 0.07481741 -0.056477293
-0.04142268 0.07630276 -0.058392704 0.08291908 0.01674086 -0.15490901 0.035059698 -0.0058059962
-0.09955371 -0.15664645 0.07925823 -0.06808849 0.14348558 0.0110682 -0.049975548 0.022882419
-0.22753596 -0.08221214 0.029368114 -0.035932302 -0.1766391 0.13802066 -0.016491953 -0.00038523087
-0.12459641 0.031440724 -0.028447367 -0.1226498 -0.006352478 -0.07648102 -0.011499314 0.25187123
-0.24365704 -0.057376135 0.014388824 0.018468875 -0.1517682 -0.08591553 -0.22497754 -0.07251907
0.12747656 0.25016487 0.05940206 -0.07092208 0.14929375 0.13743849 -0.038709894 -0.047062702
0.09053665 -0.03211393 -0.0082629 0.066779286 0.11605424 -0.013868113 0.06618286 -0.08777071
-0.077372156 0.03600891 -0.028801966 -0.28050908 -0.019311953 -0.053693295 0.048952222 -0.055911217
-0.0129230935 0.18499887 -0.0662994 -0.05493812 0.023218282 0.08380253 0.074374065 0.14742035
0.023826964 -0.056968357 -0.027000703 0.14382848 -0.094603695 0.12419543 -0.036923114 0.24867436
0.018979358 0.09369767 0.031524748 -0.10192506 -0.047768336 -0.017404106 -0.14524966 -0.05886856
-0.1463527 -0.0477359 -0.062492374 -0.010418919 0.07781919 0.087279595 0.01771124 0.10643589
-0.004855556 0.128618 -0.2994078 0.0034751687 -0.14513494 0.005016853 -0.0032161823 -0.0048968303
0.02146316 0.04902974 -0.0018045133 -0.08016566 0.00045660738 0.039293256 -0.13741261 0.1550125
0.08504328 -0.106325805 0.044094067 -0.025594896 -0.022456197 -0.012003552 -0.16537283 -0.036621727
0.20552608 0.16654097 0.0140506495 0.060134113 -0.20269957 0.024764279 0.039898004 -0.11253501
-0.0048800567 0.030657167 -0.09400674 -0.063498 0.07824185 0.1534465 0.16943818 0.06668577
0.028090505 0.08621699 -0.07003116 0.06364477 0.19542699 0.04441495 -0.117402695 -0.0811767
0.04273835 0.10942272 0.12923525 -0.04387078 0.11437647 0.0038202822 -0.003843305 -0.007974802
-0.40702868 0.08456149 0.03931721 -0.07399663 0.25454417 -0.16001484 -0.003627757 0.13303946
0.19282542 0.16888177 -0.14636801 -0.0010843126 0.027127096 -0.09884457 0.025149588 -0.013835613
-0.15565039 0.11760473 -0.073349394 -0.20663467 0.015931124 -0.10219301 0.1591401 -0.2263852
-0.0075876242 0.08558697 -0.1509193 -0.09840756 -0.05889282 -0.04989047 0.10402655 -0.12152795
-0.14509358 0.088386364 -0.060847912 -0.16953912 -0.051662043 0.055199508 0.026859928 0.074437566
0.054331925 -0.07064499 -0.07262845 -0.15374467 0.14427748 0.032231927 0.07468317 0.08632251
00000000: c5d2 c3bd 7efd eabd f6e9 d03e 3edc 30be
00000010: 2584 86bd 28af e4bc 4366 4abd 61c3 803b
00000020: 37e8 bebd 5271 2bbe 2d44 41bd 646c 5fbc
00000030: 4be2 c5be ea3b 00be 377b 9d3c 3eb5 8dbc
00000040: 7860 ff3e 6c3d ae3c cd04 02bd dd5f bb3d
00000050: 0c2b a1bd 3c29 00be 5fec 83be c552 5d3d
00000060: 47d8 853d 018a 7cba 71fd bfbd e43a e83d
00000070: 1ae7 f93d 3168 9abb 605c 84be be3d e9bc
00000080: 3fbd 83bc 69f7 533e 34d5 4c3e ea2e 3e3c
00000090: f53d 5c3e 7aa0 19be b884 633d 65b9 6dbd
000000a0: 1c7e 1cbe 61a3 b23e a303 b93e f590 4bbd
000000b0: 709b 85bc ad60 3ebd c0d7 86bd 3972 ea3d
000000c0: e184 62bd 05d1 7cbd e093 8b3c ac5e c3bc
000000d0: b867 25be d9d4 a9bc df39 993d bc54 67bd
000000e0: d4aa 29bd 9f44 9c3d 302d 6fbd 7bd1 a93d
000000f0: 2124 893c 78a0 1ebe c29a 0f3d 3a40 bebb
00000100: d1e2 cbbd ed67 20be 2452 a23d fa71 8bbd
00000110: e2ed 123e 6557 353c 29b3 4cbd e973 bb3c
00000120: 30ff 68be d75e a8bd 6695 f03c c02d 13bd
00000130: e1e0 34be 4a55 0d3e 221a 87bc d0f8 c9b9
00000140: 672c ffbd fdc7 003d 740a e9bc d12f fbbd
00000150: 7328 d0bb 15a2 9cbd 9e67 3cbc 44f5 803e
00000160: 3b81 79be 3d03 6bbd 1abf 6b3c 0a4c 973c
00000170: 1f69 1bbe 7bf4 afbd 8360 66be e184 94bd
00000180: 3789 023e 9c15 803e 934f 733d 983f 91bd
00000190: 76e0 183e adbc 0c3e 448e 1ebd d2c4 40bd
000001a0: 476b b93d e589 03bd 1d61 07bc 94c3 883d
000001b0: d8ad ed3d 1537 63bc e18a 873d 21c1 b3bd
000001c0: 4b75 9ebd 147e 133d 1af2 ebbc e39e 8fbe
000001d0: 1a34 9ebc 80ed 5bbd 2082 483d 2903 65bd
000001e0: 62bb 53bc 5870 3d3e fbc7 87bd cb06 61bd
000001f0: 4434 be3c a9a0 ab3d 6e51 983d 5cf5 163e
00000200: c430 c33c a757 69bd 9430 ddbc c647 133e
00000210: 95bf c1bd 2c5a fe3d b13c 17bd 7ea4 7e3e
00000220: 997a 9b3c 90e4 bf3d 1820 013d 16be d0bd
00000230: bba8 43bd 0e93 8ebc 54bc 14be 2920 71bd
00000240: 7bdd 15be b886 43bd 01f8 7fbd 1db4 2abc
00000250: ab5f 9f3d a5bf b23d 2a17 913c 0ffb d93d
00000260: 5b1b 9fbb 70b4 033e fb4b 99be a8bf 633b
00000270: 419e 14be 6a64 a43b 96c6 52bb 9775 a0bb
00000280: 82d3 af3c 69d3 483d 6b85 ecba e52d a4bd
00000290: ce64 ef39 f7f1 203d e4b5 0cbe 99bb 1e3e
000002a0: 2c2b ae3d 58c1 d9bd fb9b 343d 63ac d1bc
000002b0: 0ff6 b7bc 8caa 44bc 7f57 29be aa00 16bd
000002c0: 6e75 523e b789 2a3e b234 663c 304f 763d
000002d0: 7a90 4fbe 75de ca3c 176c 233d c178 e6bd
000002e0: e2e8 9fbb bd24 fb3c 9b86 c0bd 3d0b 82bd
000002f0: 433d a03d 1421 1d3e 3481 2d3e 8d92 883d
00000300: 0f1e e63c 8992 b03d 7f6c 8fbd 3058 823d
00000310: 031e 483e 73ec 353d d370 f0bd f83f a6bd
00000320: 680e 2f3d 0519 e03d 3f56 043e d9b1 33bd
00000330: 363e ea3d b35d 7a3b f5df 7bbb bea8 02bc
00000340: 1066 d0be 932e ad3d 150b 213d 8c8b 97bd
00000350: 9d53 823e eeda 23be aabf 6dbb 7f3b 083e
00000360: 0774 453e 58ef 2c3e 7fe1 15be 7e1f 8eba
00000370: a539 de3c 066f cabd 8206 ce3c c4ae 62bc
00000380: d162 1fbe c0da f03d 3538 96bd 0a98 53be
00000390: fd81 823c 924a d1bd 9ff5 223e 86d1 67be
000003a0: 9ba1 f8bb 3948 af3d 978a 1abe e789 c9bd
000003b0: 9939 71bd f359 4cbd df0b d53d a5e3 f8bd
000003c0: 6993 14be e903 b53d a93b 79bd aa9b 2dbe
000003d0: 949b 53bd e118 623d 5a09 dc3c b972 983d
000003e0: 278b 5e3d 52ae 90bd 3abe 94bd 3e6f 1dbe
000003f0: 7abd 133e a005 043d 7df3 983d dbc9 b03d

onnx::MatMul_19 f4 [256, 128]
0.053922154 0.19462553 -0.055927288 0.07319687 -0.012644277 -0.14841586 -0.011883699 0.07883401
0.11174564 0.13178572 0.0033055493 0.017959757 -0.04611726 0.017243605 -0.032112293 -0.0002840009
0.14510256 0.096022576 -0.034866482 -0.021450773 -0.03620706 0.02762994 0.04778602 0.053415112
-0.04672938 0.03766483 0.14157929 0.19597004 -0.052707974 -0.03521014 0.060438097 -0.046533924
0.034118496 -0.045085035 0.12348636 -0.0753241 -0.00424492 -0.06885344 0.10250485 -0.14637232
0.040747575 0.17267096 0.0583439 0.05825703 -0.20366193 0.13308434 0.0925757 0.06703659
0.01506457 -0.030702503 0.27593908 -0.08538669 0.07318223 -0.1753456 0.0032647608 -0.02953101
-0.028565522 0.045929775 -0.076776765 -0.014171921 0.19997765 0.115191124 0.043755952 0.027324459
0.022335844 0.03294426 -0.06800484 0.047849305 0.07714258 0.04945171 -0.034313943 0.038100865
0.07258504 0.15804379 -0.04402798 0.053331044 0.077293 0.042439297 0.032776393 0.08874986
0.024110133 0.015881116 -0.15552048 -0.035385408 0.11389931 0.21742778 -0.0152844 0.057550333
-0.024356833 -0.049234077 0.10476825 -0.023094602 0.030270498 0.1991856 0.0003300294 0.0068455148
-0.00021612356 -0.075250365 0.18568915 -0.019738676 -0.0027936695 -0.12383277 -0.16218786 0.07365458
0.043908436 0.065942265 -0.039450932 0.027193088 0.039471127 -0.02949742 0.09049018 0.051349014
0.0139333345 -0.07774058 0.093183495 -0.052937992 -0.02449414 -0.013944979 0.14576446 0.020590344
-0.0012322641 0.047032837 -0.09075539 -0.054513227 0.21603474 0.07003951 -0.02830347 -0.06702654
-0.024526313 -0.11066707 0.05356365 0.05237616 0.053429138 -0.034227323 0.031729516 0.054023232
0.13073517 -0.008692707 -0.039804146 0.012954484 -0.03831685 0.024234878 -0.027952135 -0.0074486416
-0.046328787 0.020739818 -0.06977078 -0.015198927 -0.025696503 0.079965316 -0.0306094 -0.09821888
-0.05781252 0.046875834 0.012541164 -0.04156076 0.014812916 -0.016861888 -0.019553231 0.0773058
0.058259 -0.008896457 0.035745688 -0.111545 -0.03959208 -0.04800391 -0.11284691 0.042197734
-0.03169831 0.014251577 -0.058024168 -0.0842542 0.0111832395 0.09297952 -0.044596594 0.15418859
-0.099336065 0.016076732 -0.02129122 -0.051114243 0.057649966 0.062387183 -0.10962418 -0.04775542
-0.02488849 -0.07612375 -0.11186961 -0.040651876 0.0718555 0.065789275 0.011755246 -0.100083224
-0.005492342 0.10012842 0.028527105 0.010582686 -0.06378716 0.0073866183 -0.0857438 -0.07674221
-0.032643285 -0.09372615 0.04969708 -0.032672323 -0.19624954 -0.01853272 0.01783849 -0.047097433
0.0109055545 -0.050714474 -0.016760426 -0.07634238 -0.07415275 -0.06626716 0.037857 0.0035796224
-0.024057792 0.0260471 -0.033174023 0.0605384 0.06320316 0.09249825 0.05046868 -0.15710762
-0.015651818 -0.08736184 -0.027041562 -0.29557064 -0.041610643 -0.054766223 0.10956332 -0.057341866
0.0713647 -0.019312069 -0.02176069 -0.09071508 -0.22872254 0.010856733 -0.003342157 -0.07730875
-0.106187254 -0.079249986 -0.04520077 -0.11575293 -0.023847086 0.06862976 -0.00579918 0.050318643
0.02727698 -0.038234748 0.058291674 -0.008027612 -0.15320498 -0.09469329 -0.017634539 -0.07416374
00000000: 7add 5c3d ea4b 473e 0314 65bd 3ee8 953d
00000010: f129 4fbc 54fa 17be d9b3 42bc ba73 a13d
00000020: e6da e43d d6f2 063e eaa1 583b 5720 933c
00000030: 74e5 3cbd 7642 8d3c 2e88 03bd f5e5 94b9
00000040: c495 143e 7ca7 c43d 28d0 0ebd 88b9 afbc
00000050: db4d 14bd 2f58 e23c 46bb 433d cec9 5a3d
00000060: 4e67 3fbd 7046 1a3d 29fa 103e 5fac 483e
00000070: 51e4 57bd 8238 10bd f08d 773d 5b9a 3ebd
00000080: d6bf 0b3d 16ab 38bd 6be6 fc3d 8643 9abd
00000090: f818 8bbb 0803 8dbd 10ee d13d a0e2 15be
000000a0: eee6 263d a8d0 303e 03fa 6e3d ec9e 6e3d
000000b0: c18c 50be 4347 083e 5498 bd3d 7b4a 893d
000000c0: 63d1 763c d183 fbbc e347 8d3e 38df aebd
000000d0: 91e0 953d cc8d 33be 99f5 553b 04eb f1bc
000000e0: 3e02 eabc dc20 3c3d 233d 9dbd 5831 68bc
000000f0: f1c6 4c3e 53e9 eb3d 7139 333d 8bd7 df3c
00000100: a9f9 b63c 8ff0 063d 1f46 8bbd a2fd 433d
00000110: eefc 9d3d e08d 4a3d c78c 0cbd a70f 1c3d
00000120: 77a7 943d 3bd6 213e af56 34bd a771 5a3d
00000130: cb4b 9e3d d4d4 2d3d 8a40 063d 7dc2 b53d
00000140: 9d82 c53c 1d19 823c c340 1fbe 4af0 10bd
00000150: 0b44 e93d 63a5 5e3e 6c6b 7abc e6b9 6b3d
00000160: fb87 c7bc aca9 49bd bc90 d63d e430 bdbc
00000170: d6f9 f73c 4ff7 4b3e cc07 ad39 5750 e03b
00000180: 3a9f 62b9 dd1c 9abd 4c25 3e3e 01b3 a1bc
00000190: ff15 37bb 099c fdbd 9314 26be 36d8 963d
000001a0: 55d9 333d bd0c 873d 4d97 21bd 0ac4 de3c
000001b0: 7aac 213d 93a4 f1bc ea52 b93d 5853 523d
000001c0: a448 643c 7436 9fbd fdd6 be3d 82d5 58bd
000001d0: efa7 c8bc 7b79 64bc 4743 153e 15ad a83c
000001e0: ec83 a1ba 81a5 403d f6dd b9bd 4349 5fbd
000001f0: 3638 5d3e e070 8f3d aedc e7bc 3645 89bd
00000200: 68eb c8bc 6ba5 e2bd 8f65 5b3d 6288 563d
00000210: 83d8 5a3d f331 0cbd cff6 013d 7747 5d3d
00000220: 71df 053e db6b 0ebc ac09 23bd 0b3f 543c
00000230: 21f2 1cbd 3988 c63c e0fb e4bc bc13 f4bb
00000240: 41c3 3dbd 8de6 a93c fce3 8ebd ec04 79bc
00000250: 7981 d2bc dbc4 a33d 90c0 fabc fb26 c9bd
00000260: d2cc 6cbd e000 403d 7479 4d3c 9e3b 2abd
00000270: dfb1 723c f121 8abc 192e a0bc 8152 9e3d
00000280: fda0 6e3d 72c2 11bc 126a 123d b471 e4bd
00000290: 4e2b 22bd bf9f 44bd 481c e7bd 88d7 2c3d
000002a0: 16d6 01bd 727f 693c c0aa 6dbd 778d acbd
000002b0: e839 373c 0c6c be3d ebaa 36bd 9de3 1d3e
000002c0: b570 cbbd 5ab3 833c ed6a aebc 2b5d 51bd
000002d0: 5f22 6c3d b489 7f3d a482 e0bd 309b 43bd
000002e0: f2e2 cbbc c5e6 9bbd e51b e5bd 9582 26bd
000002f0: fa28 933d 87bc 863d 1399 403c 6ff8 ccbd
00000300: 1bf9 b3bb 2110 cd3d adb1 e93c 0163 2d3c
00000310: d8a2 82bd 720b f23b 729a afbd 052b 9dbd
00000320: f7b4 05bd 7ff3 bfbd 2a8f 4b3d 6ad3 05bd
00000330: a4f5 48be eed1 97bc 0622 923c 3de9 40bd
00000340: 36ad 323c fbb9 4fbd 294d 89bc 6559 9cbd
00000350: 66dd 97bd 14b7 87bd f10f 1b3d 1998 6a3b
00000360: d914 c5bc ba60 d53c 7ce1 07bd 1df7 773d
00000370: a970 813d b96f bd3d 3fb8 4e3d d2e0 20be
00000380: 3e38 80bc c4ea b2bd 4486 ddbc 0955 97be
00000390: ec6f 2abd 8c52 60bd bc62 e03d 4edf 6abd
000003a0: a827 923d 5834 9ebc 7943 b2bc d4c8 b9bd
000003b0: 3e36 6abe 70e0 313c 1708 5bbb 0d54 9ebd
000003c0: b478 d9bd d14d a2bd 7124 39bd df0f edbd
000003d0: f75a c3bc c28d 8c3d 0c07 bebb ec1a 4e3d
000003e0: f973 df3c 0a9c 1cbd 40c3 6e3d 3f86 03bc
000003f0: c4e1 1cbe 8eee c1bd 4f76 90bc 29e3 97bd

onnx::MatMul_20 f4 [128, 3]
0.053293508 -0.055414222 -0.048005767 -0.032407034 -0.038577296 -0.1091506 -0.0053642956 -0.0107956
0.009033524 0.027139256 -0.057349503 0.0625069 0.020908307 0.030141661 0.05528483 0.0057981457
-0.015033329 -0.06934342 -0.08008454 0.004549299 0.005315818 -0.009225595 -0.01038422 0.041957922
0.016268685 0.06026573 -0.05088337 0.005003994 0.012884999 -0.008439392 0.014160761 -0.04055451
0.04264957 -0.106248245 0.06211627 -0.07836148 0.086629525 0.057327826 -0.013769448 0.03549143
0.021805407 0.051907677 -0.0009558535 0.0029336843 0.0026756744 0.0015290832 0.0111987125 -0.027414627
-0.09906151 0.08416559 0.07913339 0.06761062 0.09872739 0.026915628 0.033184595 0.0761181
-0.09317375 0.04152882 -0.06871185 0.040098112 0.0017605236 0.054821227 -0.021826213 0.023815356
0.022194488 0.08521822 0.06056358 -0.08430081 0.047400795 -0.009394044 -0.0034115086 -0.06167917
0.021401158 -0.013180105 -0.024252446 -0.007355209 -0.037477177 -0.01109208 -0.055874944 -0.0033778152
0.056838 -0.04003979 -0.01744925 0.013260368 -0.0084693795 0.0060538575 -0.009904659 0.0014401806
-0.009793737 0.027255304 0.06252357 0.014561409 -0.009947061 -0.003494446 0.008837732 -0.0075153336
-0.074854575 -0.068522304 -0.024802202 -0.0020651224 0.008652595 -0.014391594 -0.08085541 0.039413176
0.12678345 -0.031430665 0.037652746 -0.07066931 -0.016534986 -0.0023179066 0.03992762 0.013719032
-0.008238171 0.041880686 0.025294492 -0.086841166 -0.07558652 0.06327812 -0.029529223 -0.039138652
-0.11071851 -0.032751754 -0.018736215 -0.017081242 -0.02511558 0.0428807 -0.09595538 0.018684773
-0.039392002 -0.012520606 -0.03066619 -0.0020600492 -0.18334714 -0.036532737 0.0801609 -0.015320232
0.05288498 0.06650244 -0.044362485 -0.022197293 0.08023302 0.021077694 0.0701019 0.001859384
-0.06879138 -0.09776579 0.016689837 -0.03625737 0.042801663 -0.108177654 -0.14137463 0.08859049
-0.075682886 -0.034881424 -0.010319811 0.011141323 -0.0023321842 0.027869588 0.037463594 -0.023164218
-0.013397334 -0.0032468594 0.005090179 0.067811474 0.025313472 0.01448099 0.014180335 0.07475308
0.051461834 -0.038641613 -0.010434936 0.034305565 0.011610029 -0.028961435 -0.001914069 -0.01596939
0.048233323 -0.0011652716 -0.11346751 -0.05089586 -0.059846886 0.08017337 -0.07738005 -0.04009036
-0.0030735068 -0.05788978 -0.02675758 0.046195474 -0.032025196 0.071949 -0.010638529 -0.054608695
0.006320122 -0.035684314 -0.0025350286 -0.011613851 -0.0010105377 0.047037404 0.019566102 0.017487494
-0.0065833987 0.018835366 0.008172209 -0.09963545 -0.032351177 -0.0134498505 0.009677229 0.013204574
0.020221611 0.010213861 0.12885717 0.016761636 -0.08999492 -0.003673381 0.016470399 0.0957653
0.0019444997 0.00029742968 -0.0027862021 0.07976585 0.012305616 0.10724085 -0.008126867 -0.004431886
-0.014189577 0.012236711 -0.06654075 -0.09669182 -0.1587924 0.0029114897 -0.04134653 0.10650295
-0.07300359 -0.040899955 -0.025094789 -0.017127719 -0.017984381 0.118404254 -0.08957757 0.044216592
0.006675295 -0.015565578 -0.014593102 0.0438089 0.031235285 -0.07220234 0.0010038615 0.13827582
0.06353554 -0.09538818 -0.0040928996 -0.080438115 0.11593697 -0.060110804 0.10498402 -0.09548437
00000000: 4b4a 5a3d 06fa 62bd b2a1 44bd 3dbd 04bd
00000010: 3a03 1ebd 5a8a dfbd f9c6 afbb 07e0 30bc
00000020: 5901 143c 2553 de3c 50e7 6abd 9e03 803d
00000030: e647 ab3c a5eb f63c 5972 623d 5ffe bd3b
00000040: 5a4e 76bc ec03 8ebd 5d03 a4bd 4912 953b
00000050: 5030 ae3b f326 17bc 9322 2abc 12dc 2b3d
00000060: e845 853c 33d9 763d 156b 50bd 8bf8 a33b
00000070: 9a1b 533c 6045 0abc 8902 683c 7c1c 26bd
00000080: 51b1 2e3d ae98 d9bd a16d 7e3d fc7b a0bd
00000090: d26a b13d 95d0 6a3d 4099 61bc 765f 113d
000000a0: 41a1 b23c 259d 543d 3e92 7aba 0e43 403b
000000b0: 5e5a 2f3b 856b c83a ce7a 373c a494 e0bc
000000c0: c3e0 cabd 025f ac3d b010 a23d 7077 8a3d
000000d0: 9631 ca3d 2a7e dc3c 92ec 073d cee3 9b3d
000000e0: e1d1 bebd 201a 2a3d ccb8 8cbd eb3d 243d
000000f0: 5fc1 e63a 398c 603d e3cc b2bc 6c18 c33c
00000100: 37d1 b53c e486 ae3d 8411 783d e7a5 acbd
00000110: 5627 423d 7ae9 19bc 9e93 5fbb 4ca3 7cbd
00000120: 7b51 af3c 5ef1 57bc 11ad c6bc f703 f1bb
00000130: ab81 19bd 8ebb 35bc 20dd 64bd 565e 5dbb
00000140: f6ce 683d c300 24bd bbf1 8ebc 0442 593c
00000150: 27c3 0abc 705f c63b 2747 22bc 71c4 bc3a
00000160: e975 20bc 8446 df3c 5c0c 803d fa92 6e3c
00000170: fff8 22bc 1303 65bb 22cc 103c 3043 f6bb
00000180: 5b4d 99bd 6c55 8cbd fd2d cbbc 0157 07bb
00000190: 9dc3 0d3c b8ca 6bbc 8597 a5bd b66f 213d
000001a0: 85d3 013e 71bd 00bd c439 1a3d 12bb 90bd
000001b0: 6174 87bc 05e8 17bb 258b 233d cac5 603c
000001c0: 65f9 06bc 158b 2b3d 6536 cf3c c8d9 b1bd
000001d0: 1bcd 9abd f597 813d 45e7 f1bc da4f 20bd
000001e0: 63c0 e2bd b426 06bd b17c 99bc f6ed 8bbc
000001f0: 30bf cdbc aca3 2f3d 4184 c4bd cf10 993c
00000200: 8259 21bd 3a23 4dbc a937 fbbc e401 07bb
00000210: 5abf 3bbe 5aa3 15bd 662b a43d b601 7bbc
00000220: ec9d 583d 6e32 883d 70b5 35bd 19d7 b5bc
00000230: 3651 a43d 21ab ac3c 9691 8f3d 93b6 f33a
00000240: 7fe2 8cbd 6e39 c8bd 20b9 883c 9c82 14bd
00000250: cc50 2f3d 3f8c ddbd 83c4 10be ee6e b53d
00000260: a1ff 9abd d3df 0ebd 6d14 29bc 188a 363c
00000270: 8fd7 18bb c34e e43c 6d73 193d e3c2 bdbc
00000280: 7e80 5bbc 43c9 54bb 84cb a63b bee0 8a3d
00000290: 335e cf3c ad41 6d3c a354 683c 2518 993d
000002a0: a5c9 523d ab46 1ebd 4bf7 2abc fe83 0c3d
000002b0: fe37 3e3c 8840 edbc 80e1 faba 3dd2 82bc
000002c0: 4e90 453d 07bc 98ba a761 e8bd 2d78 50bd
000002d0: 0222 75bd f031 a43d 6f79 9ebd ca35 24bd
000002e0: e36c 49bb d51d 6dbd b632 dbbc 7737 3d3d
000002f0: da2c 03bd ff59 933d 3a4d 2ebc 5ead 5fbd
00000300: 0719 cf3b b729 12bd b922 26bb 0648 3ebc
00000310: 0574 84ba 4baa 403d 1749 a03c ef41 8f3c
00000320: 8db9 d7bb a04c 9a3c bbe4 053c ac0d ccbd
00000330: ab82 04bd c35c 5cbc 3e8d 1e3c ff57 583c
00000340: cba7 a53c 0a58 273c 22f3 033e b34f 893c
00000350: 424f b8bd 1bbd 70bb eeec 863c 9920 c43d
00000360: 95de fe3a 56f0 9b39 b798 36bb 475c a33d
00000370: 7f9d 493c 17a1 db3d 8d26 05bc 5b39 91bb
00000380: 667b 68bc 7c7c 483c 8446 88bd 5c06 c6bd
00000390: 7a9a 22be b1ce 3e3b fb5a 29bd 381e da3d
000003a0: e882 95bd b686 27bd 9693 cdbc 6e4f 8cbc
000003b0: fb53 93bc ee7d f23d 7274 b7bd 751c 353d
000003c0: 6fbc da3b c406 7fbc e817 6fbc f670 333d
000003d0: 24e1 ff3c d2de 93bd 0194 833a 2d98 0d3e
000003e0: ec1e 823d e15a c3bd bb1d 86bb bdbc a4bd
000003f0: 5d70 ed3d bf36 76bd dd01 d73d 4f8d c3bd
