tron1-rl-deploy-python-main/controllers/model/SF_TRON1A_ARM_stand_2/policy/isaaclab/policy.onnx (onnx, 777052 bytes, 8 tensors)

0.bias f4 [512]
-0.16057706 -0.10447692 -0.15889809 -0.04621731 0.06365159 0.04657926 0.12588196 -0.05777024
-0.080851324 -0.0948307 0.086991586 0.06869649 -0.12856027 -0.05683624 -0.19285382 -0.109224185
0.09916673 -0.088943034 0.03463004 -0.023571761 -0.23599967 0.025184924 -0.12570202 -0.09423719
-0.11367435 -0.12509085 0.07415536 0.036105294 -0.04904281 -0.18259564 0.023697337 0.013474732
0.06709585 0.02576385 -0.16158327 0.11802905 0.10514165 0.18664825 -0.17475992 -0.11964088
0.16102514 0.11323457 0.099485055 -0.1121552 0.018105676 -0.037745286 -0.15494362 -0.13168675
0.047081873 -0.08946452 -0.16470207 -0.10887121 -0.19081278 0.029496673 0.09068233 -0.04769595
0.08795364 -0.102947 -0.03203673 0.1574921 0.026457118 -0.15651256 0.09302211 0.012180028
0.03142342 -0.0050481306 -0.053645503 0.06475436 -0.0055364054 -0.024599472 -0.11148561 0.01782505
-0.12534036 0.04740783 -0.11947843 0.07603069 0.037843764 0.089157134 0.1277634 -0.08766934
0.12078712 0.057418212 0.051363777 -0.12851037 0.11238075 0.1236474 0.038513605 -0.05415876
-0.018122526 0.039354842 0.018607095 -0.057410017 0.11291633 -0.11484969 0.0207183 -0.0012309524
-0.07131617 0.056132834 -0.14671431 -0.0922685 -0.0995851 0.031105446 0.032649435 -0.026263822
-0.08417487 0.058344193 0.10817527 -0.0357363 0.08628914 0.07291883 -0.14872159 -0.1333208
-0.12784518 0.028040934 -0.009596072 0.062679626 0.0349861 -0.14554806 -0.06745101 -0.116544105
-0.060117457 -0.019583635 -0.20276889 -0.12945803 -0.015742667 0.051494982 0.0011094272 0.09785505
0.1581268 -0.050010547 -0.112486176 -0.21886551 -0.13048507 -0.03561101 -0.05144167 0.021355027
-0.057235412 0.048018668 0.15621488 -0.18697742 0.010744416 0.2371356 -0.20828797 -0.093363866
-0.07126342 0.055123035 -0.019379416 -0.14198805 -0.1128149 0.0035943068 -0.17919603 -0.09494401
0.1356927 -0.15584965 0.09034761 -0.15674134 0.07180725 -0.16657545 -0.0239514 0.07770484
0.0008948973 0.12309155 0.029123187 0.01456857 -0.11385191 -0.12232434 -0.12729974 0.1702977
0.052728694 -0.14132287 0.11768924 -0.18002182 -0.04517099 0.013796479 -0.106116235 -0.114777096
0.030997487 -0.032129038 -0.037374843 0.049849268 0.0045652254 0.0900021 0.11102551 0.08223512
0.06960756 0.0035949529 -0.2531322 0.08409538 -0.014235559 -0.0017262854 0.005195095 -0.04818348
-0.05284031 0.09919975 -0.13531426 -0.020468824 -0.122321635 0.05087961 0.08571544 -0.059786253
-0.10985031 0.11491765 -0.121607505 -0.14835694 -0.0141300205 -0.06197296 -0.027673066 -0.18629149
-0.14386533 0.055887096 0.10403985 0.07990193 0.017363977 0.111307174 0.007494864 -0.004936857
-0.1465293 0.06754094 -0.14674115 -0.06695379 -0.03969942 0.0030968497 -0.11838453 -0.082231544
0.1357063 -0.008532861 -0.1098158 0.03092759 0.07796549 0.14180738 -0.04903496 0.03931263
0.07148093 -0.1714314 -0.14502227 0.019627733 -0.07719832 -0.09492536 -0.04651567 -0.18989608
0.11836676 0.11579416 -0.15154627 0.047573913 -0.097541824 0.06332319 -0.1723992 0.07744074
0.15756603 -0.010813701 -0.025110181 -0.08323893 0.025595995 0.111003734 -0.04920714 -0.026888462
00000000: 506e 24be fff7 d5bd 2eb6 22be 5d4e 3dbd
00000010: c45b 823d e5c9 3e3d 33e7 003e 7da0 6cbd
00000020: 6195 a5bd 9936 c2bd a528 b23d bfb0 8c3d
00000030: 4ea5 03be 1ecd 68bd 797b 45be eeb0 dfbd
00000040: ed17 cb3d c427 b6bd 3bd8 0d3d 9119 c1bc
00000050: e6a9 71be 9d50 ce3c 08b8 00be 6eff c0bd
00000060: 19ce e8bd d117 00be c4de 973d 25e3 133d
00000070: 1de1 48bd 5afa 3abe eb20 c23c 1fc5 5c3c
00000080: 8d69 893d b60e d33c 1676 25be 37b9 f13d
00000090: 8154 d73d b820 3f3e 44f4 32be 4706 f5bd
000000a0: c6e3 243e 87e7 e73d d2be cb3d a0b1 e5bd
000000b0: 5b52 943c cd9a 1abd 8aa9 1ebe e4d8 06be
000000c0: ecd8 403d 2d39 b7bd a9a7 28be def7 debd
000000d0: 6d64 43be 02a3 f13c a8b7 b93d d45c 43bd
000000e0: 0a21 b43d e0d5 d2bd f238 03bd 9c45 213e
000000f0: 99bc d83c d444 20be 6082 be3d bd8e 473c
00000100: d8b5 003d ca6a a5bb 63bb 5bbd ef9d 843d
00000110: bc6a b5bb d584 c9bc 9152 e4bd d705 923c
00000120: 3959 00be b62e 423d 1bb1 f4bd fab5 9b3d
00000130: 1002 1b3d 0498 b63d 69d4 023e fc8b b3bd
00000140: 3d5f f73d 5c2f 6b3d d362 523d 3998 03be
00000150: e127 e63d d93a fd3d 71c0 1d3d 93d5 5dbd
00000160: b175 94bc 8b32 213d e86d 983c c426 6bbd
00000170: ad40 e73d 5036 ebbd 6db9 a93c e957 a1ba
00000180: 360e 92bd 8beb 653d 473c 16be 44f7 bcbd
00000190: 46f3 cbbd d9d0 fe3c 6abb 053d 3a27 d7bc
000001a0: e063 acbd 52fa 6e3d ff8a dd3d 3a60 12bd
000001b0: 5cb8 b03d 7856 953d 794a 18be 3f85 08be
000001c0: d9e9 02be 1ab6 e53c d838 1dbc 2d5e 803d
000001d0: 964d 0f3d 8d0a 15be c123 8abd adae eebd
000001e0: b93d 76bd dc6d a0bc a6a2 4fbe a590 04be
000001f0: c4f6 80bc 67ec 523d 336a 913a 3a68 c83d
00000200: feeb 213e dcd7 4cbd 275f e6bd 481e 60be
00000210: e19d 05be dadc 11bd 80b4 52bd bdf0 ae3c
00000220: ae6f 6abd 39af 443d cbf6 1f3e 0277 3fbe
00000230: 5909 303c add3 723e 7149 55be 8e35 bfbd
00000240: 8ef2 91bd b1c8 613d 95c1 9ebc 5165 11be
00000250: 800b e7bd 768e 6b3b 2a7f 37be 0172 c2bd
00000260: 07f3 0a3e 0d97 1fbe 2b08 b93d cd80 20be
00000270: ae0f 933d c192 2abe ba35 c4bc b723 9f3d
00000280: 8b97 6a3a 6c17 fc3d c093 ee3c 03b1 6e3c
00000290: 312b e9bd 2f85 fabd dd5a 02be 8562 2e3e
000002a0: 0bfa 573d f1b6 10be 0e07 f13d a457 38be
000002b0: 3705 39bd a10a 623c 7853 d9bd 4110 ebbd
000002c0: 71ee fd3c bd99 03bd 5d16 19bd bf2e 4c3d
000002d0: e397 953b 0553 b83d 5861 e33d e36a a83d
000002e0: 698e 8e3d 4d99 6b3b 8b9a 81be 333a ac3d
000002f0: 433c 69bc 8744 e2ba 9e3b aa3b 0a5c 45bd
00000300: 156f 58bd 3d29 cb3d d28f 0abe 3cae a7bc
00000310: c483 fabd 2367 503d 948b af3d 6ee2 74bd
00000320: 33f9 e0bd f259 eb3d 5b0d f9bd e2ea 17be
00000330: 9a81 67bc 5cd7 7dbd a0b2 e2bc 32c3 3ebe
00000340: 6f51 13be dee9 643d d812 d53d a0a3 a33d
00000350: e63e 8e3c 04f5 e33d 7a97 f53b 5cc5 a1bb
00000360: c70b 16be e852 8a3d 5043 16be 121f 89bd
00000370: dc9b 22bd 84f4 4a3b 9773 f2bd 0369 a8bd
00000380: 98f6 0a3e 6acd 0bbc 1be7 e0bd db5b fd3c
00000390: 5fac 9f3d f435 113e e2d8 48bd 4806 213d
000003a0: 9864 923d b78b 2fbe b880 14be 57ca a03c
000003b0: 271a 9ebd 3a68 c2bd 3787 3ebd 1e74 42be
000003c0: 466a f23d 7d25 ed3d f22e 1bbe dddc 423d
000003d0: 02c4 c7bd 97af 813d 6a89 30be 4099 9e3d
000003e0: fd58 213e f32b 31bc deb3 cdbc 2c79 aabd
000003f0: b1ae d13c ed55 e33d 6d8d 49bd 3145 dcbc

2.bias f4 [256]
-0.13748752 0.0009981673 -0.1055995 -0.023520468 -0.09816745 -0.10600349 -0.13943796 -0.17440523
-0.03230536 0.049619988 -0.041226953 -0.0035463583 -0.034473922 0.069575444 -0.19010031 -0.003412069
-0.041627597 -0.03964774 -0.10474954 -0.222694 -0.2216819 -0.095715426 -0.06931185 -0.03626029
-0.20207661 0.022756262 -0.10711192 -0.017854264 -0.07270971 0.036023892 -0.029466355 0.009155702
-0.17832634 -0.021757208 -0.010162068 0.009711766 -0.11379742 -0.033835713 -0.07900401 -0.04816083
-0.14496638 0.039612383 -0.059960514 -0.10387054 -0.15369834 -0.02703454 -0.08413366 -0.0525922
-0.08856288 -0.010437923 -0.08703453 -0.12731634 -0.094385795 -0.10583015 -0.063095294 -0.052161377
-0.109935425 -0.047944028 -0.11294858 -0.010328482 -0.019492216 -0.08266072 -0.09665044 -0.007563816
-5.942551e-05 -0.08630393 -0.1182714 -0.038072705 -0.12164393 -0.14584506 -0.11260152 -0.092261836
-0.029558033 -0.0117860725 0.057468206 0.06541265 -0.07870814 -0.13146885 -0.16481993 -0.054082416
-0.11316036 -0.051547725 -0.10899274 -0.13157089 -0.10530265 -0.044577163 -0.089566216 -0.17531565
0.04452536 -0.11833965 -0.15989542 -0.17307706 -0.058931936 -0.11738025 0.025445715 -0.17850034
-0.1249695 -0.05267691 -0.12651752 -0.121255934 -0.20200366 -0.05870085 -0.13503504 -0.027467005
-0.10453058 -0.13250868 -0.11345547 -0.04691276 -0.08125139 0.003986911 -0.17600463 -0.07534785
-0.093015626 0.039012093 -0.08727836 -0.06405763 0.02251538 -0.1446901 -0.1952672 -0.19787161
0.024552206 -0.061705146 -0.031119602 -0.0029569145 -0.03484015 0.01728012 -0.04252702 -0.02036569
-0.087630756 -0.027063387 -0.17646813 -0.011655385 -0.0034470237 -0.09376328 -0.13303088 -0.06430544
-0.062165525 0.012640583 -0.16912103 -0.10486899 -0.02017198 -0.020171557 -0.15398122 -0.10286034
-0.015655054 -0.04993319 -0.029730726 -0.06591476 -0.11478549 -0.12195005 -0.05700323 -0.16248186
-0.008394299 -0.12725219 0.02649178 -0.15773365 -0.10597672 0.026995666 -0.100185834 -0.027821185
-0.31212503 -0.0059570656 -0.08249554 0.026301974 -0.23110561 -0.23939511 0.0062712007 -0.102325924
-0.01760367 -0.066551365 -0.054569323 -0.074897 -0.0029060922 -0.034416914 -0.008939304 -0.022987517
-0.064037204 -0.050374143 -0.078799166 -0.09033239 0.011860584 -0.06889907 -0.016298857 -0.10417783
0.038760766 -0.09390094 -0.037859682 -0.12073288 -0.03668821 -0.125492 -0.08946945 -0.092490084
-0.10322942 -0.016787458 -0.04601694 -0.07660237 0.01737767 0.03051267 -0.019145837 -0.1262848
-0.021491753 -0.05948158 -0.11136724 -0.07168994 0.004575873 -0.09775467 -0.46152803 0.075604744
-0.068537995 -0.08063304 -0.061932035 0.037740957 -0.13436876 -0.11467924 -0.15281174 -0.021393925
-0.26473418 -0.0824665 -0.08866601 -0.17318073 -0.11696821 -0.107530996 -0.10236932 -0.086198695
-0.052466244 -0.18221849 -0.0023862731 0.005961999 -0.03727926 -0.15409307 -0.06474616 -0.05716616
-0.19388463 -0.005319283 -0.12631576 -0.005261118 -0.09665487 -0.04372475 0.016440177 -0.17099859
-0.15267974 -0.03246724 -0.017919824 -0.05799149 0.06567861 -0.22435118 -0.15875497 -0.27017823
-0.014797032 -0.09681584 0.013689401 -0.039283324 -0.056344457 0.009080033 -0.0012656577 -0.09044963
00000000: 87c9 0cbe f0d4 823a 8d44 d8bd ffad c0bc
00000010: 040c c9bd 5c18 d9bd d3c8 0ebe 4997 32be
00000020: a052 04bd 543e 4b3d 98dd 28bd 056a 68bb
00000030: 8734 0dbd 927d 8e3d a8a9 42be 059d 5fbb
00000040: b381 2abd ab65 22bd ed86 d6bd e509 64be
00000050: 9400 63be 7306 c4bd 5ff3 8dbd ab85 14bd
00000060: 2ced 4ebe 576b ba3c 7f5d dbbd 1b43 92bc
00000070: d4e8 94bd ca8d 133d 6d63 f1bc cc01 163c
00000080: 2e9b 36be 2c3c b2bc cd7e 26bc 191e 1f3c
00000090: 9f0e e9bd 5197 0abd dbcc a1bd 4a44 45bd
000000a0: 1172 14be 9840 223d 2899 75bd 14ba d4bd
000000b0: 1963 1dbe 8a77 ddbc 454e acbd eb6a 57bd
000000c0: 7560 b5bd d203 2bbc 293f b2bd 375f 02be
000000d0: 574d c1bd 7abd d8bd 1b38 81bd 2ba7 55bd
000000e0: d325 e1bd f560 44bd 9651 e7bd cb38 29bc
000000f0: 24ae 9fbc 064a a9bd aaf0 c5bd e3d9 f7bb
00000100: a83f 79b8 1dc0 b0bd 4738 f2bd 20f2 1bbd
00000110: 7420 f9bd 6858 15be a09b e6bd c6f3 bcbd
00000120: b023 f2bc 5f1a 41bc c863 6b3d 11f7 853d
00000130: bc31 a1bd c59f 06be 8ec6 28be 8685 5dbd
00000140: 9ec0 e7bd b523 53bd 9637 dfbd 85ba 06be
00000150: eaa8 d7bd 8b96 36bd 7e6e b7bd f285 33be
00000160: 3960 363d 0f5c f2bd a0bb 23be 1d3b 31be
00000170: 9d62 71bd 0e65 f0bd 8873 d03c cbc8 36be
00000180: 02f0 ffbd bec3 57bd cf8d 01be 0855 f8bd
00000190: 0cda 4ebe 4d70 70bd a046 0abe 7c02 e1bc
000001a0: 2114 d6bd 5bb0 07be 575b e8bd 9827 40bd
000001b0: 2167 a6bd a2a4 823b 8f3a 34be f94f 9abd
000001c0: fa7e bebd 25cb 1f3d ffbe b2bd a630 83bd
000001d0: 2d72 b83c a429 14be 20f4 47be db9e 4abe
000001e0: b521 c93c 89be 7cbd 89ee febc cbc8 41bb
000001f0: 8cb4 0ebd 0a8f 8d3c d030 2ebd f3d5 a6bc
00000200: c177 b3bd 09b4 ddbc 10b4 34be 3af6 3ebc
00000210: 76e7 61bb f606 c0bd 3f39 08be 92b2 83bd
00000220: 47a1 7ebd 731a 4f3c 102e 2dbe 8ec5 d6bd
00000230: b53f a5bc d23e a5bc 41ad 1dbe 71a8 d2bd
00000240: 073f 80bc bf86 4cbd da8d f3bc 51fe 86bd
00000250: a814 ebbd f3c0 f9bd 387c 69bd a561 26be
00000260: 3e88 09bc 664e 02be 4a05 d93c ee84 21be
00000270: 530a d9bd 0426 dd3c 3b2e cdbd 41e9 e3bc
00000280: dace 9fbe 7d33 c3bb 6cf3 a8bd 3d77 d73c
00000290: f3a6 6cbe fe23 75be a57e cd3b 4190 d1bd
000002a0: 9235 90bc 154c 88bd 1584 5fbd 9963 99bd
000002b0: 2374 3ebb c0f8 0cbd 2976 12bc 5150 bcbc
000002c0: f025 83bd 1e55 4ebd 7561 a1bd 3000 b9bd
000002d0: e552 423c f51a 8dbd 2e85 85bc 305b d5bd
000002e0: 9cc3 1e3d 234f c0bd c112 1bbd cd42 f7bd
000002f0: 6046 16bd fa80 00be c23b b7bd 716b bdbd
00000300: f269 d3bd da85 89bc 427c 3cbd b4e1 9cbd
00000310: 9e5b 8e3c b5f5 f93c bbd7 9cbc cd50 01be
00000320: 790f b0bc f5a2 73bd 8214 e4bd 2dd2 92bd
00000330: 34f1 953b 9a33 c8bd 674d ecbe a9d6 9a3d
00000340: a65d 8cbd ef22 a5bd 72ac 7dbd 4396 1a3d
00000350: f797 09be f3dc eabd ae7a 1cbe 5042 afbc
00000360: 3d8b 87be 32e4 a8bd 8696 b5bd 4a56 31be
00000370: 078d efbd 3639 dcbd 02a7 d1bd f188 b0bd
00000380: d8e6 56bd 7c97 3abe 0563 1cbb df5c c33b
00000390: 23b2 18bd 93ca 1dbe a299 84bd 1027 6abd
000003a0: b189 46be 614d aebb eb58 01be 7565 acbb
000003b0: fdf2 c5bd b918 33bd 8dad 863c 411a 2fbe
000003c0: 1458 1cbe 5efc 04bd 98cc 92bc 7c88 6dbd
000003d0: 8282 863d 51bc 65be aa90 22be cd54 8abe
000003e0: 406f 72bc 6247 c6bd 8249 603c 8de7 20bd
000003f0: 72c9 66bd 6bc4 143c 6de4 a5ba a83d b9bd

4.bias f4 [128]
-0.011770731 -0.04290209 -0.24382982 -0.059334315 -0.06474406 0.0026949074 -0.030751992 -0.011872618
-0.12738955 -0.082808726 -0.06789762 -0.24445398 -0.54799855 -0.11057666 -0.055685543 -0.08915047
-0.13787048 -0.0007205241 -0.021544708 -0.49793726 -0.03932137 0.06711582 -0.05173737 -0.07677892
-0.039032962 -0.09652693 -0.018885337 -0.1742206 -0.05722326 0.107800566 -0.053845987 -0.36588857
0.017676128 0.012877699 -0.12082697 -0.10304382 -0.06960755 0.005764418 -0.23014688 0.035242446
-0.15096444 0.028052213 -0.015503633 -0.1464539 -0.05831965 -0.08808176 -0.09639596 -0.060415447
-0.16456193 -0.043870073 -0.06053766 -0.006053389 -0.22631699 -0.055154167 -0.16907953 -0.0014341536
-0.37451518 -0.10272105 -0.037972257 -0.2544786 0.0462102 0.042404708 -0.07273652 -0.034378942
-0.0551621 -0.07109516 -0.10602367 -0.009600551 -0.038840525 -0.105938785 0.010124261 -0.20777301
-0.046941485 -0.10118427 -0.0071050506 -0.05155746 -0.0571863 -0.037026133 -0.01944323 -0.17285682
-0.050207287 -0.11138024 -0.10082546 0.011590779 -0.05006843 -0.008711269 -0.068328 0.010049966
-0.0054372363 -0.10092124 -0.07633933 -0.2297464 -0.052460384 -0.08804221 -0.004510448 0.048384447
0.04629049 -0.001010439 -0.065882534 0.055098068 -0.032522313 -0.07714084 -0.033186257 -0.005747517
-0.07280449 -0.041601285 -0.082429245 -0.12917924 -0.07305479 -0.109909005 -0.06443926 -0.11849664
-0.05657007 -0.059373233 -0.043029767 -0.015149316 -0.07034163 -0.08718077 -0.08280828 -0.2418576
-0.06554634 -0.07695925 0.085257605 -0.06152293 -0.098466784 -0.046803553 -0.4320767 -0.10434553
00000000: 06da 40bc 1aba 2fbd 86ae 79be 8a08 73bd
00000010: 8998 84bd 0b9d 303b 9aeb fbbc 5f85 42bc
00000020: 6872 02be 9f97 a9bd e80d 8bbd 2552 7abe
00000030: a249 0cbf 0476 e2bd 8616 64bd 8694 b6bd
00000040: eb2d 0dbe 8ee1 3cba 877e b0bc a2f1 febe
00000050: 720f 21bd 0574 893d 91ea 53bd 443e 9dbd
00000060: 07e1 1fbd e9af c5bd 6cb5 9abc e366 32be
00000070: f062 6abd 8bc6 dc3d 9c8d 5cbd bf55 bbbe
00000080: 87cd 903c fcfc 523c 2174 f7bd a308 d3bd
00000090: 678e 8ebd 71e3 bc3b a0ab 6bbe 625a 103d
000000a0: 6c96 1abe c1cd e53c f302 7ebc 03f8 15be
000000b0: 96e0 6ebd 3664 b4bd 3f6b c5bd 3076 77bd
000000c0: ec82 28be 1bb1 33bd 56f6 77bd 825b c6bb
000000d0: a4bf 67be 56e9 61bd 2f23 2dbe 36fa bbba
000000e0: 74c0 bfbe 6a5f d2bd cc88 1bbd 054b 82be
000000f0: e846 3d3d 8fb0 2d3d e2f6 94bd efd0 0cbd
00000100: a7f1 61bd 579a 91bd f022 d9bd a14b 1dbc
00000110: 3e17 1fbd 6ff6 d8bd 3ae0 253c 73c2 54be
00000120: b745 40bd b339 cfbd 7cd1 e8bb ea2d 53bd
00000130: 2f3c 6abd b7a8 17bd 6947 9fbc 6101 31be
00000140: 28a6 4dbd 531b e4bd 947d cebd 40e7 3d3c
00000150: 8e14 4dbd b6b9 0ebc 8def 8bbd 9da8 243c
00000160: d82a b2bb ccaf cebd cb57 9cbd a442 6bbe
00000170: b3e0 56bd 794f b4bd 61cc 93bb c52e 463d
00000180: 199b 3d3d b570 84ba 6ced 86bd 83ae 613d
00000190: 1e36 05bd 04fc 9dbd 50ee 07bd ab55 bcbb
000001a0: 851a 95bd 1c66 2abd aad0 a8bd 9047 04be
000001b0: c09d 95bd f917 e1bd bbf8 83bd 5eae f2bd
000001c0: 05b6 67bd 5931 73bd fb3f 30bd d634 78bc
000001d0: 460f 90bd d58b b2bd 6397 a9bd 85a9 77be
000001e0: 293d 86bd d09c 9dbd 8a9b ae3d 78ff 7bbd
000001f0: f4a8 c9bd 15b5 3fbd 2839 ddbe 1cb3 d5bd

6.bias f4 [8]
0.08455786 -0.1598691 0.1278874 0.048460525 0.06376178 0.0045079966 0.01792974 0.05362613
00000000: ac2c ad3d bab4 23be eaf4 023e 8b7e 463d
00000010: 8995 823d d1b7 933b 64e1 923c 13a7 5b3d

onnx::MatMul_24 f4 [42, 512]
-0.0817389 -0.054869596 -0.20391306 0.2991517 0.34213653 -0.18505944 -0.06968508 0.32786757
-0.34878093 -0.05255287 0.087982036 0.099539086 -0.17237844 0.39140382 0.06453212 -0.240961
-0.4407056 -0.073483594 0.024640232 0.17422242 0.08028876 -0.35724822 -0.091819584 -0.2014673
0.11536777 -0.045930296 -0.22827011 0.04825896 0.01437298 -0.33288848 -0.17825074 -0.33415264
-0.21965827 -0.13170484 0.011653106 0.09291413 -0.120564215 -0.20690915 -0.16770345 0.17664376
0.18192752 -0.019789848 -0.31624824 0.16803981 -0.04815421 -0.13734199 -0.04109622 -0.10466418
-0.18038744 0.18562998 -0.08546479 -0.044377364 0.021511218 -0.24686992 0.17612468 0.10567236
-0.13831517 -0.0009815256 -0.037284102 -0.17218278 -0.15962401 0.1387104 0.1530842 -0.028403018
0.25854513 -0.36371416 -0.15296553 0.1610899 -0.16828038 -0.112131305 -0.059451148 -0.28670934
0.0037038205 -0.16554269 0.087996215 0.18480407 0.2900206 -0.30234966 0.21785611 -0.15626469
-0.12639865 -0.00902656 0.08778569 -0.1574798 0.22578512 -0.13243154 -0.16142394 -0.20937942
-0.03329371 0.07697384 0.11525518 0.06255547 0.04177903 0.04708888 0.02446778 -0.04773296
-0.034413468 -0.13911644 0.07704608 -0.15979537 -0.1302713 0.051239908 -0.14327589 0.017665813
0.056767162 -0.5971367 -0.16155288 -0.31484598 -0.32614675 0.049779683 -0.009754949 -0.11231948
0.07270477 0.06355342 0.082072906 -0.32281005 -0.35504025 0.15401241 0.014586529 -0.062882036
-0.23673888 -0.16291468 -0.038181655 0.0029192877 0.12469216 -0.34147424 -0.23231474 -0.034152042
-0.22404206 0.12523635 0.2287099 0.1796028 0.22854353 0.18629849 0.084761105 -0.26430285
0.076405175 -0.16739503 0.29817975 -0.2352338 -0.11035596 -0.0015298272 -0.07645243 0.23390491
0.17710732 -0.14153948 -0.33932406 -0.1301256 0.011513302 -0.03425127 0.12661673 -0.07536614
-0.291323 0.22795478 0.04917673 -0.008868492 -0.046484396 0.071566634 0.0628482 -0.14439005
0.115211755 -0.26393086 0.06702684 0.055201977 0.004419104 -0.13792509 -0.1317506 0.33394983
0.16795146 -0.23660481 0.18015325 0.26778573 -0.12438384 0.04450223 -0.2515694 0.07592035
0.18163978 -0.046695124 -0.15648341 -0.17916113 -0.042442173 0.2731972 0.20099616 0.09438605
-0.139641 -0.21526028 0.03138839 -0.20590985 -0.36418498 0.009718189 0.04735943 0.030735862
-0.034586668 0.29144955 -0.11988895 -0.21343204 0.04295097 -0.24177836 0.0724718 -0.033160925
-0.07764322 0.122794844 -0.3236827 -0.049405705 -0.20585348 0.13073587 -0.1196472 0.09446165
0.28531408 0.023178753 -0.050251283 -0.12267722 -0.3277782 0.050937712 0.093094125 -0.07508085
-0.10072943 0.052501608 -0.14230427 -0.03952901 0.27354157 -0.03462546 0.11162848 -0.13391757
0.05425869 0.025737531 -0.19581184 -0.2775732 0.013999498 0.018989488 -0.121575736 0.023507202
-0.06227396 -0.015045371 -0.11724513 -0.31986493 -0.07776588 -0.24901524 -0.11175786 -0.1781032
-0.3452016 -0.08382549 0.039686024 -0.13553788 -0.14750455 -0.30262718 0.27406794 -0.22065486
-0.22414757 0.09783473 0.06866196 0.055842604 0.1620714 -0.06343368 -0.17422006 -0.038770422
00000000: b966 a7bd f1be 60bd 96ce 50be 692a 993e
00000010: 852c af3e 3980 3dbe 0db7 8ebd 42de a73e
00000020: 6a93 b2be ae41 57bd ed2f b43d 26db cb3d
00000030: f983 30be 1566 c83e 6b29 843d 7bbe 76be
00000040: 2aa4 e1be 917e 96bd 50da c93c 5d67 323e
00000050: 6f6e a43d 3de9 b6be e80b bcbd 724d 4ebe
00000060: f045 ec3d 6821 3cbd a4bf 69be 30ab 453d
00000070: a67c 6b3c 5c70 aabe 5d87 36be 0e16 abbe
00000080: 19ee 60be a2dd 06be abec 3e3c c349 be3d
00000090: 5fea f6bd fedf 53be 74ba 2bbe 1ae2 343e
000000a0: 354b 3a3e 521e a2bc 4aeb a1be a112 2c3e
000000b0: 593d 45bd 61a3 0cbe 8354 28bd 2c5a d6bd
000000c0: 7cb7 38be c915 3e3e 2a08 afbd 0ac5 35bd
000000d0: 4b38 b03c 78cb 7cbe 075a 343e c06a d83d
000000e0: 7ea2 0dbe 89a6 80ba 37b7 18bd af50 30be
000000f0: 7a74 23be 190a 0e3e 1bc2 1c3e 72ad e8bc
00000100: 0760 843e be38 babe ffa2 1cbe c0f4 243e
00000110: b151 2cbe 19a5 e5bd 0c83 73bd 91cb 92be
00000120: ccbb 723b 0684 29be 5c37 b43d 473d 3d3e
00000130: 957d 943e 93cd 9abe ac15 5f3e da03 20be
00000140: a66e 01be 23e4 13bc fcc8 b33d 6242 21be
00000150: 3734 673e 229c 07be 514c 25be 8f67 56be
00000160: fc5e 08bd 76a4 9d3d e80a ec3d 151d 803d
00000170: 7d20 2b3d 45e0 403d a770 c83c a383 43bd
00000180: 23f5 0cbd 8a74 0ebe 56ca 9d3d 66a1 23be
00000190: d765 05be f0e0 513d eab6 12be e5b7 903c
000001a0: af84 683d f3dd 18bf 1e6e 25be 7e33 a1be
000001b0: b5fc a6be c8e5 4b3d 39d3 1fbc c107 e6bd
000001c0: 3de6 943d 4c28 823d d715 a83d 5c47 a5be
000001d0: d6c7 b5be 6eb5 1d3e 56fc 6e3c 4cc8 80bd
000001e0: ad6b 72be 1bd3 26be 5e64 1cbd 8551 3f3b
000001f0: 9a5e ff3d b6d5 aebe eae3 6dbe 03e3 0bbd
00000200: 486b 65be f53d 003e ee32 6a3e cce9 373e
00000210: 5107 6a3e 08c5 3e3e 3b97 ad3d b452 87be
00000220: 517a 9c3d 9a69 2bbe 04ab 983e 21e1 70be
00000230: 4e02 e2bd 7c84 c8ba 1793 9cbd c584 6f3e
00000240: 9f5b 353e baef 10be e2bb adbe a53f 05be
00000250: 4aa2 3c3c 0f4b 0cbd d1a7 013e 9059 9abd
00000260: 4a28 95be fa6c 693e 8a6d 493d 274d 11bc
00000270: 6c66 3ebd 8791 923d 8fb6 803d fcda 13be
00000280: 24f4 eb3d f221 87be 5e45 893d 781b 623d
00000290: 22ce 903b 3c3c 0dbe a1e9 06be 79fb aa3e
000002a0: 78fb 2b3e 8848 72be 187a 383e 361b 893e
000002b0: f4bc febd f847 363d b4cd 80be 217c 9b3d
000002c0: c7ff 393e 6343 3fbd 303d 20be 0476 37be
000002d0: d8d7 2dbd 81e0 8b3e f0d1 4d3e 794d c13d
000002e0: 0dfe 0ebe 316d 5cbe 1d91 003d 08da 52be
000002f0: 7476 babe 0a39 1f3c f6fb 413d c6c9 fb3c
00000300: c0aa 0dbd e038 953e 5688 f5bd ee8d 5abe
00000310: 5bed 2f3d bf94 77be 186c 943d c0d3 07bd
00000320: 6903 9fbd dd7b fb3d bdb9 a5be a35d 4abd
00000330: 41cb 52be a0df 053e 9709 f5bd 1c75 c13d
00000340: b014 923e 5ee1 bd3c 4ad4 4dbd 323e fbbd
00000350: 8bd2 a7be 10a4 503d 22a8 be3d fdc3 99bd
00000360: 3b4b cebd ed0b 573d 36b8 11be 2ce9 21bd
00000370: a40d 8c3e 6dd3 0dbd 799d e43d b021 09be
00000380: 5c3e 5e3d 84d7 d23c e682 48be 131e 8ebe
00000390: 275e 653c d88f 9b3c b3fc f8bd 2d92 c03c
000003a0: fb12 7fbd dc80 76bc 371e f0bd 56c5 a3be
000003b0: b843 9fbd dafd 7ebe 4ee1 e4bd af60 36be
000003c0: 44be b0be b3ac abbd d08d 223d 71ca 0abe
000003d0: 6f0b 17be f3f1 9abe a252 8c3e 59f3 61be
000003e0: f186 65be 935d c83d a49e 8c3d 37bb 643d
000003f0: 0cf6 253e 84e9 81bd be66 32be bccd 1ebd

onnx::MatMul_25 f4 [512, 256]
-0.026922867 0.036178354 0.12520465 0.009696766 -0.10841631 -0.07127327 0.07543213 -0.040636048
-0.044924706 -0.043231357 0.032344528 0.09456233 -0.024392951 -0.103318065 0.008750784 -0.053066686
-0.21389459 -0.032782424 -0.13094093 0.2845362 0.0698828 0.05787755 -0.10597897 0.015906408
0.35973865 -0.10237691 0.07552041 -0.03912852 -0.10746727 0.003252018 -0.030693209 0.022957426
3.2198823e-05 0.039798997 0.0058274562 0.005341335 -0.05560192 0.03866422 0.026926573 0.22104765
-0.0050046546 -0.042187076 0.099230155 0.025414724 0.079263836 -0.009896769 0.04028797 -0.10223237
0.020331405 -0.043684646 0.101919815 0.02928494 -0.024123348 -0.030692331 0.00796222 -0.057059187
-0.08427054 0.030687552 -0.010158504 0.0322879 -0.13232537 -0.01160605 -0.013548241 0.09934636
0.06809157 -0.083641246 -0.0007819589 0.031241467 0.13979602 -0.02293998 -0.0114191165 0.015953958
0.069522284 -0.06665906 0.0015266535 -0.040936865 0.16793294 0.09746224 0.3269098 0.055484835
-0.03599154 0.019598465 0.16810882 -0.037969656 -0.019379735 -0.034065317 -0.09522002 0.115583554
0.038154073 0.049733374 -0.025912546 0.054909658 0.091648005 -0.044107866 0.052043226 0.22171286
0.1490423 0.034009155 0.032248404 0.09122748 0.019152306 -0.04151531 -0.11630752 0.13443223
-0.07436813 0.009634952 0.08827507 0.026679529 0.08088032 -0.056549642 -0.037681643 -0.0020028376
0.047442615 -0.06505889 0.096248664 0.070348 0.070686944 0.016954117 0.019957146 0.23423629
-0.15386465 -0.10164156 -0.0033212365 0.009953844 0.008259141 -0.08020063 0.12204391 -0.11057708
0.1162095 0.07099696 0.12654841 -0.05816446 -0.07599999 0.01193232 -0.05935049 -0.033909775
-0.055863876 -0.03233112 0.15101947 0.13581093 -0.067411125 0.020301057 0.027437141 0.089153916
0.083307795 0.07836258 -0.072678864 0.11170251 -0.0010198774 -0.0058750114 -0.031256653 -0.024843348
0.105968975 0.02982735 0.119171835 0.2048126 0.05482313 -0.06268586 0.061675582 -0.12741768
-0.00057677523 0.020606594 -0.031167638 0.0038245786 0.110114805 0.104045406 0.014383728 0.18051863
0.046321288 0.119468756 0.0073879627 0.14943594 -0.067042954 -0.005325262 -0.011354219 -0.04332186
0.004012825 -0.041661758 -0.12556423 -0.028013885 -0.0847067 -0.029576186 -0.073532075 0.01723716
0.14108746 -0.061958794 0.07181726 0.08566458 0.08037354 0.16842635 0.026536815 0.041953515
-0.068757355 -0.060330655 0.040153585 0.09185114 0.034323595 -0.09624318 -0.13354088 -0.010507893
0.0019118313 0.084806554 0.055468794 -0.035459816 -0.04732845 0.094800666 -0.053350545 -0.16051099
0.018385954 0.14675611 -0.037283763 -0.14361456 0.06841694 0.09606462 0.028727157 0.089338
0.300598 -0.007903357 0.15319706 0.08583824 0.0013003704 -0.101727374 0.11491044 0.04093629
0.1258503 0.23187609 -0.06581812 -0.13070133 0.23167168 0.030935388 0.034681365 -0.045323037
-0.057234608 -0.043798767 0.023498904 -0.072021715 -0.01981233 -0.047737688 0.006669953 -0.011231647
0.000826271 -0.014856066 -0.050488126 0.13459963 0.09364126 0.007560011 0.0073466967 0.027802574
-0.13330643 0.07381993 -0.08464208 -0.13268533 -0.16788946 0.043833986 -0.039363172 0.02571072
00000000: 588d dcbc c12f 143d a635 003e 2fdf 1e3c
00000010: 5f09 debd b8f7 91bd 297c 9a3d fc71 26bd
00000020: f802 38bd 5d13 31bd b27b 043d e5a9 c13d
00000030: bad3 c7bc 6c98 d3bd 735f 0f3c 745c 59bd
00000040: 2f07 5bbe dd46 06bd 6115 06be bbae 913e
00000050: b71e 8f3d 0311 6d3d 810b d9bd 284e 823c
00000060: aa2f b83e fcaa d1bd 72aa 9a3d 3a45 20bd
00000070: cd17 dcbd cf1f 553b 5370 fbbc 3611 bc3c
00000080: 390d 0738 4604 233d 3ff4 be3b 5e06 af3b
00000090: d7be 63bd 605e 1e3d 1e95 dc3c 515a 623e
000000a0: 16fe a3bb 5bcc 2cbd 2e39 cb3d 8a32 d03c
000000b0: 1455 a23d 0f26 22bc 0005 253d 345f d1bd
000000c0: 0c8e a63c acee 32bd 56bb d03d f8e6 ef3c
000000d0: 549e c5bc 7c6e fbbc f973 023c e5b6 69bd
000000e0: 0896 acbd 7664 fb3c db6f 26bc 5140 043d
000000f0: 4d80 07be 4d27 3ebc 71f9 5dbc 1b76 cb3d
00000100: 9873 8b3d 1a4c abbd 60fc 4cba 1bee ff3c
00000110: b026 0f3e a0ec bbbc 3f17 3bbc e0b1 823c
00000120: b361 8e3d 8c84 88bd fe19 c83a 6aad 27bd
00000130: 9df6 2b3e 489a c73d b960 a73e 1144 633d
00000140: dd6b 13bd f68c a03c b824 2c3e 1286 1bbd
00000150: 40c2 9ebc 1388 0bbd b702 c3bd 12b7 ec3d
00000160: 7247 1c3d 39b5 4b3d 8c46 d4bc f3e8 603d
00000170: f3b1 bb3d 73aa 34bd 472b 553d b208 633e
00000180: 8b9e 183e 2f4d 0b3d e716 043d 79d5 ba3d
00000190: 4ce5 9c3c f50b 2abd a332 eebd 9aa8 093e
000001a0: 514e 98bd ebdb 1d3c 8fc9 b43d 078f da3c
000001b0: 95a4 a53d 99a0 67bd 1158 1abd 0a42 03bb
000001c0: 3053 423d 983d 85bd 051e c53d 9d12 903d
000001d0: 51c4 903d 5ce3 8a3c 2b7d a33c a3db 6f3e
000001e0: b28e 1dbe 7329 d0bd 1aa9 59bb 7315 233c
000001f0: 5951 073c 3a40 a4bd 28f2 f93d 3c76 e2bd
00000200: 3fff ed3d db66 913d e895 013e db3d 6ebd
00000210: e2a5 9bbd c77f 433c 8019 73bd fae4 0abd
00000220: 85d1 64bd a36d 04bd d9a4 1a3e 0512 0b3e
00000230: d80e 8abd 674e a63c dbc3 e03c 5496 b63d
00000240: 479d aa3d 8f7c a03d a8d8 94bd 49c4 e43d
00000250: 68ad 85ba 2b83 c0bb fa06 00bd 4784 cbbc
00000260: 4306 d93d 7d58 f43c 5d10 f43d 65ba 513e
00000270: 388e 603d 7261 80bd 899f 7c3d c879 02be
00000280: bb32 17ba 29cf a83c 4653 ffbc c8a5 7a3b
00000290: df83 e13d c215 d53d baa9 6b3c e0d9 383e
000002a0: 64bb 3d3d 09ac f43d b916 f23b bc05 193e
000002b0: d14d 89bd 897f aebb 0c07 3abc 4372 31bd
000002c0: 047e 833b 85a5 2abd e993 00be 607d e5bc
000002d0: b57a adbd c249 f2bc fc97 96bd f234 8d3c
000002e0: 3b79 103e 81c8 7dbd ed14 933d e970 af3d
000002f0: e29a a43d f577 2c3e bc63 d93c 73d7 2b3d
00000300: a8d0 8cbd 471d 77bd 1678 243d 731c bc3d
00000310: e696 0c3d 251b c5bd f1be 08be 4c29 2cbc
00000320: 6a96 fa3a 0faf ad3d 3f33 633d 503e 11bd
00000330: 7adb 41bd da26 c23d 1a86 5abd fe5c 24be
00000340: 249e 963c 3c47 163e dcb6 18bd b20f 13be
00000350: 2e1e 8c3d 87bd c43d 3755 eb3c d7f6 b63d
00000360: fbe7 993e 157d 01bc b1df 1c3e f6cb af3d
00000370: 3171 aa3a 7156 d0bd 2a56 eb3d d0ac 273d
00000380: e7de 003e ed70 6d3e a7cb 86bd 92d6 05be
00000390: 573b 6d3e 366c fd3c 0c0e 0e3d a6a4 39bd
000003a0: d66e 6abd 5666 33bd c680 c03c 1f80 93bd
000003b0: 784d a2bc 9888 43bd 9f8f da3b f104 38bc
000003c0: 1c9a 583a db66 73bc a3cc 4ebd 7cd4 093e
000003d0: fdc6 bf3d f8b9 f73b 8fbc f03b 39c2 e33c
000003e0: 7b81 08be e72e 973d d458 adbd aade 07be
000003f0: 37eb 2bbe 448b 333d 473b 21bd 4a9f d23c

onnx::MatMul_26 f4 [256, 128]
-0.100327425 0.0874367 0.15877375 0.04492689 -0.02833735 0.057722103 -0.05779657 0.13883473
0.07187746 -0.013272354 0.16431741 0.06826015 0.18622479 -0.040829357 0.07697775 0.13360052
-0.11678178 -0.059370566 -0.044228237 0.19837977 -0.020030636 0.052289102 -0.01646742 0.14088716
0.022272002 0.013119411 0.1322499 0.1559342 0.050065752 -0.0019629148 -0.040725328 0.13487864
0.09468013 0.15622123 -0.012922309 -0.18774892 -0.03417801 0.06285572 0.0056652175 0.09016086
0.07520864 -0.00015439169 -0.06142904 -0.007660598 0.019736404 -0.0009189122 0.29550007 0.10765046
0.05579129 0.0664962 -0.10188754 -0.08030509 -0.033351757 0.062235724 -0.02226241 0.053778585
0.16060792 0.09679076 0.009762793 0.024915176 -0.051362645 -0.047925614 -0.17483585 0.026647108
-0.077218786 0.079540975 0.03186533 -0.03830433 0.04096013 0.04636479 -0.04941938 -0.045256194
-0.00936602 0.019219844 0.03375509 0.027117906 0.042782232 0.07514761 -0.07641801 0.030547244
-0.12887898 0.06700395 0.20556793 0.014113131 -0.021166999 2.1686184e-05 0.023789596 -0.089575216
0.02469281 -0.062383175 -0.013067147 0.07116132 -0.031954233 0.044453226 0.041374255 0.05424472
-0.082684904 0.015700717 0.009434779 0.003945608 -0.040705573 0.054857165 -0.026876321 0.08865835
0.003776417 -0.12942061 -0.13462879 -0.04684896 0.0459165 -0.037289213 0.272836 -0.010814627
-0.05853896 0.08293375 -0.06791313 0.049115524 0.034972116 0.082008585 0.05285688 0.13428926
0.0021614349 -0.04608496 0.025587533 -0.07853025 -0.0017966421 -0.033958737 0.079793245 0.11852586
-0.00019715466 0.0673369 -0.049283303 -0.048907086 -0.07787119 -0.044277582 -0.019386077 0.05715878
-0.05364912 0.08253976 -0.00035632198 -0.18331914 -0.19937988 -0.015526173 0.1389649 -0.0026306463
-0.05787865 0.027597317 0.059969183 -0.22097145 0.02028063 0.03982161 -0.1471815 -0.0028024374
-0.028261673 -0.01600997 0.004025836 -0.0668354 -0.052681718 0.16394185 -0.035910957 -0.3783353
0.15250362 0.05143752 -0.048782606 -0.091252916 0.05585262 0.11562317 -0.042851266 0.17183283
0.0075334148 -0.06308128 -0.123204 -0.08180031 0.017568873 -0.011968149 -0.072548084 -0.03604932
-0.08653982 0.0016391976 -0.08621982 0.012821047 -0.07674095 -0.08310854 -0.2021938 0.068718895
-0.12977494 0.032769226 0.049665656 -0.10418938 -0.048058312 -0.12641902 0.00570192 0.004783515
0.044172786 -0.032009635 0.035560623 -0.04063283 -0.14956892 -0.14207 -0.019380664 -0.10495887
-0.03490975 -0.014975923 -0.06057688 0.042136338 0.017301882 0.020333977 0.029224396 0.003669344
-0.020669924 -0.20222493 -0.061642244 0.048321307 0.018853301 0.023724927 0.10690188 -0.00353251
-0.109212786 0.011096878 -0.12683569 -0.06780748 0.022693612 0.0048570284 0.0094494885 0.018045302
0.034174405 0.040653866 0.03356244 -0.014349909 0.013343657 0.030253801 0.021879287 -0.042901445
-0.12917349 -0.107680894 -0.04201779 0.08997379 0.03374591 -0.015725736 -0.031852096 -0.019459631
0.04299955 -0.043776847 -0.15766479 0.06680931 0.05062546 0.084655024 -0.07359868 -0.029461877
0.019423002 -0.052393027 0.13669449 0.011249649 0.056253023 0.0380556 -0.20600247 -0.10598942
00000000: 7778 cdbd 0312 b33d 9695 223e 4205 383d
00000010: bb23 e8bc 036e 6c3d 19bc 6cbd b12a 0e3e
00000020: 7d34 933d 4a74 59bc d342 283e facb 8b3d
00000030: b6b1 3e3e af3c 27bd 83a6 9d3d 93ce 083e
00000040: 492b efbd 8d2e 73bd ab28 35bd 1124 4b3e
00000050: 4a17 a4bc 192d 563d afe6 86bc b944 103e
00000060: c673 b63c ccf2 563c 856c 073e 37ad 1f3e
00000070: bf11 4d3d 3fa4 00bb 9acf 26bd a01d 0a3e
00000080: a8e7 c13d 75f8 1f3e 18b8 53bc 4141 40be
00000090: 3efe 0bbd 80ba 803d 4aa3 b93b 42a6 b83d
000000a0: fd06 9a3d 34e4 21b9 049d 7bbd c105 fbbb
000000b0: 3dae a13c 27e3 70ba c94b 973e d877 dc3d
000000c0: 6885 643d 292f 883d 6aaa d0bd ff76 a4bd
000000d0: da9b 08bd e3ea 7e3d a85f b6bc ef46 5c3d
000000e0: 6776 243e 3c3a c63d 1ff4 1f3c e91a cc3c
000000f0: a361 52bd a64d 44bd 2b08 33be 094b da3c
00000100: e224 9ebd 61e6 a23d 3885 023d 00e5 1cbd
00000110: cfc5 273d 02e9 3d3d fa6b 4abd 8f5e 39bd
00000120: ef73 19bc ef72 9d3c c742 0a3d 5f26 de3c
00000130: 6c3c 2f3d fde6 993d 0c81 9cbd 373e fa3c
00000140: daf8 03be 5e39 893d 6680 523e c33a 673c
00000150: 6a66 adbc baea b537 66e2 c23c 3673 b7bd
00000160: 9348 ca3c 8085 7fbd 9617 56bc 07bd 913d
00000170: 71e2 02bd 9614 363d 0d78 293d b62f 5e3d
00000180: b456 a9bd ca9e 803c 5594 1a3c 294a 813b
00000190: e3ba 26bd e8b1 603d bb2b dcbc 8292 b53d
000001a0: c47d 773b d686 04be 21dc 09be b2e4 3fbd
000001b0: f112 3c3d 93bc 18bd 29b1 8b3e d52f 31bc
000001c0: 8cc6 6fbd 2bd9 a93d 0a16 8bbd 5c2d 493d
000001d0: ec3e 0f3d 1ef4 a73d 7580 583d 2083 093e
000001e0: dca6 0d3b 95c3 3cbd f29c d13c 78d4 a0bd
000001f0: 4e7d ebba 5118 0bbd a46a a33d b0bd f23d
00000200: 4dbb 4eb9 eee7 893d 4add 49bd cc52 48bd
00000210: ee7a 9fbd 695c 35bd 8dcf 9ebc 531f 6a3d
00000220: 2ebf 5bbd 9b0a a93d bad0 bab9 03b8 3bbe
00000230: 3d2a 4cbe 7d61 7ebc d14c 0e3e ec66 2cbb
00000240: 2a12 6dbd c513 e23c 3fa2 753d 5746 62be
00000250: 9023 a63c fc1b 233d bfb6 16be 19a9 37bb
00000260: 0685 e7bc 5727 83bc 29eb 833b 00e1 88bd
00000270: c9c8 57bd 5fe0 273e 5e17 13bd 2ab5 c1be
00000280: e929 1c3e 26b0 523d 45d0 47bd cfe2 babd
00000290: b8c5 643d d7cb ec3d cf84 2fbd f2f4 2f3e
000002a0: ddda f63b c230 81bd 6152 fcbd ec86 a7bd
000002b0: 99ec 8f3c 0e16 44bc 1794 94bd 74a8 13bd
000002c0: ca3b b1bd 58da d63a 0494 b0bd 5e0f 523c
000002d0: 5c2a 9dbd cf34 aabd e40b 4fbe 7ebc 8c3d
000002e0: b9e3 04be 0639 063d 376e 4b3d 3e61 d5bd
000002f0: cbd8 44bd fd73 01be 2cd7 ba3b 08bf 9c3b
00000300: 86ee 343d 891c 03bd 04a8 113d 9c6e 26bd
00000310: 9828 19be cc7a 11be 33c4 9ebc adf4 d6bd
00000320: 87fd 0ebd 935d 75bc 761f 78bd 2797 2c3d
00000330: adbc 8d3c 7193 a63c 0068 ef3c 6079 703b
00000340: f953 a9bc 0d14 4fbe 947c 7cbd 90ec 453d
00000350: 3d72 9a3c c75a c23c 5fef da3d af81 67bb
00000360: f4aa dfbd aecf 353c 37e1 01be a6de 8abd
00000370: f4e7 b93c b527 9f3b 07d2 1a3c bed3 933c
00000380: 76fa 0b3d ab84 263d c578 093d e11b 6bbc
00000390: 5b9f 5a3c d2d6 f73c 313c b33c 6db9 2fbd
000003a0: 0e46 04be cd87 dcbd d91a 2cbd 2e44 b83d
000003b0: 2739 0a3d 42d3 80bc 5877 02bd ce69 9fbc
000003c0: 4c20 303d 5a4f 33bd e172 21be 52d3 883d
000003d0: a45c 4f3d 9d5f ad3d e8ba 96bd 095a f1bc
000003e0: fd1c 9f3c 129a 56bd a4f9 0b3e 7350 383c
000003f0: 9269 663d 30e0 1b3d 50f2 52be fb10 d9bd

onnx::MatMul_27 f4 [128, 8]
0.023799786 -0.082878694 -0.015616535 -0.040943846 0.010758039 -0.009868847 0.027170787 -0.018854514
-0.014022023 -0.014819153 -0.027657246 -0.04832457 0.04422466 0.006324044 0.0034675018 0.06387085
-0.0061616763 0.023846693 -0.12852155 0.02814702 -0.034571514 0.05392181 0.1356798 0.039199688
-0.019369382 0.004279071 0.057826906 0.016166609 0.026731186 0.024218265 0.034406208 -0.0375736
-0.007604224 0.01603152 -0.033168495 -0.0061505847 0.03358094 0.019683043 -0.0011197858 -0.08743693
0.022737136 0.010880353 -0.027335223 -0.03399535 -0.16731974 -0.02106842 -0.04265793 -0.04303429
-0.027535932 -0.01884345 0.004458181 0.02694528 -0.0032711416 0.03932926 -0.044488803 -0.044305965
-0.051343482 0.020862782 0.049636576 -0.015952736 0.05163097 0.038551573 -0.000813526 -0.03593526
0.0593046 0.030323038 -0.0022599886 0.025105303 -0.04932269 -0.044961773 -0.0036550416 -0.032574534
0.11082259 -0.032935306 -0.009464174 0.0058981692 -0.063015066 -0.12950544 -0.013411761 2.7936387e-05
0.029005066 -0.07404067 0.06874221 0.02937796 0.06216409 0.037266023 -0.0009992855 -0.027579935
-0.18124959 -0.060084533 -0.031081425 -0.034542814 -0.13557233 0.03628386 0.12024189 -0.028458953
-0.12753354 0.052490883 -0.044837892 0.06903634 0.029216731 0.044598907 0.0071314313 0.0526982
0.010582301 0.030141713 0.038252108 0.024976214 0.06338939 0.002387973 -0.031251393 -0.00665436
-0.0019384263 0.02006257 -0.013552283 0.013879222 0.013531794 0.17280227 0.012596969 0.030346915
-0.022757117 -0.04273074 0.018293587 -0.011648505 -0.012103315 -0.012866041 -0.017706973 0.009927772
0.0123413345 0.03437858 0.005737807 0.04191576 0.018405866 0.03074174 -0.044338796 0.002066685
0.0038910855 0.029391654 -0.008053901 -0.037750725 -0.056191728 -0.043491628 0.07166638 0.016735924
0.02166249 0.022614695 -0.0228855 -0.035134055 0.025434284 0.014125134 0.0033733074 -0.017827237
-0.04258712 0.17506267 -0.008606395 -0.040759012 -0.10977069 -0.044750284 0.03977818 0.12385526
-0.05941767 0.0006016271 0.039192293 -0.037788272 -0.04056541 -0.034533087 -0.008431378 0.0032567554
0.039469205 0.006979113 -0.041051924 0.0048133302 0.011709885 0.0024462405 0.05339693 -0.020369144
0.017092064 -0.032198276 9.516145e-05 0.008089155 -0.054237902 0.03900147 0.024459157 0.006875101
-0.032112267 0.0708747 -0.00817123 -0.018822564 0.02234561 0.069498025 -0.0076619503 -0.040943086
-0.0011903172 0.09222049 -0.0073802955 -0.014790519 -0.027961193 -0.06460978 -0.021056756 0.032006636
-0.057565745 -0.022386383 -0.0061051534 -0.037424847 0.04291112 0.065420195 0.0050829276 0.052549113
-0.008098134 0.07980775 0.033394404 -0.012251977 -0.013245763 -0.030441402 0.036676858 0.0045335633
0.021954088 -0.01669992 0.06478407 0.048225313 0.06251264 0.018190295 -0.11512776 -0.0030191364
0.020980634 0.022911593 0.046761304 -0.0006000157 -0.019796235 0.0062309564 0.008216508 -0.09618902
0.07126955 0.029643035 0.038030285 -0.078845374 0.04579906 0.005967277 0.0021998764 0.013275835
-0.021008596 0.040866446 0.029763188 0.03389911 -0.01999059 -0.016146595 -0.08403556 -0.031304926
-0.07313642 -0.013252834 -0.07643231 0.07363158 -0.05323091 0.019432873 -0.014952363 -0.051223926
00000000: c5f7 c23c 4ebc a9bd 7fdc 7fbc bcb4 27bd
00000010: 7c42 303c f2b0 21bc 4595 de3c c874 9abc
00000020: a1bc 65bc 08cc 72bc 7391 e2bc fcef 45bd
00000030: eb24 353d ed39 cf3b 073f 633b b8ce 823d
00000040: e3e7 c9bb 245a c33c 279b 03be 9494 e63c
00000050: dc9a 0dbd 1edd 5c3d a5ef 0a3e da8f 203d
00000060: 8aac 9ebc 7337 8c3b e8db 6c3d d66f 843c
00000070: 5cfb da3c 6265 c63c 86ed 0c3d c6e6 19bd
00000080: db2c f9bb 8954 833c b0db 07bd d88a c9bb
00000090: 2b8c 093d 553e a13c c7c5 92ba 2212 b3bd
000000a0: 3b43 ba3c 8243 323c 1eee dfbc b53e 0bbd
000000b0: de55 2bbe ae97 acbc 15ba 2ebd b944 30bd
000000c0: 0993 e1bc 945d 9abc ef15 923b 59bc dc3c
000000d0: a660 56bb b817 213d e439 36bd 2c7a 35bd
000000e0: 8b4d 52bd 6de8 aa3c b94f 4b3d 50af 82bc
000000f0: ff7a 533d 41e8 1d3d ce42 55ba da30 13bd
00000100: 61e9 723d 0568 f83c 511c 14bb a3a9 cd3c
00000110: 9706 4abd d629 38bd 6c89 6fbb e06c 05bd
00000120: f4f6 e23d 2ce7 06bd 9f0f 1bbc 6e45 c13b
00000130: 0b0e 81bd 139d 04be 01bd 5bbc ef58 ea37
00000140: 089c ed3c a3a2 97bd b7c8 8c3d 0caa f03c
00000150: c69f 7e3d 42a4 183d 75fa 82ba 51ef e1bc
00000160: 7e99 39be 331b 76bd 799e febc c47c 0dbd
00000170: 79d3 0abe 639e 143d 6141 f63d c022 e9bc
00000180: 2798 02be ae00 573d f0a7 37bd ed62 8d3d
00000190: ed57 ef3c 58ad 363d c8ae e93b 11da 573d
000001a0: 6361 2d3c c1eb f63c 3eae 1c3d eb9a cc3c
000001b0: 4cd2 813d 8a7f 1c3b 7601 00bd d10c dabb
000001c0: cb12 feba 425a a43c 650a 5ebc ad65 633c
000001d0: 75b4 5d3c 14f3 303e 8463 4e3c 189a f83c
000001e0: 226d babc 6e06 2fbd 6fdc 953c 5fd9 3ebc
000001f0: fc4c 46bc 16cc 52bc 370e 91bc 18a8 223c
00000200: 4f33 4a3c 8ed0 0c3d 3704 bc3b dcaf 2b3d
00000210: e6c7 963c 1ad6 fb3c 999c 35bd 3871 073b
00000220: 9501 7f3b c4c6 f03c 82f4 03bc 81a0 1abd
00000230: 4c29 66bd 4724 32bd d3c5 923d c719 893c
00000240: 8975 b13c 7442 b93c 5f7a bbbc bae8 0fbd
00000250: 8f5b d03c 1b6d 673c b512 5d3b 6d0a 92bc
00000260: d56f 2ebd a143 333e d601 0dbc ecf2 26bd
00000270: 75cf e0bd 134c 37bd 72ee 223d d4a7 fd3d
00000280: f15f 73bd 83b6 1d3a 1988 203d e0c7 1abd
00000290: ea27 26bd 9172 0dbd c323 0abc 4a6f 553b
000002a0: 76aa 213d 0bb1 e43b 1026 28bd 24b9 9d3b
000002b0: d1da 3f3c 1b51 203b bdb6 5a3d 31dd a6bc
000002c0: a804 8c3c 57e2 03bd 6a91 c738 6088 043c
000002d0: 9028 5ebd 01c0 1f3d 925e c83c 8748 e13b
000002e0: 2788 03bd c126 913d 9fe0 05bc c731 9abc
000002f0: 240e b73c fb54 8e3d 1911 fbbb f0b3 27bd
00000300: 6b04 9cba 19de bc3d 68d6 f1bb ef53 72bc
00000310: df0e e5bc 2252 84bd 387f acbc 6419 033d
00000320: 0fca 6bbd a663 b7bc bd0d c8bb cc4a 19bd
00000330: 92c3 2f3d 06fb 853d b08e a63b bd3d 573d
00000340: 09ae 04bc 3f72 a33d 92c8 083d 84bc 48bc
00000350: c204 59bc 3f60 f9bc 793a 163d 498e 943b
00000360: 0fd9 b33c 45ce 88bc 83ad 843d e887 453d
00000370: a106 803d d003 953c 1ac8 ebbd b4dc 45bb
00000380: 94df ab3c 18b1 bb3c c888 3f3d 5f4a 1dba
00000390: b72b a2bc 0d2d cc3b 889e 063c c0fe c4bd
000003a0: c5f5 913d f3d5 f23c a5c5 1b3d af79 a1bd
000003b0: cc97 3b3d 2689 c33b cd2b 103b e382 593c
000003c0: 381a acbc 9363 273d eed1 f33c cbd9 0a3d
000003d0: 4ec3 a3bc dd45 84bc d61a acbd 9839 00bd
000003e0: 8cc8 95bd 6a22 59bc 8b88 9cbd 27cc 963d
000003f0: a808 5abd b031 9f3c c2fa 74bc 2ed0 51bd
