tron1-rl-deploy-python-main/controllers/model/SF_TRON1A_ARM_stand/policy/isaaclab/encoder.onnx (onnx, 527194 bytes, 6 tensors)

encoder.0.bias f4 [256]
00000000: 1699 31be 3b98 25bd 86ef 08be fb8b 2ebe
00000010: df54 2ebc acd0 3fbd 3d04 f6bc a8d7 8bbc
00000020: 7009 54bf 4ba8 cfba 1d6c ebbe 732a 15be
00000030: 0ce4 c23b 988c 72bd 2e9f 58bd c56a 19be
00000040: f8e9 cab9 65d7 a4bd 2aa1 c4bb b8ac 933d
00000050: 4d6f acbd 9e82 13be ba60 59bd 564f abbd
00000060: f60e 583c f1c6 fc3b c271 373d f500 7d3c
00000070: 9f6d c53b bb49 b93d e25b 9cbd 4176 ac3b
00000080: 5df5 4cbd 0fac c03c 92f1 52be 7a8f c73d
00000090: c0e6 a13d 8891 dcbc f1b6 2cbc 9488 56be
000000a0: c966 56bd c582 89bd e6d2 133e e3ba 7f3c
000000b0: e23b e7bd e10c 9ebf ec18 3fbe 985f 5ebd
000000c0: 63c7 8dbd 104f 04bf 48aa 41bc e8ae d8be
000000d0: 79ca 503e 7d69 14bd 23fc 0cbd fe59 72bd
000000e0: be02 42bd fb39 0f3d 63cf dabe ba09 09bf
000000f0: 3b03 58bd 439d 84bf 1661 7bbd 4d37 dcbc
00000100: 0d77 b7be 30f8 19be 5eb6 a93c 4d88 c7bd
00000110: d3ce 48bd afae 60be 3d70 80be 66b7 b3be
00000120: 9c47 8ebd f555 82be cfe5 03be 5e80 b03c
00000130: 3da6 cbbd 02bb dbbc d190 f03c 66c8 40be
00000140: 1a70 0dbe 0106 9abb 334d 92be 7b56 3f3d
00000150: 1675 f63c bca8 66bd 2698 b9bd 5662 403d
00000160: e385 80bc ab3d 04be a405 443d fe22 23be
00000170: f54a bfbb eac3 1abe 541c 3cbd 7d3a 75bd
00000180: b9f5 8abd 928d 04bf 3cca 6dbd 97c2 a43d
00000190: 2a72 7abd 99e5 463c 8253 0fbd b7e9 b73d
000001a0: 3572 593d 7f6f a9be 2234 0abd cb5f 993c
000001b0: a439 49bf 984e cebc 41c4 4cbd 4da0 f0be
000001c0: b756 9dbd 3210 2abf a57f b8bc 7ea5 afbd
000001d0: a96a 84bd e558 9b3b 9835 10be 6f1c 71bc
000001e0: d6d9 dabc d6b0 20be cca9 14bf 16c1 583d
000001f0: 8e80 f8bc 7e4e cbba c1b0 833d 5bc6 f1bd
00000200: a207 59bd 82db 23be 7837 b4bd 1a4e 6cbd
00000210: 727d a7be 6421 71bd 66a6 51bd e332 53bd
00000220: 84df 47bd e23e 08bd af81 8fbd 3c7b 26bc
00000230: 072f 88bd 92ca 253d 3210 3fbd ecfc 52bf
00000240: 44d4 c2bd 775e 16be 5f70 94be b00d dabd
00000250: 76a0 f3bd 241e 6abd f5d8 ddbd da95 55bc
00000260: 5054 7e3b 61f1 b03b cbbf 99bc bc1a ebbc
00000270: c73e 1ebf 59e4 7b3d de3b 7d3c 93ee 5bbe
00000280: 5515 b9bd 9dcf ebbd 009e 3e3d 3b79 4abc
00000290: 405f 16be f53b 61bd cf3d 82bd a534 823c
000002a0: 29f5 40bd 233b d6be fd98 6abd 13f9 0cbe
000002b0: 5fc7 c4bd 0dc3 2abd f398 31bd 378a 0abe
000002c0: 9758 34be fdeb 2ebd 8cd7 37bc 666e 9abc
000002d0: 92a3 26bf c8c8 adbd 7194 f7bd 1fff b4bd
000002e0: da4f 09bf 451e 853d dbbe 16bd 7a93 f63c
000002f0: 9f84 c5bc 8a49 55bc c6b1 4fbd b60d 32bf
00000300: 8792 abbd 4ed0 62bc 7a6c 75bd 74bf ddbd
00000310: 11a6 03be d50c 1dbe e394 47be 6b3b eebd
00000320: fb40 14bd 23bb 6abe 8dc4 54be 3695 a9be
00000330: 2545 03be 615d 2dbe 8cd2 bbbd 0703 39be
00000340: 687e b3bd bcfa c83d 6de0 44bc 9e5b 76bd
00000350: 7f97 213b 6ea7 26bf 8987 05bf 6c97 0bbe
00000360: ce0b 06be fcc4 053d 1f23 2bbe 9fbe 923d
00000370: 6910 55bd f109 2c3d 7df9 16bc 2ce6 34bd
00000380: 1aa4 f63d cb45 17bd 70c8 47bd f490 12be
00000390: 80dc 88bf 8661 5ebd a643 333d 3cc9 cdbd
000003a0: b6ca 033c 5148 03be ea21 e43c d972 24bd
000003b0: 09cd 81be 69c3 e3bd 4ea6 f33d 2f61 8ebc
000003c0: a6f0 be3c e585 0bbd a733 b2bd e04c f5be
000003d0: 4f95 8bbd 67ed cdbd e002 6bbd 141b a1bd
000003e0: 40a5 e4bd 5656 20be e52b d9bc 1b91 60bd
000003f0: ce99 85bd 8f12 cebd 436d e8bd e580 70bd
-0.17343554 -0.04042838 -0.13372621 -0.17045586 -0.010640352 -0.046829864 -0.030031318 -0.017070606
-0.828269 -0.0015843002 -0.4598092 -0.14566974 0.0059475955 -0.059216112 -0.05288618 -0.14982136
-0.00038702763 -0.08048896 -0.0060006576 0.07210678 -0.084196664 -0.14405295 -0.05307076 -0.083647415
0.013187161 0.0077141454 0.044786222 0.015442123 0.0060250307 0.09047266 -0.07634713 0.0052631204
-0.050038684 0.023519544 -0.20599964 0.09744163 0.0790534 -0.026924863 -0.0105416635 -0.20950538
-0.052344117 -0.067143954 0.1443592 0.015608522 -0.112907186 -1.234768 -0.1866185 -0.054290384
-0.069227956 -0.5168314 -0.011820383 -0.42320943 0.20389737 -0.036233414 -0.034420144 -0.059167854
-0.047365896 0.034967404 -0.42736349 -0.53530467 -0.052737456 -1.0360492 -0.061371885 -0.026881838
-0.35833016 -0.15036082 0.020716842 -0.09742794 -0.049025368 -0.21941637 -0.2508563 -0.3510086
-0.06947252 -0.25456205 -0.12880634 0.021545585 -0.09943817 -0.02682257 0.029365929 -0.18826446
-0.13812295 -0.0047004228 -0.28574523 0.046713334 0.030085128 -0.05631326 -0.09062223 0.04696878
-0.015688842 -0.1291415 0.04785694 -0.15931317 -0.005837793 -0.15113798 -0.045925453 -0.059870232
-0.06785149 -0.5177852 -0.058054194 0.080449276 -0.06114403 0.012139701 -0.03499175 0.089801244
0.053087432 -0.33092877 -0.033741124 0.018722435 -0.7860358 -0.02518396 -0.04999185 -0.469973
-0.07682555 -0.6643096 -0.022521803 -0.08576487 -0.06465656 0.0047408217 -0.14082944 -0.014716252
-0.0267152 -0.15692458 -0.5807159 0.052918516 -0.030334737 -0.0015511063 0.064301975 -0.118054114
-0.052985795 -0.16001704 -0.08799642 -0.05769167 -0.32712895 -0.058869734 -0.05118408 -0.0515622
-0.048797145 -0.033263095 -0.07007157 -0.010161217 -0.06649595 0.04047639 -0.046646304 -0.8241718
-0.09513143 -0.14684473 -0.28991982 -0.10647142 -0.1189584 -0.05715765 -0.10832397 -0.013036216
0.0038807578 0.0053998684 -0.018768212 -0.028699271 -0.6181454 0.061497066 0.015456168 -0.21477728
-0.09037272 -0.115142085 0.0465374 -0.012358005 -0.14684772 -0.05498882 -0.06359445 0.015894243
-0.047108803 -0.41841993 -0.057274807 -0.1376689 -0.096083395 -0.04168992 -0.043358754 -0.13529287
-0.1761192 -0.042705525 -0.011220824 -0.01885147 -0.6509334 -0.084855616 -0.1208886 -0.08837723
-0.5363747 0.06499914 -0.036803108 0.03009962 -0.02411109 -0.013018021 -0.050706647 -0.6955217
-0.08377557 -0.013843609 -0.059917904 -0.108275324 -0.12856318 -0.15336926 -0.1949039 -0.11632427
-0.036194783 -0.2292295 -0.20778103 -0.3312165 -0.12819345 -0.16930152 -0.09171018 -0.18067561
-0.087643445 0.09813449 -0.012016398 -0.060145967 0.002465695 -0.6509923 -0.52159935 -0.13631982
-0.1309044 0.032658562 -0.16712616 0.07165264 -0.052017603 0.04200167 -0.009214756 -0.04416482
0.12043019 -0.036931794 -0.048775136 -0.14313108 -1.0692291 -0.054292224 0.043765686 -0.10048148
0.0080439355 -0.12820555 0.027848203 -0.04014859 -0.25351742 -0.11121256 0.118969545 -0.017380325
0.02330811 -0.03406324 -0.08701258 -0.47910213 -0.06815588 -0.100550465 -0.05737579 -0.07866493
-0.111643314 -0.15657935 -0.026510188 -0.054825883 -0.065234765 -0.100621335 -0.11348965 -0.058716673

encoder.2.bias f4 [128]
00000000: e6d2 a8be 4ed5 0e39 fed2 58be 627d 9fbf
00000010: c9b4 f3be 60da dbbe 17fa c1bd 1752 9abd
00000020: 7ad0 8abe a282 14bf 5ab7 df3b 3703 2f3c
00000030: 7ff2 bfbe d109 1fbd 24ab 1abe 751a 2cbe
00000040: 7b34 94bd f6c5 90bd 8eb3 27bf cae0 4fbd
00000050: d845 26be be65 2bbe 574a b9be 9d18 babf
00000060: a72c 5bbd c81a d6be e221 3cbd 32be 8ebe
00000070: 0836 11be 71ea d3bc f71e fa3c 3b42 07bd
00000080: cac7 19be 8df8 efbf c6ce 87be 98cd c2bc
00000090: 328f 413c 0aec 1fbe bda3 05bf adf6 e2bd
000000a0: a1f7 4fbd f631 69be 57c4 04be 6901 063d
000000b0: 70c1 d1bd 6c5b 3cbe ce5e f8bd bed3 97bd
000000c0: b847 52bd b470 ecbe 89aa 2dbc 05b8 89be
000000d0: 999e bcba 356f efbd 7a6c a33c ef2f fabd
000000e0: bd35 80be 31d2 f9bd daa8 4fbb dc68 1dbe
000000f0: fbe3 51be c9a2 17be e4ef 13bb 7fd1 8fbc
00000100: 9044 e1bd 148b 1dbd ea81 5dbd ca96 53bd
00000110: c57c 6cbc 59f6 833d 1767 693c c819 6f3c
00000120: 1254 3fbd 7ccb 6bbe 34ad eebd e550 bbbd
00000130: f795 0cbd c2fb 9bbc 2417 b13b 2d3e 83be
00000140: f5c7 fd3c c633 a6be 8de1 27be 1822 b0bd
00000150: 9480 83be 80e9 afbd 575c 12bf bc2b 89bd
00000160: b458 e9bd ac84 68bf 2f0a c8bc f746 093d
00000170: 552d 32bd 1329 febd 9ee7 0dbe f815 c3be
00000180: 7fd8 dbbc 2c06 84bd efa5 d9bc 8362 09bd
00000190: b82d cf3d 4ceb a6bd 0d2a 92bd f1ad 55bd
000001a0: 0298 37be c8af 60bc d2a4 65bd e348 93bd
000001b0: f3f4 53c0 b713 283d 467d 2bbf 6d9e 0dbd
000001c0: 87c7 d8bf 2e6d 01bf 8c2f 4bbf 0c69 b13b
000001d0: 8f4d c8be f5a3 763d f447 55bd 244e 8cbf
000001e0: ceb3 afbd d457 b6bf 4476 33bc b9f2 02be
000001f0: b79d b1be e3ef b1bd 5ccc 5bbd 178a 3c3d
-0.32973403 0.00013621637 -0.21174237 -1.2460139 -0.47598866 -0.42940044 -0.09471529 -0.07535189
-0.2711218 -0.5801183 0.006827277 0.010681919 -0.37489697 -0.03882772 -0.15104347 -0.16806968
-0.07236572 -0.07069008 -0.65508354 -0.050751485 -0.16237581 -0.1673803 -0.3618953 -1.4538761
-0.05350938 -0.41817307 -0.04593075 -0.27879483 -0.14180768 -0.025868626 0.030532343 -0.033022147
-0.1501762 -1.8747727 -0.26524943 -0.023779675 0.011813926 -0.15617386 -0.5220297 -0.11082206
-0.050773267 -0.22772965 -0.12965523 0.03271619 -0.102419734 -0.1839425 -0.121274576 -0.074134335
-0.051337928 -0.46179736 -0.010599741 -0.26898208 -0.0014390528 -0.11691133 0.019949187 -0.12216174
-0.25041 -0.12198294 -0.0031686337 -0.15372032 -0.20497124 -0.14808191 -0.0022573406 -0.01755595
-0.109994054 -0.038462713 -0.054078974 -0.051657476 -0.014434044 0.064434715 0.01424577 0.014593549
-0.046711035 -0.23026842 -0.116541296 -0.09146289 -0.034322705 -0.019040946 0.00540437 -0.25633374
0.030979136 -0.32461375 -0.16394635 -0.08600253 -0.25684035 -0.085894585 -0.5717215 -0.06697795
-0.11393872 -0.9082744 -0.024418918 0.033514943 -0.043500263 -0.12410178 -0.13857886 -0.38102698
-0.026836632 -0.0644649 -0.026568381 -0.033541214 0.10116142 -0.08150348 -0.07136927 -0.052167837
-0.1792908 -0.0137137845 -0.056065388 -0.071916364 -3.3118255 0.041034427 -0.6698803 -0.034574915
-1.6935891 -0.5055722 -0.79369426 0.005414134 -0.39121673 0.060214955 -0.052070573 -1.0961347
-0.08579217 -1.4245553 -0.01095349 -0.12787904 -0.3469064 -0.08688333 -0.05366169 0.04603013

encoder.4.bias f4 [3]
00000000: 8358 62bd f233 7dbd 011b 583d
-0.055260193 -0.061817117 0.052760128

onnx::MatMul_18 f4 [360, 256]
00000000: adc9 5ebe a41c e1bc eb2d aabd 53bb 9f3d
00000010: 04f5 f0be 71fd 0b3f 6cec 3fbe e954 94be
00000020: 72c2 f4be 2099 e9bd 4016 8240 0a86 d9bd
00000030: 6f4d aebe ae8d 9ebd 9b54 85be f4e4 923d
00000040: 6b8d 453e a89e 7dbe 7929 05c0 ea91 c9be
00000050: c67f 07be f66b a4be ca81 87bd bbe7 35be
00000060: d6a1 293e 6558 76bd aed7 ef3d 9348 be3e
00000070: 0327 abbe bc55 c7be 998a 67be 3ed6 15bf
00000080: 53d1 4bbe 843b dc3e f715 223e eb86 e13d
00000090: 6cb9 e53e 581d 33c0 654b 58be 65b7 abbd
000000a0: 6f23 cbbe 78e2 fabe a9bd 203e 3926 b03e
000000b0: 32f2 393e 3bf5 e2be e621 2c3f 25ce dc3d
000000c0: 1607 b4bf bb97 633f d183 3fbf 08bc 00be
000000d0: f40d c93d b64d b23e 4c21 2bbe 1fae 42bd
000000e0: 1baa 23be 82ba 4cbd 47a7 e5bd 38c4 b53e
000000f0: 2668 6c3e 1a8e 213e 3ce1 6f3d b506 30bd
00000100: 797a 003e 62d4 9cbf 2282 61bf ee3f 673c
00000110: 6c7f fc3d 3374 493e 593a 8c3e 5462 5e3f
00000120: 6093 fe3f aed7 7ebe 173c a8be ec39 52be
00000130: 7c57 ee3d ecf6 863d b000 463e e1ad e6be
00000140: 95de 0ebe c923 aabe bc95 a3bd 8258 03be
00000150: 7bf1 3a3d 9c95 313d f371 503d 79c9 143f
00000160: 5deb 943d 8da4 fa3e 7844 5abd 24e5 ad3c
00000170: da72 223e 2dd2 fcbd a063 cc3e 3b54 c93e
00000180: b2b7 3b3d 671a 4f3f cd9a b540 7c4a 99be
00000190: d0a6 e8bc 90ac cbbd 55fe 9f3e d7b9 6a3d
000001a0: a2de 2f3d 2ff3 393f 7847 87bf 1c7c 91be
000001b0: 4443 d1be 1079 8ebf ff8c 9f3e fdc4 933d
000001c0: 0817 51bd e30a 4b3d af01 03bf 092e 293d
000001d0: 9984 debd ecc3 b93e 7273 9f3e b9c0 383f
000001e0: 7746 0ebf a237 55be cc78 993d 0f29 e83d
000001f0: a855 8dbb b620 d33d f63b 613f efb9 fa3e
00000200: e93c 68be 5fd9 743d e6d7 a43e 4f2b ff3d
00000210: 8b2f cd3f 0bcd 43be b818 033e f8d4 82be
00000220: 44cd 65be 2a10 9c3f 457d 333e 07a3 1ebf
00000230: f8eb 6a3f 1b26 9c3e 805d 363e f11e 39bf
00000240: 3a48 02be c63b a8bd efc7 533f fcdd a0be
00000250: 3d1b f2bd 592f 53be d3e9 8ac0 2089 e7bd
00000260: 4f84 29be ce91 683d 690b 9dbd 8eeb 093f
00000270: 4b3c 353f 7add ba3e c413 acbe 0fa5 e13b
00000280: 91c9 15bf f7c9 48bd 5d11 723f 3706 3e3f
00000290: 2915 fe3e 3734 413e 8d9d 143f c297 113f
000002a0: 5fd2 113e 3088 403e 05b2 75bd a5e3 8e3d
000002b0: 73d4 0b3c 158c 5a3e fade 303e 7590 4fba
000002c0: 41a5 1dbf 5fa9 05b9 7ab8 a0bd 30ed 533e
000002d0: aff5 5dbf ace1 8a3b 3549 d7bd 97b4 963e
000002e0: c258 7f3c 6c9a bbbe 76fa 3a3d 54f8 77be
000002f0: f6b4 2e3d 7801 0cbe 205f 2740 e572 c2bf
00000300: ccb6 b7bf dd14 773e 2463 1ebf ea9f cf3d
00000310: 1ddb 10bf 9ea7 cf3e ac05 f3be 0278 f13e
00000320: e34b 083e 146f ad3d ed3f ef3e ae00 38be
00000330: 7f8e 8e3e ffbb 4bbe c22b 3cbe b66e fe3f
00000340: c975 803e 565d 423d cef9 453d fb81 b13e
00000350: 3806 e1be d8f5 6dbf 8637 ef3f 1094 fbbc
00000360: 3a8c 833e 2809 40bd 85e6 9f3e 1aff 28bf
00000370: cc59 45bf 68c5 543e 1be1 0b3f 7b28 c03d
00000380: 8557 3fbe 8089 d9bd 3af1 8d3b 265d c9bd
00000390: 6349 053f 413d 97be b0ce 0e3f 9969 8f3d
000003a0: 5c02 a0bf 2dbb 953e aec6 a6be 4a64 b83c
000003b0: 5573 ad3e 5bb1 d23e 462f a93e 5488 e1be
000003c0: 1a5a 183f 6428 423f 7934 27bd 2b12 64c0
000003d0: 63ac 12c0 3f2e 823e f2f2 70bf ca6d 013d
000003e0: 6e95 38bf 71ae 91bf fc70 873e 1f8d cc3e
000003f0: ea10 4abf 98df 6e3d 9d25 62be fa49 033f
-0.2175662 -0.027479477 -0.083095394 0.07799401 -0.47061932 0.54683596 -0.18742532 -0.2897103
-0.478046 -0.114061594 4.065216 -0.10621269 -0.34043452 -0.07741867 -0.2604111 0.071725756
0.19292228 -0.24767554 -2.0806563 -0.39369136 -0.13232335 -0.32113618 -0.06616552 -0.1776418
0.16565642 -0.060142893 0.117110595 0.37164745 -0.334282 -0.38932598 -0.22611465 -0.5853003
-0.1990407 0.43014157 0.15828691 0.11012062 0.44868028 -2.798666 -0.2112251 -0.08384589
-0.3967547 -0.49000907 0.1569735 0.34404162 0.18158796 -0.4432772 0.67239225 0.107815064
-1.4064662 0.889034 -0.7481051 -0.12571728 0.098171145 0.34824914 -0.1671192 -0.047529336
-0.15982859 -0.049982555 -0.11213546 0.35501266 0.23086604 0.15776864 0.05856441 -0.042975146
0.1254672 -1.2252314 -0.8808919 0.014114363 0.12328991 0.19673233 0.27388266 0.86868787
1.9888725 -0.24886963 -0.32858345 -0.20529908 0.1163778 0.06590065 0.193362 -0.45054534
-0.13952096 -0.33230427 -0.07987544 -0.12826732 0.04564045 0.04335557 0.05088992 0.5811992
0.072714545 0.48953667 -0.053287953 0.021227427 0.15864125 -0.12344775 0.39919758 0.39322075
0.045829482 0.8089966 5.6751466 -0.2993964 -0.028399855 -0.09945023 0.31248727 0.057306137
0.04293693 0.72636694 -1.0568686 -0.28415 -0.40871632 -1.1130695 0.3116226 0.07215307
-0.051047355 0.04957093 -0.51174444 0.04130367 -0.10865135 0.3628229 0.31142765 0.7216907
-0.5557627 -0.20822003 0.07493743 0.11335956 -0.0043131895 0.103089735 0.8798212 0.4896998
-0.22679485 0.059777614 0.32195967 0.12459432 1.6030134 -0.19121186 0.12802398 -0.25553107
-0.22441584 1.2192433 0.17528255 -0.6196751 0.9176631 0.30497822 0.17809105 -0.7231284
-0.12722865 -0.08214526 0.8272695 -0.3141936 -0.118216015 -0.2062353 -4.341043 -0.113054514
-0.16554378 0.056779675 -0.07668192 0.5387505 0.70795125 0.36497098 -0.3360883 0.0068861316
-0.5851069 -0.049020734 0.94557744 0.74228233 0.4962552 0.18867575 0.58052903 0.5687219
0.14240406 0.18801951 -0.059984226 0.069770135 0.008534539 0.213425 0.17272559 -0.0007917949
-0.6158028 -0.00012746964 -0.07847686 0.20695949 -0.8670301 0.004238328 -0.1051201 0.29434654
0.015585126 -0.36641252 0.045649014 -0.24215823 0.042653047 -0.13672435 2.615181 -1.5191313
-1.435266 0.24129052 -0.61870027 0.10137923 -0.5658434 0.4055757 -0.47465265 0.4716187
0.13310198 0.08468452 0.4672846 -0.1796901 0.2784309 -0.19895934 -0.18376067 1.9877536
0.25089863 0.047452293 0.048333935 0.3466948 -0.43950057 -0.9295325 1.868882 -0.03071025
0.25692922 -0.046883732 0.3123056 -0.66014254 -0.77090144 0.2077843 0.5464036 0.09382721
-0.1868573 -0.10621929 0.004331735 -0.0983222 0.52065104 -0.2953892 0.5578413 0.07002563
-1.250072 0.29244366 -0.32573456 0.022508759 0.33877054 0.41150936 0.3304388 -0.44049323
0.59512484 0.7584288 -0.040821526 -3.563609 -2.2917717 0.25425908 -0.94120705 0.031598844
-0.7210301 -1.138136 0.26453388 0.39951417 -0.7893206 0.058318704 -0.22084661 0.51284754

onnx::MatMul_19 f4 [256, 128]
00000000: f998 313d ec58 8bbd a3c9 ea3d 8087 27bf
00000010: a74c 8bbe b770 f4be 9a3d 943d d167 f53b
00000020: c6c0 593f 9c1c dfbd 2d5e 17bc 87bc 583d
00000030: dd0d 76bd f64c 86bd 7b89 4bbb 975a 70bd
00000040: b192 13be 7d16 78be 22e0 27c0 725c 133e
00000050: 5cd2 85bc 2f3d d23e 3262 e03e 600c 0abd
00000060: 69c9 92bd 6af0 823f a8a7 9e3c 5c60 ce3e
00000070: c052 26be 72d4 993d 4f65 37bd afb3 4f3c
00000080: b01c 563e d587 8a3e c0ae afbe 4689 c7bd
00000090: a92b 4b3d a36a 6cbd e16c 573e e07d e5bf
000000a0: 428d 3bbe 03ca 783d 4a44 5c3e eab3 0c3d
000000b0: 0298 28be c7ea d1be 5ff3 73be cb5d 0d3d
000000c0: b5b5 cc3c 86d1 77be 6326 b7bd 117f 653f
000000d0: a00b 173d 9214 493d 0fb0 29be 1efa 1a3e
000000e0: 58d6 45bd b2fa 26be 4efd e33c a630 303d
000000f0: 5576 ed3d df54 cfbd ea47 a1bd 8d2d da3c
00000100: 0439 243e 0273 843d 33e3 993d e716 edbc
00000110: bcbf 21bd 4afa c33c 8821 e33d e4ea 2d3c
00000120: 85b9 843c c220 26bd b543 12bd d2ac c43d
00000130: ecdf e8be 7fa8 de3e 1419 7dbd 8cae 5d3d
00000140: 85f6 273c dd99 753e f04a d7be e477 bdbd
00000150: 9bd3 b5bd 7a4b 07bd 2989 01be f634 47bc
00000160: e172 013d 82d7 513f 3822 7cbd b176 a63e
00000170: e6b3 9b3c 2865 133e 157d 1fbe 3884 62be
00000180: 5b42 65be f4c0 363e 9015 e63e 5684 0d3f
00000190: 0685 a0bc cb4f 4dbd 1d57 e9bd 5bf9 ffbd
000001a0: 6ff0 2abe cf64 a0bd 2366 de3c 1bec 873e
000001b0: e09c 5a3e 77af 2cbf b3fa c43e 84ae d43d
000001c0: 56ef 09bf 85b8 be3c c594 4cbe 4885 aebc
000001d0: 7c59 0cbd 1d25 ac3d 3230 113e a470 183f
000001e0: f5b2 d1bd a05d 4e3f 3634 483d 58ff 84bc
000001f0: 8ba4 623e 1bdf 1cbe aaa8 6f3c ba08 c1bd
00000200: c49f 5b3c c439 373e df44 8ebe b91d e13f
00000210: 5394 0b3f 5eee cf3f dd0f 93bd c308 60be
00000220: b69b cdbf 482f cc3d e64c 46bd 965b 95bd
00000230: 2cc0 2c3f 127d 07be 1d47 743d 359f 28bc
00000240: c748 38be 9ada 093f d519 1c40 6474 bb3e
00000250: 8fbb a53f 3ecb d73e a0e5 cfbf fc79 6f3e
00000260: c3d5 06bd fa15 71c0 cbfa 7fbd 8df2 86bf
00000270: 2cb8 823e d8ed d5bc 0cce c9bd 787d 0fbd
00000280: 9316 86be d689 08bf 3594 4dbf 9c8c 7e3e
00000290: 7e95 ed3c 88da 43bf b07d 273f 5b25 213f
000002a0: 895f f03d e04c 993f 1c95 4a3c 51fe c03c
000002b0: b119 1fbf 2622 a13d a35d 103e 95d7 b2bd
000002c0: 9116 71be b9bf e13e d4a7 c83e 077f fcbf
000002d0: 4ae9 9e3e cfad 69bc 113c 2fbd fe9b 21bc
000002e0: 40d0 313e 84e4 0ebf 957d 72be 2335 a1bf
000002f0: ac7e 273e 7ba8 853e 1d4d 043e 097e bf3d
00000300: d03a 30be 6706 42bc 8599 22be 2ac7 ab3e
00000310: ff5a 2f3d 0294 e1bc ad8e c03c 6388 58bd
00000320: 7dc4 2b3d 33c7 283f 16b5 e33e 7738 25bf
00000330: 93e1 363f b94b bfbc 6ce8 4f3d d1ee 4c3f
00000340: 2d99 a03d e22d 0140 8e4d a53e 9c52 85bc
00000350: c019 a93e f574 a8bc c683 2d3e e0d2 a6be
00000360: 62db 2cbe 99b5 71bf 886a cf3e 40a5 49be
00000370: 2c45 41be 0f0a 0f3d 1804 b93e b0e5 99bf
00000380: 4bf6 8abe c27a 203c 6047 82bf 3e5a 98bf
00000390: 0ba1 383d f034 303e 467c 31bd 1acd 83bc
000003a0: 56da 21bd 7943 9abe 7e38 533c 2dd2 b6bd
000003b0: a500 083d 73ea 153f 24e4 b43d 325d bdbe
000003c0: 5f19 2f3e 308a 223e 72b4 18bf 1386 6a3d
000003d0: 4520 d13d 7d34 56bd c273 203d c714 c13c
000003e0: 52d6 e4bd a5ce 8fbe 3d5c 84be 3e4f 3c3e
000003f0: d62a 223f 65ad 943e 795b 48be ef88 3fbd
0.043358777 -0.0680407 0.114642404 -0.6544113 -0.2720692 -0.47742245 0.07238312 0.0074891825
0.85059774 -0.10894129 -0.009238762 0.05291417 -0.060071815 -0.06557648 -0.0031057287 -0.058680143
-0.14411427 -0.24227329 -2.623055 0.14390734 -0.016335659 0.41062304 0.43824917 -0.033703208
-0.07167322 1.0229619 0.019367054 0.4030789 -0.16242504 0.07511224 -0.04477435 0.012677117
0.20909381 0.27056757 -0.3431301 -0.0974298 0.049602184 -0.057718884 0.21037628 -1.7929039
-0.18315604 0.06073953 0.21510425 0.034351267 -0.16464236 -0.40999433 -0.23823307 0.034513276
0.024988988 -0.2420102 -0.089428686 0.8964701 0.03687632 0.049091883 -0.16571067 0.15134475
-0.048300117 -0.1630657 0.027830746 0.043015145 0.11594836 -0.1012361 -0.07875045 0.026633048
0.16037375 0.064672485 0.07514038 -0.028941585 -0.039489493 0.023923058 0.1109038 0.010615084
0.016201744 -0.040558584 -0.0357091 0.09603275 -0.4548334 0.43487927 -0.061791494 0.05412154
0.010251646 0.23984475 -0.4204936 -0.09251383 -0.08878251 -0.033030964 -0.12649979 -0.012158623
0.031603698 0.81969464 -0.06155607 0.3251243 0.01900668 0.14394057 -0.15575059 -0.2212075
-0.22388594 0.17847043 0.44938326 0.55280054 -0.01959468 -0.050124925 -0.11393569 -0.12498733
-0.1669328 -0.07831728 0.027148312 0.26547322 0.21348906 -0.6745524 0.38472518 0.10384849
-0.5388082 0.023281345 -0.19978626 -0.021303788 -0.034265026 0.08405516 0.14178541 0.59546876
-0.102392115 0.8061161 0.048877917 -0.016235039 0.2213308 -0.15319483 0.014627615 -0.094254926
0.01340479 0.1789313 -0.2778692 1.7587196 0.545232 1.6244619 -0.0718076 -0.21878342
-1.6063144 0.09969956 -0.04841318 -0.07292859 0.6748073 -0.13231304 0.05963813 -0.010291864
-0.17996512 0.53849185 2.4390767 0.36612236 1.2947863 0.4214725 -1.6241951 0.23386377
-0.032918703 -3.7669663 -0.062495034 -1.0542771 0.25531137 -0.02611439 -0.098537534 -0.035031766
-0.26189098 -0.5333532 -0.8030427 0.24858326 0.029001947 -0.7650533 0.6542616 0.62947625
0.11736972 1.1976585 0.012364652 0.023558768 -0.62148577 0.078678414 0.1409822 -0.08732525
-0.23543765 0.44091585 0.39190543 -1.9726266 0.3103736 -0.014262631 -0.042781893 -0.009863852
0.17364597 -0.5581744 -0.23680718 -1.2594341 0.16356915 0.26105103 0.12920041 0.09350211
-0.17209935 -0.011842347 -0.15878876 0.33550388 0.04281139 -0.027536396 0.023505533 -0.052864444
0.041935433 0.65928954 0.44474095 -0.64539284 0.7143795 -0.023351537 0.050758764 0.80051905
0.07841716 2.0184255 0.32285732 -0.016274743 0.33027458 -0.020563582 0.16944799 -0.3258276
-0.16880563 -0.9441772 0.40510964 -0.19691944 -0.18874043 0.034921702 0.36135936 -1.202322
-0.27141032 0.009794893 -1.0178032 -1.190254 0.045075458 0.17207694 -0.043331407 -0.016089011
-0.039514862 -0.30129603 0.012891887 -0.089268066 0.03320374 0.58560866 0.08832577 -0.36985165
0.17099522 0.15873027 -0.5965034 0.05725677 0.10211233 -0.05229615 0.039172895 0.023569478
-0.11173691 -0.28087345 -0.25851622 0.18389603 0.6334661 0.2903854 -0.19566144 -0.04676145

onnx::MatMul_20 f4 [128, 3]
00000000: 01a7 c738 80ba 00bc 28f6 a1bb 37f7 e4bb
00000010: 2fce 9fbc c89e aa3b fed4 97bc 04f2 13bc
00000020: 243f 5c3c d4bd 173c 71b2 89bb 2894 9bb9
00000030: ce3c 9ebc dc92 a83c 00b3 b03b 847b 54bc
00000040: 5d25 2abb 8740 b63b fe80 1ebb 36fd d63a
00000050: 6ff1 bcbc 670d 3fbb 9d1b aebb 13e4 0ebc
00000060: 44f0 2a3c fa5c 143d 2a59 f838 8ca2 ceba
00000070: f3df 4f3c 0c1d b63a 1728 8d3b 532d 1f3c
00000080: 8e50 8d3c ec32 813c 8b7e 3e3c d7c6 c23a
00000090: e85e 4b3b eb03 44bc ef2e 1eba c314 9c3b
000000a0: c784 29bb 37ff 753c 7c5c 023c 0fe0 343c
000000b0: 02a6 86ba a9fc 1a3b 3d1f 3438 58c2 c63c
000000c0: bf38 e13b df18 d63c 845d 293a 06cd 96bc
000000d0: af89 573b 1754 a03b 3406 8abc 2bac 8bbc
000000e0: ee2d 8e3b a224 0cbd de02 e4ba d9b0 a2ba
000000f0: 2c04 613c 45a5 883c 7b3e 893a 9f54 2fbb
00000100: 7de5 85bc 5bcc 86ba 36ee 38bc 186b 623b
00000110: 8cc7 91b9 2e06 b23b 3805 a0bb 9594 c33b
00000120: a6b4 15bc 992f 5f3c 500d b33a 27ed dabc
00000130: 0862 8ebb 8166 22ba fee4 3f3b ead9 3e3a
00000140: b676 77bc 8d0f 20bc e6fa e63b a8d3 39bb
00000150: 0340 883c 12b0 92bc b5b6 063b 7262 333b
00000160: 8835 b0b9 5d9f c23c 0a10 433c dc7b 30bc
00000170: 0370 d93a 0afe 163b 0ae5 113c 3e0d 69bc
00000180: d825 b4bc 6478 c6bb 296d bc3a 617a 51ba
00000190: 50c3 38b9 ef17 0fbc 5080 d83c e669 353c
000001a0: 6e2a 9b39 3b05 37bc a400 89bc 9431 3eba
000001b0: a7bc 93bb b8e3 803b 209c 5fbc 351e 633d
000001c0: 75ba d1bb 8aa1 b3bb 2096 123c 2aca 8fbb
000001d0: 5223 793c 2239 5b3c ef58 e73c d1e9 44bb
000001e0: f685 76bc 926b 6a3c a6d6 003b 97c1 3a3d
000001f0: 551d 673c 7c4a a3bb 0625 40bb 9bdd 923c
00000200: 0d62 8eb9 68a8 5b3c bbf9 e8ba a220 d13b
00000210: e6d7 3dbb 41d6 983a 639b 42bc 98bc 93bb
00000220: be2f c0bc 1538 143b 2f07 55bb 44e0 fd3b
00000230: c23c 8ebc cf7d 8e3b 8f93 7cbb 6ceb 813c
00000240: ca30 ecba 4569 983a e9d9 ad3c 61d2 b43a
00000250: 5c8e 34bc b8f7 803c e856 6ebc 700f b3bc
00000260: 2045 33bb 0954 903d cb5c 793c 380d 8c3a
00000270: 3d5d 68bb 988e 6b3c 2253 6aba 0547 87bc
00000280: f110 d33c 468e 34bb ed68 27bb d889 57bb
00000290: 2b0a 75bc 9e44 863b d194 c13b c1d3 4a3c
000002a0: 66d5 fdbb f031 383c 3aa8 91bc 74b9 383c
000002b0: 94f9 bdbc 7cf7 25bb 7b91 fa3c 1d50 f5bb
000002c0: ee9e 15bb 23c5 d73b 7fb3 493c 2656 6f39
000002d0: 1eb7 603c e63b e4bc c0a0 9bbb 5293 8fbc
000002e0: e344 27bb efe3 65bb 0a89 e03a 5304 98bc
000002f0: b4d2 413b 64d8 803c c36e 753b 38ce 143c
00000300: e486 ef3c e6aa 823b 80d0 c53c 493a fc39
00000310: ca9c d43a 1499 a83c 6358 00bd fd9c 103c
00000320: acbe 94ba 22a6 89bc d562 44bb 527d 883b
00000330: 0ed3 df3a decd 80b9 60ef afbc 2df6 c23a
00000340: eb32 a8bb 821c 56bc 3a5d 9d39 6cb3 a43c
00000350: 67e2 67ba 98fd 56bc 4391 4dbc b5aa 773a
00000360: a6bd 6f3b e216 bdbc c442 41bb aab9 013c
00000370: 55b3 a8bb 4af5 743c 462d b5bb ca08 28bc
00000380: 2820 f539 f47c 533c 998e 88bb 3b9c 26bb
00000390: 115e 593c a629 083c ca33 c538 8af4 e6bc
000003a0: a7f9 143c ee86 4a3b 1e87 063c f3d5 dcbb
000003b0: 3000 e5bb c7f7 a3bc 9bc6 36bb 30ea 61ba
000003c0: cf74 75bb b2d6 7e3b 2073 2cbc 6788 1d3b
000003d0: 513b 343c 24e9 7cba 53ea 873d 8a39 343d
000003e0: bb7d d3bb 0f63 4d3c 096f a8bc 1f16 41bc
000003f0: 45e0 8a3a 60b3 733a 9445 043d c437 23bc
9.520166e-05 -0.007856965 -0.004942674 -0.006987478 -0.019507496 0.0052069165 -0.01853418 -0.009029869
0.013442788 0.009261567 -0.00420218 -0.0002967429 -0.019316103 0.02057784 0.005392432 -0.012968902
-0.0025962212 0.0055618915 -0.0024185772 0.0016402367 -0.023064343 -0.0029152276 -0.0053133504 -0.008721369
0.01043326 0.03622148 0.000118421696 -0.0015764995 0.012687671 0.0013894155 0.0043077576 0.009715396
0.017250326 0.015771352 0.01162685 0.0014860284 0.003103191 -0.011963825 -0.00060342153 0.004763217
-0.0025866495 0.015014461 0.00795662 0.011039748 -0.0010272863 0.0023649132 4.2944437e-05 0.024262592
0.0068732197 0.026134906 0.00064607733 -0.01840831 0.0032888462 0.004892837 -0.016848661 -0.01704987
0.0043389713 -0.034214623 -0.0017395874 -0.0012412324 0.013733905 0.01668037 0.0010470891 -0.002675332
-0.01634478 -0.0010284291 -0.011287263 0.0034548696 -0.0002780523 0.0054328656 -0.0048834346 0.00596864
-0.009137308 0.013622188 0.0013660584 -0.026724411 -0.0043451823 -0.0006195084 0.0029280777 0.00072803965
-0.0151039865 -0.009769333 0.0070489524 -0.0028354917 0.016632086 -0.017906222 0.002055568 0.002737191
-0.0003360922 0.023757631 0.0119056795 -0.010771718 0.0016589168 0.0023039603 0.008904705 -0.014224349
-0.021990702 -0.006056832 0.0014375794 -0.0007990953 -0.00017620367 -0.008733734 0.026428372 0.011072611
0.00029595516 -0.011170681 -0.016723938 -0.00072553125 -0.004508573 0.003933396 -0.013648063 0.05544873
-0.0064004012 -0.0054819034 0.008946925 -0.0043881135 0.015206175 0.013380321 0.028240649 -0.0030046592
-0.015046587 0.014307873 0.001965919 0.045594778 0.014106114 -0.0049832445 -0.0029318943 0.017927935
-0.00027157404 0.01340685 -0.0017774621 0.006382064 -0.0028967797 0.0011660532 -0.011877867 -0.004508566
-0.023460265 0.0022616435 -0.0032505502 0.007747682 -0.017362956 0.0043484936 -0.00385401 0.015859328
-0.0018019911 0.0011628052 0.021222072 0.0013795608 -0.011020269 0.015743122 -0.014547087 -0.021857947
-0.0027354434 0.070472784 0.0152198775 0.0010685092 -0.0035455965 0.014377259 -0.00089387794 -0.016513357
0.025764914 -0.0027550622 -0.0025544718 -0.0032888558 -0.0149560375 0.0040975353 0.005907633 0.012379588
-0.0077463863 0.011242375 -0.017780412 0.011274684 -0.023190297 -0.0025324514 0.030586949 -0.007486357
-0.0022830325 0.00658478 0.012310862 0.00022824909 0.013715534 -0.027860593 -0.0047493875 -0.017526302
-0.0025523237 -0.0035078486 0.0017130685 -0.01855675 0.0029575052 0.015728183 0.0037450052 0.0090823695
0.029239126 0.003987658 0.024147272 0.0004810861 0.0016221043 0.020580806 -0.031334292 0.008826491
-0.0011348329 -0.016802851 -0.0029966135 0.00416533 0.0017076449 -0.00024567446 -0.021476448 0.0014874391
-0.005133023 -0.01306832 0.00030014833 0.020105086 -0.0008845687 -0.013121985 -0.01254684 0.00094477396
0.0036581545 -0.0230822 -0.0029489258 0.007917801 -0.005148331 0.01495106 -0.0055290787 -0.010256002
0.00046754 0.012908209 -0.0041673896 -0.002542271 0.013267056 0.008310711 9.4033385e-05 -0.028192777
0.009092725 0.0030903178 0.008210925 -0.006739372 -0.0069885477 -0.02001561 -0.0027889374 -0.00086179655
-0.0037453657 0.0038885293 -0.010525495 0.00240376 0.01100047 -0.0009647778 0.06636491 0.044000186
-0.006454197 0.012535824 -0.020560758 -0.011785059 0.0010595402 0.00092964433 0.032292917 -0.009962026
