tron1-rl-deploy-python-main/controllers/model/WF_TRON1A/policy/isaaclab/policy.onnx (onnx, 760668 bytes, 8 tensors)

0.bias f4 [512]
000000 e7 3a 3d bd 95 42 25 3e 7a 99 f4 bc 29 54 0e 3e
       -0.04619875 0.1613868 -0.02985834 0.13899292
000010 5e ee bf 3d 6e f7 e1 3c e5 95 70 3b db 4b 42 be
       0.09371637 0.027583804 0.0036710438 -0.18974249
000020 30 8d 12 3e 8e 9d 16 3c e5 49 f1 3d 42 c0 b5 bd
       0.14311671 0.009192837 0.117816724 -0.08874561
000030 e9 8d 2b bd c7 f4 c6 3d 92 b6 2b 3d 50 07 a0 bd
       -0.041883383 0.09714656 0.04192216 -0.07813895
000040 b5 83 cd bd f3 e5 6f be 05 22 3d bd a4 dd 05 3e
       -0.10034887 -0.23427562 -0.04617502 0.1307283
000050 90 db dd bc 7a e4 24 be b1 8a d3 3d ff 9d 02 3e
       -0.027082235 -0.16102782 0.10329188 0.12755583
000060 c3 d3 5d 3e 17 d9 5c bd ad 68 29 3e a1 1d 24 3e
       0.21662812 -0.05391797 0.16543837 0.16026928
000070 be 46 e8 bd e2 09 19 bd e7 fc cc 3d 03 69 02 be
       -0.11341618 -0.03736294 0.10009175 -0.12735371
000080 02 1e 9c bc 27 fa 07 3d 32 9b 09 bd b5 91 5a 3e
       -0.019057278 0.03319755 -0.03359527 0.21344645
000090 d0 10 f2 3d dc 3d a6 3d 9a b9 4c 3b 45 4a 0a 3e
       0.11819613 0.081172675 0.0031238557 0.13504894
0000a0 1e 76 12 be 24 86 07 be 4b bf f5 bb b7 f4 4a 3d
       -0.1430287 -0.13234764 -0.0074996105 0.049549785
0000b0 66 5e 16 3e 2a f3 51 3d 85 d2 47 be 85 75 3c 3e
       0.14684448 0.05125729 -0.195139 0.18404205
0000c0 24 42 88 bc 3f e3 50 3d 17 fd cf bc 1b 26 06 bd
       -0.0166331 0.05099797 -0.025389237 -0.032751184
0000d0 ea 79 35 3e ee 34 ba 3d 4c 5f fc 3d 1e 7b 10 be
       0.17722288 0.09092127 0.12322864 -0.14109465
0000e0 5b 47 f9 bd 34 d7 b9 3d f3 ca 2a 3d 78 3e 7b 3d
       -0.12171813 0.0907425 0.041697454 0.06133887
0000f0 8f b7 cb 3d 3a b5 85 3a e9 cb eb bc 0c 5a da bd
       0.099471204 0.0010201104 -0.028783755 -0.10661706
000100 89 92 d7 bd 00 63 31 3e 02 1a e0 3d a9 6b 32 3e
       -0.10525996 0.17322922 0.109424606 0.17423882
000110 29 37 6f bd 33 3f 51 bc 2e ee 0e be f4 a7 8e bd
       -0.058402214 -0.0127714155 -0.13958046 -0.06965628
000120 d8 50 00 be e1 88 7b 3c 68 91 fc bd 63 18 21 be
       -0.1253084 0.015352459 -0.123324215 -0.15731959
000130 94 82 11 be 0e 13 27 be 94 88 25 bd bb 4a b8 3d
       -0.14209968 -0.16315863 -0.040413454 0.08998629
000140 f3 a4 51 be 7e c6 fd bc b1 9f 4f 3d e4 58 f1 bd
       -0.2047308 -0.030978438 0.050689403 -0.11784533
000150 05 ca 4d be e0 8f 44 be 0b a9 fb 3d 30 a7 0a 3e
       -0.20096596 -0.19195509 0.12288102 0.1354034
000160 5b b0 94 bd 13 9c f2 bd 82 73 13 3e f8 a1 1c be
       -0.072602 -0.11846175 0.14399531 -0.15296161
000170 82 70 2a be 4d 94 5b 3b b5 01 c1 bd 3e 7d 6f be
       -0.16644481 0.0033505142 -0.09424154 -0.2338762
000180 b0 d5 1c 3e 8c 32 1b bc ab b2 61 3d ff f8 b7 3d
       0.1531589 -0.0094725005 0.05510203 0.08983039
000190 89 16 0c 3e 16 1a 47 bd 35 bd d8 bd e3 98 c9 bc
       0.13680471 -0.048608862 -0.105829634 -0.024609035
0001a0 81 80 7d be 43 0b a5 3d 44 07 1f be 99 1b aa bd
       -0.24756052 0.080587886 -0.15530115 -0.08306045
0001b0 50 89 6d 3a 79 6e d5 3d 69 1e 02 bd a9 e6 2a be
       0.00090612937 0.104214616 -0.031767283 -0.16689552
0001c0 ba 46 c3 3c 1e f8 d7 3c 76 97 07 bd 6d d4 1e 3c
       0.023837436 0.026363429 -0.03310343 0.009694201
0001d0 20 b4 16 3e 32 29 17 be 35 8e 11 3e 5e e6 30 be
       0.1471715 -0.14761809 0.14214404 -0.17275378
0001e0 ed b3 95 3d fe 7d 76 be d1 c9 0a be eb 59 38 3e
       0.07309709 -0.240715 -0.1355355 0.18003051
0001f0 32 ba dc bd c1 f9 27 bc d1 75 5e be 07 f1 99 bd
       -0.107777014 -0.010252417 -0.21724631 -0.075166754
000200 15 4d f4 bd c1 da 8f bd 9b 58 2b 3e 76 d8 e0 3b
       -0.11928765 -0.07024146 0.16733019 0.0068617417
000210 cb 02 f7 3d e9 22 aa bb b6 bd 8a 3d fc 00 5d be
       0.120610796 -0.00519215 0.06774466 -0.21582407
000220 80 00 12 be 86 4f 4d 3d 58 5d 9f 3d df 69 c6 bc
       -0.14258003 0.050124668 0.07781476 -0.024220405
000230 90 c4 3b be 99 de 9b 3d 79 3d 33 3e fb 5c 2a 3e
       -0.18336701 0.076108165 0.17503919 0.16637032
000240 3c 46 36 3e 63 f1 8b 3d ac 14 95 3d e9 09 e8 3c
       0.1780023 0.0683315 0.072793335 0.028325038
000250 00 6e 0e bd 37 3b 8b bd 4e 2b 62 bd e7 7a 19 3e
       -0.034772873 -0.06798404 -0.05521708 0.1498829
000260 6e 66 71 bd 93 47 a5 bd 76 fa ad bd 2b 1f 63 bc
       -0.058935575 -0.08070292 -0.08495037 -0.0138624115
000270 da 9b 39 bd ef f2 1c bc e3 69 16 3d 52 e8 3a 3d
       -0.045314647 -0.009579404 0.036722075 0.045631714
000280 2f 37 0e 3d 82 96 0d be a6 e7 b6 bd c2 d8 22 be
       0.034720596 -0.13826945 -0.08930902 -0.15902999
000290 3f d0 28 3e d4 a9 29 bd 3c de 79 bd 03 26 f8 3d
       0.1648569 -0.041421726 -0.061002955 0.12116625
0002a0 ab c0 04 be 50 4f 0d bd cf ed 78 3e 8c 4e a5 bd
       -0.12964122 -0.034499466 0.24309467 -0.08071622
0002b0 e1 7d 46 3a 7c 2a 16 3e 89 82 ab bd 80 f3 dc bd
       0.0007571858 0.14664644 -0.08374507 -0.107886314
0002c0 df 94 1c 3e d9 9f ad 3d 10 d6 27 bd 0c 69 25 3e
       0.15291165 0.08477754 -0.04097563 0.16153353
0002d0 be b3 30 3e 4d 99 c0 3d 78 86 21 bd bf 75 63 be
       0.17256066 0.0940424 -0.03943488 -0.22212885
0002e0 7d 10 9b 3d 25 f1 c3 bc ee 57 ae 3d eb db 1c be
       0.07571504 -0.023918698 0.08512865 -0.15318267
0002f0 a4 b4 ff 3d 57 9c 34 bd 17 f9 67 be c2 9b 0d be
       0.12485626 -0.04409441 -0.22653614 -0.13828948
000300 24 0a cf bd 1f 97 f7 bd f8 bc be bd 64 63 e3 bc
       -0.10109356 -0.12089371 -0.09313387 -0.027757354
000310 4a 62 17 3c d6 a4 3d 3d 9d 41 5a 3e 0f b9 0a 3e
       0.0092397425 0.046299778 0.21314092 0.13547157
000320 db 73 7c be 7f 00 44 be 66 c4 65 bb 64 6b 76 3d
       -0.2465357 -0.19140814 -0.003505969 0.06016101
000330 61 65 81 bd 34 75 57 3d 6b e8 e1 bd 75 bb 71 be
       -0.063181646 0.052602008 -0.11030658 -0.23606665
000340 4a 85 37 3e 0a 36 9b bd 44 9c a7 bd e8 50 c9 3d
       0.1792194 -0.075786665 -0.08184102 0.09829885
000350 83 f8 ac bd ce 48 d2 3d 63 0a 81 be 1b d0 11 3e
       -0.08445837 0.10267793 -0.25203237 0.14239542
000360 d7 d8 2c bd a4 a1 42 be 66 47 15 be 83 bb 17 3d
       -0.042198982 -0.19006974 -0.14578018 0.03704406
000370 8a 60 be 3c 93 5f 8b bd d9 95 b2 bd 3d 53 37 be
       0.023239393 -0.06805339 -0.087199874 -0.17902847
000380 45 f8 f0 bd bd ec 93 3d a4 6d 89 bd ea 16 4d be
       -0.11766104 0.072228886 -0.067103654 -0.20028272
000390 bd 3c 66 3d 4e 5b bc 3d b9 f8 e4 bd 97 c1 c7 bd
       0.05621027 0.091971025 -0.111802526 -0.09753721
0003a0 90 d6 43 3e 14 29 62 3e 0f 33 2d 3d 8d aa ba 3c
       0.19124818 0.22085983 0.04228502 0.022786403
0003b0 e6 3d 71 3d a7 d4 47 3e 04 79 c9 bd 2e c8 09 3d
       0.05889692 0.19514714 -0.09837535 0.03363817
0003c0 27 84 49 3e e0 6d e5 3d ea 08 d9 3c c0 fc 33 3e
       0.19679318 0.112025976 0.026493508 0.17576885
0003d0 83 6e 4c be eb 54 4b 3e c8 b8 42 3d 42 fc 2e be
       -0.19964032 0.19856612 0.047539502 -0.17088416
0003e0 3a 0a c0 bc 41 7d 8c bc 85 b3 5a be 96 54 1b 3e
       -0.023442376 -0.01714957 -0.21357544 0.15168986
0003f0 ee b6 62 be 2c 73 0a b8 83 ad 15 3d a1 4b 2a 3d
       -0.22140095 -3.3009026e-05 0.036542427 0.04157603

2.bias f4 [256]
000000 59 2c 70 bd 5a 97 98 be 8f 12 d2 bd 98 ae f7 bd
       -0.058636043 -0.29802972 -0.10257446 -0.12093848
000010 88 cf 41 be 68 f3 12 bd cc 99 d9 bd c3 f6 e7 bc
       -0.18926823 -0.03587666 -0.106250376 -0.028315907
000020 be 55 64 bd 4b 55 f2 3d 34 da 0d be 48 75 ac bd
       -0.055745833 0.118326746 -0.13852769 -0.08420807
000030 4c 9a 50 be d0 e8 05 3d a5 06 0d be ee de 82 bd
       -0.2037136 0.03269273 -0.13772066 -0.06390177
000040 6a f0 1b be 6d e4 55 bd 77 85 03 be d9 41 81 bd
       -0.1522843 -0.052219797 -0.12843882 -0.063113876
000050 9f ca ce bd cc 82 52 be fd 12 c1 bc c9 d1 9a bd
       -0.10097241 -0.20557708 -0.023568625 -0.075595446
000060 90 8a 8a bd 35 4f 5f 3d ed d0 27 be 07 84 22 bd
       -0.0676471 0.054518897 -0.16388293 -0.039676692
000070 6d 31 ce bd 58 cd cf bd ed a4 f6 bc a6 b6 c9 bd
       -0.10068021 -0.10146588 -0.03010794 -0.098492905
000080 e5 7f 9f bd b1 91 99 3c ba d8 0d bd 27 ce c0 bd
       -0.07788066 0.018746229 -0.034630515 -0.094143204
000090 2f 3f a2 3b b5 c0 d8 bd 10 80 07 be c4 78 a3 bd
       0.0049513797 -0.10583631 -0.13232446 -0.079820186
0000a0 77 f6 b6 bd c8 0f 0b bd 4c 41 b1 bd 0e 91 21 3c
       -0.08933728 -0.033950597 -0.086550325 0.009861244
0000b0 22 c0 37 3d 46 48 bf bd f8 ef 4a bc aa 56 a2 bc
       0.044860967 -0.09339957 -0.012386315 -0.019816715
0000c0 46 0a e8 bd 02 64 75 3d b1 1e d5 ba 6e 7b 94 bd
       -0.113300845 0.059909828 -0.0016259757 -0.07250105
0000d0 25 59 62 be f2 a1 29 be b4 cc 1f bd dd e4 10 bd
       -0.22104318 -0.16565683 -0.03901358 -0.03537451
0000e0 d6 96 17 be 05 55 e6 bd 51 12 f4 bd 38 e7 59 3d
       -0.14803633 -0.11246685 -0.11917556 0.053199023
0000f0 54 b9 27 be 37 0b 95 bd be 73 22 be 6a 6d 51 bc
       -0.16379291 -0.0727753 -0.15864465 -0.012782434
000100 6c 15 22 bd b1 4f 22 be b4 e9 e4 3b f2 35 9e bd
       -0.03957121 -0.15850712 0.0069858674 -0.07725133
000110 53 93 b0 bd 74 f8 72 be de 32 16 bc d9 af a2 bd
       -0.0862185 -0.2372759 -0.009167401 -0.079436965
000120 02 d2 41 bd f0 81 07 bd b4 41 f8 bd f2 2e b8 3b
       -0.04731942 -0.033082902 -0.12121907 0.0056208307
000130 d0 50 ab bd c9 3d bf bc 63 e1 25 be 23 cd 3a be
       -0.08365023 -0.023344891 -0.1619926 -0.18242316
000140 6c 65 79 bd 92 6f f0 3c f3 94 96 3d 3d cc 4d be
       -0.06088774 0.029350076 0.073526286 -0.20097442
000150 61 3b b1 bd 8e d9 94 bc ca 6b 03 bc 54 51 cd bd
       -0.08653904 -0.018170144 -0.008021304 -0.10025278
000160 54 d0 e2 3c 47 a9 53 bc 34 9a 13 3d b9 d8 3d 3d
       0.02768723 -0.012918777 0.03603573 0.04634926
000170 f1 dc c6 3c 4b 91 12 bd 40 85 01 be ed 6f 01 be
       0.024275275 -0.035783093 -0.12648487 -0.12640353
000180 1d be 31 be 2f 72 0b 3d f4 89 aa bd d1 f4 98 bd
       -0.17357679 0.03404444 -0.08327094 -0.0746857
000190 e3 68 e7 3c ba 6c 18 be 8f 6f d6 bd 43 74 ad bc
       0.028248256 -0.14885226 -0.10470497 -0.021173602
0001a0 1d a6 a0 3c 35 25 87 bd bd da 34 be bb f4 6f 3c
       0.019610459 -0.065988936 -0.17661567 0.014645751
0001b0 bf 65 24 bc 1b ea e6 bc 87 f5 19 be cb 12 e4 3c
       -0.010034024 -0.028187802 -0.15035067 0.027840992
0001c0 10 21 31 be c2 ec bc 3d 6f c9 4c 3d 0a d0 30 bd
       -0.17297769 0.092248455 0.04999679 -0.04316715
0001d0 de 00 b1 bc e8 9a 04 bd d0 be 5e bd 30 66 9c bc
       -0.021606859 -0.032374293 -0.05438119 -0.019091696
0001e0 cd 95 6b bd 92 46 91 bc 53 92 d5 bd 92 28 b4 bd
       -0.057515908 -0.017733846 -0.104283 -0.08796801
0001f0 3e 3b 19 bb 0a 43 82 bd 86 b5 92 be 67 d3 54 bd
       -0.0023381258 -0.06360443 -0.28654116 -0.05195942
000200 a6 5c af bd e8 67 ad bd fc fc 86 bd 5e d3 18 bc
       -0.08562593 -0.08467084 -0.06591222 -0.009327738
000210 f3 12 55 bd bd 13 eb bd cc 69 01 bc 49 66 95 3c
       -0.052020025 -0.11478374 -0.007898759 0.01823725
000220 09 8c dc 3d b1 15 e0 39 23 48 48 bd d8 e7 74 bd
       0.10768897 0.0004274077 -0.04889692 -0.059791416
000230 f8 0e 61 bc 1e a5 d4 bd 35 05 a5 bd ca 8c 7d 3d
       -0.013736479 -0.10383056 -0.08057634 0.061901845
000240 8b 20 5a bd 99 59 0b 3d d6 1a a6 bb 10 d6 3c be
       -0.05325369 0.034020994 -0.005069117 -0.18441033
000250 1c c5 94 be c3 a8 09 be 92 d0 ea bc 55 ea f4 3c
       -0.29056633 -0.13443284 -0.028663907 0.029896894
000260 25 56 36 3d 86 fd c7 bd 7e 03 d2 bc 6c 05 97 bd
       0.044515748 -0.09765153 -0.02563643 -0.07374081
000270 95 ee a8 bd b2 4e 2d be 0c 5c 2f bd fc 56 28 be
       -0.08248631 -0.16924551 -0.042812392 -0.16439432
000280 20 b9 85 bb 9b fd ad bd af cd 31 3d 6f c9 31 bd
       -0.0040809065 -0.08495637 0.043409046 -0.043404993
000290 d1 34 35 be 7d 11 9f 3d eb 34 21 be a1 25 67 bc
       -0.17695929 0.077670075 -0.15742843 -0.0141080925
0002a0 51 42 cb bc 52 65 9d bd c2 d5 16 be 95 31 1b be
       -0.024811896 -0.07685341 -0.1472998 -0.15155633
0002b0 aa 44 dd bd f1 c0 59 bd 48 63 4e 3c 6a 05 3c be
       -0.10804112 -0.05316252 0.012596913 -0.1836144
0002c0 fc 13 7e 3d 83 d3 14 bd e0 d8 c7 bd c9 5e 14 bd
       0.062030777 -0.036334526 -0.097581625 -0.036223207
0002d0 36 89 5f bd 68 73 4f be f1 f8 1e bd cc 45 7e bd
       -0.054574214 -0.20258868 -0.038811628 -0.062078282
0002e0 4c a9 72 be 97 d2 63 bd 84 5d a5 bd db b1 00 be
       -0.23697394 -0.055620756 -0.08074477 -0.12567846
0002f0 47 2b ab 3d 1c f8 53 bd 53 71 3d bd fe 65 4a 3c
       0.08357864 -0.051750287 -0.046250653 0.012353418
000300 9f be d9 bd f8 12 80 be 92 c6 87 3d c1 26 0a be
       -0.10632061 -0.25014472 0.06629671 -0.13491346
000310 65 67 d8 bd 59 5a f1 bb 2f 7b dc bd e5 51 c7 bd
       -0.10566596 -0.0073655066 -0.10765683 -0.09732417
000320 52 0c 87 bd 79 04 93 bd f7 74 17 be 6e 9a 14 be
       -0.06594147 -0.071785875 -0.14790712 -0.14512035
000330 9a 13 5e bc e9 3d 75 bd fa 3b c9 bd 9f c3 74 bd
       -0.013554478 -0.059873495 -0.09825893 -0.05975687
000340 ce 0b 97 bd 5d f9 02 be ac a6 b9 bd 24 16 bb bd
       -0.073752984 -0.12790437 -0.09064993 -0.09135082
000350 44 5c 64 bd fb f7 08 3b 9b 55 7b bb 7e 56 b6 bd
       -0.055752054 0.002089976 -0.0038350585 -0.08903216
000360 3d 72 e5 bd c4 b7 a3 3d 0c 4b 46 be a4 e2 0c be
       -0.1120343 0.07994035 -0.19364566 -0.13758332
000370 c8 81 14 bd c8 87 0d be 3b 4e 93 bd ad a0 73 bd
       -0.03625658 -0.13821328 -0.07192656 -0.059479404
000380 cd 97 4e 3d ac f9 63 be e5 57 1e bd 37 2f 9c bd
       0.050437737 -0.22263211 -0.03865804 -0.07626193
000390 a3 a5 d6 bc 78 f8 20 bd c7 d0 f5 bd cd 57 7b bd
       -0.026202029 -0.03929946 -0.12002712 -0.06136303
0003a0 f1 6d 80 bd 64 be cb 3a 66 b8 2c be 5f a2 27 be
       -0.0627097 0.0015544412 -0.16867217 -0.16370533
0003b0 99 a1 b6 bd 81 79 bf bd fd 34 24 be 97 6c ae bc
       -0.08917541 -0.09349347 -0.16035838 -0.021292014
0003c0 8e 3e 60 bd 27 33 cd bd 93 2b a8 bd b7 48 e1 bc
       -0.054747157 -0.10019522 -0.08211436 -0.027500493
0003d0 a1 d3 31 be 0b 84 4e bc e5 a0 94 bd 79 03 8f be
       -0.17365886 -0.012604724 -0.07257251 -0.27932337
0003e0 3c 8b 94 3d 7f 95 9a bd d7 d9 fd bb f5 76 d1 bd
       0.07253119 -0.07548045 -0.007746916 -0.102277674
0003f0 69 a9 76 3c 26 29 45 bd ce f7 97 bd d7 64 d0 3d
       0.015055039 -0.048134945 -0.07420312 0.10175484

4.bias f4 [128]
000000 71 8c 65 be 18 3e 3e bc 14 d5 a0 bc b7 65 1a be
       -0.22416855 -0.011611484 -0.019632854 -0.15077864
000010 25 26 0d bf da 69 36 3d 48 ad 00 bf b4 9a 56 bd
       -0.5513633 0.04453454 -0.50264406 -0.05239363
000020 03 d9 86 3d 54 a2 aa 3d 7b 2e 14 3d ec f6 a7 bd
       0.065843605 0.08331743 0.03617714 -0.082013935
000030 43 a3 a3 bd 06 b9 a9 bc 93 6f 2a 3e 88 94 0c 3d
       -0.07990124 -0.020718109 0.16644125 0.034321338
000040 c2 1c fb 3c 51 59 b2 bc 8c c5 8f 3d 0c df 4f bd
       0.030653361 -0.021771105 0.07020101 -0.050749823
000050 e1 34 57 ba b9 84 33 be 6b 97 59 bd 17 bd ee bd
       -0.00082094787 -0.17531098 -0.05312292 -0.1165716
000060 a6 87 0c be 13 ed 0a bd 5a a8 a4 3d bf 18 22 bd
       -0.13723621 -0.033917498 0.08039923 -0.03957438
000070 b8 d0 54 3d fe 8d ae bd f1 04 0d 3c 88 20 db 3c
       0.051956862 -0.085231766 0.008607135 0.02674891
000080 5e c4 c5 3d dc 77 e8 bc 01 2d 14 be aa a6 1e bc
       0.09656595 -0.028377466 -0.14470293 -0.0096832905
000090 bf 92 51 bd 5b df 97 bc 4f 28 7b 3d 39 c3 ae bd
       -0.05116534 -0.018539121 0.06131774 -0.085333295
0000a0 d2 b7 17 be 4b 07 46 bd 84 0f 9b 3d b8 55 9e bc
       -0.14816216 -0.0483468 0.07571319 -0.019327983
0000b0 34 99 f7 bd a4 b6 f6 3c 21 73 d8 3c 04 36 da be
       -0.12089768 0.030116387 0.026422085 -0.42619336
0000c0 d8 3f bb bc 04 45 62 3d bd bc e9 bc 7f 75 52 3c
       -0.022857592 0.0552416 -0.02853238 0.012845396
0000d0 bc c2 91 bd 97 a9 ad bc 80 b9 c9 be 62 ec 2a be
       -0.07117221 -0.02119903 -0.39399338 -0.16691735
0000e0 68 17 81 bd 35 a7 fb 3d 89 5f 21 3d 98 f7 ca bc
       -0.063032925 0.122877516 0.03939775 -0.024776265
0000f0 3c aa 16 be da 2f 12 bd 73 02 8e bd eb 68 06 bd
       -0.14713377 -0.035690166 -0.06934061 -0.0328149
000100 62 d4 cf be ea 3d b9 bb 74 15 ac 3d 74 a4 92 bc
       -0.40591723 -0.0056531327 0.08402529 -0.017900683
000110 87 1c 8f 3d 8a f8 b8 bd 53 f2 48 bd 52 92 39 bd
       0.06987863 -0.0903178 -0.049059223 -0.045305558
000120 e0 3f b7 bd f9 d7 22 3d 52 83 02 be 55 5e a9 3d
       -0.0894773 0.03975675 -0.12745407 0.082699455
000130 49 0e 0e 3d 5f 93 20 bc 96 ca 35 be 26 e2 9d bd
       0.034681592 -0.009800761 -0.17753062 -0.0770915
000140 7f a3 54 bd 35 44 d7 bc 73 8f 9b 3c f5 38 f4 be
       -0.051913735 -0.02627764 0.0189893 -0.47699705
000150 b2 24 82 3d 32 c3 87 bd ab af 00 3d e4 c4 1e 3d
       0.06354655 -0.066290274 0.03141753 0.03876199
000160 c1 4d 0a be 2e b9 a0 bc 12 bc 26 be 4d ce b1 3d
       -0.13506223 -0.01961955 -0.1628268 0.08681927
000170 09 a1 29 be 6d d2 2c 3d 26 a9 1a bd 48 d8 bc bc
       -0.16565336 0.042192865 -0.03775897 -0.02305235
000180 65 7f 98 bd f2 9a fc bc 0d b0 f8 bd 2f 6a c7 bd
       -0.074461736 -0.030835602 -0.12142954 -0.0973705
000190 e6 eb f0 bd df 8e 22 3d 4a 1c 71 be c2 bd 46 bd
       -0.11763744 0.039687034 -0.23545948 -0.04852081
0001a0 33 ae cb 3a 42 63 bd bc 6f ac 83 bc 5d bf eb bd
       0.0015539586 -0.023118619 -0.016073434 -0.11511109
0001b0 e6 34 72 bc 42 6a 9f bc af e2 45 bd 9a a5 8f 3d
       -0.01478312 -0.019459847 -0.048311885 0.07014008
0001c0 69 77 39 bd b0 44 5a bb 27 57 2b bd b3 83 83 bd
       -0.045279894 -0.00333051 -0.04183116 -0.06421604
0001d0 3e e7 a4 be c4 93 43 3d a8 db 4b bd 60 fa e2 bd
       -0.32207674 0.047748342 -0.049770027 -0.110829115
0001e0 cc 62 7f 3d 34 ee 5b bc 4f 39 17 bd a6 7a 0e bc
       0.06235008 -0.013423491 -0.036919888 -0.008696234
0001f0 cc d1 a3 bc 9a 36 6e bd 9f e1 43 3b eb 97 57 bd
       -0.0199975 -0.05815754 0.002988912 -0.052635115

6.bias f4 [8]
000000 40 7b 4c 3d b6 90 73 bd a9 98 7f 3d 5d 13 b6 be
       0.049922228 -0.05946418 0.062401447 -0.35561648
000010 40 a8 76 3d 61 d8 b2 bc 84 55 bd bd df 99 af bc
       0.06021905 -0.021831693 -0.092448264 -0.021435676

onnx::MatMul_24 f4 [34, 512]
000000 ba e9 65 bc c0 6d a6 bd c1 c5 7f bd 0d c4 dc bd
       -0.014032776 -0.08126402 -0.062444452 -0.10779581
000010 c2 72 85 bd 40 f6 d2 3c c5 27 43 be 5f 9b 85 3b
       -0.06516029 0.025752187 -0.1905814 0.0040773596
000020 a6 f2 03 3d 39 96 20 be b9 17 1f 3d 00 c6 79 3d
       0.03221383 -0.15682305 0.038840983 0.060979843
000030 9d d1 32 be 65 60 4c 3b 4d 2e 2f be f0 fb d8 bd
       -0.17462774 0.0031185385 -0.17107506 -0.10594928
000040 f6 b8 21 be c3 3d 40 3b 53 8d 5c bd fa 1f c2 bd
       -0.15793213 0.0029333688 -0.053845715 -0.09478755
000050 31 23 a6 bd 48 08 af 3c f4 64 ca 3d 64 7e 4b 3e
       -0.08112181 0.021366253 0.098825365 0.19872433
000060 40 1f 70 3d 40 a9 a4 3b 46 41 8f 3d e8 f9 54 be
       0.058623552 0.005025059 0.06994872 -0.20798457
000070 31 ac b5 3d ac f3 4b bc 37 71 ae bd b1 05 ee 3d
       0.088707335 -0.012448233 -0.08517688 0.11622179
000080 b7 5a 64 be 7e 02 11 be 92 06 18 3d 2e 3c 40 3e
       -0.2230023 -0.14161107 0.03711564 0.18772957
000090 06 09 2b be f3 45 5e 3b 5a 08 b8 bd 66 6f 8b be
       -0.16702661 0.0033916205 -0.08985968 -0.27233428
0000a0 25 11 00 bd bc 8c ef 3b 6b 7b a5 bc 85 82 05 3e
       -0.03126635 0.007310478 -0.020200452 0.1303807
0000b0 12 74 48 be 6f b7 7c bb 3a c7 fb bd d3 53 dd bc
       -0.19575527 -0.0038561483 -0.12293859 -0.02701751
0000c0 c6 2e 17 3d f1 75 5a 3e 91 d0 d7 3d 1d 45 11 3e
       0.03690984 0.21334054 0.10537828 0.14186521
0000d0 82 f8 c3 bd cb 7c 1f bb c9 f4 5f 3e fe 28 d9 bd
       -0.095688835 -0.0024335857 0.21870722 -0.10603522
0000e0 a8 65 d1 3d 1e 89 5e bd 55 71 4b be 8b 82 85 be
       0.102244675 -0.054329984 -0.19867451 -0.2607616
0000f0 bf 68 e8 bd 99 81 10 3e f8 d7 20 3e 87 86 e3 3d
       -0.11348104 0.14111938 0.15707386 0.111096434
000100 50 0f a1 bd 0d 16 87 3b 9c 87 c0 bd fd 19 aa 3d
       -0.07864249 0.0041225017 -0.094008654 0.08305738
000110 9d 2e ab bb 2a fc 00 3e 80 b9 ed bd 2b 87 84 3d
       -0.0052240626 0.12596193 -0.11607647 0.06471094
000120 2d 13 cf 3d 56 79 08 3e a4 dc 3d be 0c b8 f3 3d
       0.10111079 0.13327536 -0.18541199 0.119003385
000130 12 d5 20 be ef 4e a5 3d 1b 04 cb 3d 6c a9 03 3e
       -0.1570628 0.08071696 0.099128924 0.12857598
000140 9f 20 59 3e 6e a6 f6 3b 30 e1 15 be ea d5 12 3e
       0.2120385 0.007527164 -0.14636683 0.14339414
000150 0f e6 25 3d 18 b7 9e bc d6 0d aa 3d a0 e9 08 3d
       0.040502604 -0.019374415 0.0830342 0.033425927
000160 b1 74 72 be c5 98 90 be ed d7 53 3d f6 25 a9 3d
       -0.23677327 -0.28241554 0.051719595 0.082591936
000170 7b 15 f8 3d 19 f4 5b be b3 23 d2 bd f3 41 04 3e
       0.12113472 -0.21479835 -0.10260715 0.12915783
000180 1b c6 be bd a6 b5 2b 3d 7c df a3 bd 36 38 0e be
       -0.09315129 0.04192128 -0.08001611 -0.1388863
000190 a1 d2 a7 bd 18 56 67 3e 9b 65 12 3e 97 9f d3 bc
       -0.08194471 0.22591436 0.14296572 -0.025832934
0001a0 a4 60 cb bd 13 44 14 3e ee e4 7a 3e f0 3f d5 bc
       -0.09930542 0.14479093 0.24501392 -0.026031464
0001b0 f7 66 bf bc c4 95 90 3e 3d fa 83 3e db 18 d3 bd
       -0.023364527 0.28239262 0.25776854 -0.10307475
0001c0 3e 2d c6 3d 25 9c 2f bd 48 1f 9c 3d 4a f5 00 be
       0.09676598 -0.04287352 0.07623154 -0.1259357
0001d0 dd ac f7 3d 82 29 7f 3e 36 48 5a bd 03 d9 5d 3e
       0.12093518 0.24918178 -0.053291522 0.21664815
0001e0 72 22 2d 3e 55 47 6d 3e 7d 4c 93 3e 93 f2 60 bd
       0.16907671 0.23171742 0.28769293 -0.054918837
0001f0 92 15 33 3e f9 08 c1 bd 8d e9 f5 3d e6 48 55 3e
       0.17488697 -0.094255395 0.12007437 0.2082859
000200 75 e1 00 3e c2 a4 1f 3e ce b2 09 3d 6e 96 fe bd
       0.12586005 0.15590194 0.033617787 -0.12431036
000210 bf a4 fc bd a7 bd 3b be ee 05 91 bd b2 84 89 be
       -0.1233611 -0.18334065 -0.07081209 -0.2685905
000220 10 06 0c 3e ce 0b 46 3e 74 c8 da bd 01 9e d5 3d
       0.13674188 0.1934044 -0.10682765 0.104305275
000230 84 1f 12 3d d4 f5 86 3b 94 e7 02 3e 0b 6d de 3c
       0.035674587 0.0041186605 0.12783653 0.027151605
000240 45 a4 5e be 6b 6c 41 be d5 ed 14 3e 98 4a 6e 3d
       -0.21742351 -0.18889014 0.1454385 0.058176607
000250 20 6d ef 3d b9 8f 08 3e 6d cc 0a be e3 0d fe 3d
       0.11690736 0.13336076 -0.13554545 0.124049924
000260 e5 5c c9 bd 7d 41 1c be 2b b2 78 3e a2 5c e8 3d
       -0.09832171 -0.15259357 0.24286716 0.11345793
000270 a3 87 a9 bd d2 3d d7 bd 5f 0e d8 bc 9f 41 92 bd
       -0.08277824 -0.10509838 -0.02637404 -0.071414225
000280 68 5c e0 bd ef 5d 02 3e 26 9a 4e 3d 85 cd eb bd
       -0.10955125 0.12731145 0.050439976 -0.11513809
000290 42 34 47 3e 33 97 28 be 07 3f 05 3e f8 ec 07 be
       0.19453529 -0.16463928 0.13012324 -0.1327399
0002a0 53 b8 57 be 6c 2c 88 be 91 d9 19 bd 53 94 48 3d
       -0.21066408 -0.2659639 -0.037561003 0.048969578
0002b0 93 d3 d5 3d 97 1c 8c be 0b 09 45 3d 82 19 d5 3d
       0.10440745 -0.27365562 0.048104327 0.10405256
0002c0 ca 50 d9 3d d5 ca bf bd 54 d4 da 3d da 6e 2a be
       0.106111124 -0.09364859 0.106850296 -0.16643849
0002d0 d5 e7 56 be 32 00 bc bd 4f 4f 85 3e 45 04 50 be
       -0.20986874 -0.09179725 0.2603707 -0.20314129
0002e0 f2 07 47 3d 81 e5 54 3e 19 aa 35 3e f6 e5 14 be
       0.04859156 0.20790674 0.17740668 -0.14540848
0002f0 b7 2b 2c 3e 74 4a 10 3e 0e 70 7a bc 18 3b 24 3e
       0.16813551 0.14090902 -0.015285505 0.16038167
000300 98 37 0a bd d0 35 2b 3e c0 04 a4 3c d6 dd 1b be
       -0.033744425 0.16719747 0.020021796 -0.15221342
000310 98 7b 34 3e 40 06 5a 3e 2f ed 31 be 1b 10 77 3d
       0.17625272 0.21291447 -0.17375635 0.060318094
000320 6a b0 0d 3e a6 44 25 be 12 8e 02 bd 6b d7 d2 bd
       0.13836828 -0.16139469 -0.03187377 -0.10294994
000330 36 52 cc bd aa 41 88 3d de 70 9e bd 31 8c 66 bd
       -0.09976618 0.066531494 -0.077363715 -0.05628604
000340 66 fd ed bd ee 6c 83 3c 8c 3a 57 be 63 cb 0e be
       -0.116205975 0.016043153 -0.21018428 -0.13944773
000350 da bb 7f be d6 ee 55 bd 31 b3 ab 3d 0f 59 16 3d
       -0.24974003 -0.052229725 0.083837874 0.036706027
000360 36 4e b8 3d 57 8c 8b bd cc f6 48 be e9 91 5b 3c
       0.089992926 -0.06813877 -0.19625396 0.013401487
000370 67 f8 3a bd fc 5c 1c bd 12 c5 96 bc 12 e7 b8 3d
       -0.04564705 -0.038174614 -0.018404517 0.09028448
000380 a6 37 43 be ce d7 a1 bc 24 96 d7 3c 55 3f 87 bd
       -0.19064197 -0.019756224 0.02631671 -0.066038765
000390 37 f1 5d be 4e 8e ab 3c 2b 80 f9 3d a1 29 0e 3e
       -0.21674047 0.02094188 0.12182649 0.13883068
0003a0 fd 95 85 be 2b cb ef bd 1b 54 81 bd 7d c3 3c be
       -0.26090994 -0.11708673 -0.0631487 -0.18433948
0003b0 ac d2 b9 3c c6 d9 2c 3e fb 69 b6 bd 5f b9 8f bd
       0.022683464 0.16879949 -0.08906933 -0.070177786
0003c0 e5 d6 19 3e 1f 8e 7d bd 5d f3 b0 3d 11 6d 12 be
       0.15023382 -0.061903115 0.08640168 -0.14299418
0003d0 55 5e 35 3e 9f 0f d8 3c 36 40 6d 3d 6f 7f 91 3d
       0.17711766 0.026374636 0.057922564 0.07104384
0003e0 eb e3 cd bd df 2a 5b be 46 02 82 bd 92 4b 85 3d
       -0.100532375 -0.21403073 -0.0634809 0.065085545
0003f0 bb 65 29 be 22 2a 81 3e f7 1a 86 bd e8 14 4c be
       -0.16542713 0.25227457 -0.06548112 -0.1992985

onnx::MatMul_25 f4 [512, 256]
000000 c4 3c 40 3e 33 9c a9 bd 47 7a 95 3b d7 4f 5d 3d
       0.1877318 -0.08281746 0.0045616957 0.05403122
000010 0c 4f e8 bd 88 e1 0d be 53 4f 10 bd cd cf b7 3d
       -0.11343202 -0.13855565 -0.0352319 0.08975182
000020 a5 db 5e bd ef 74 73 bd 4c 31 2d bd 57 e2 06 3c
       -0.054408688 -0.05943769 -0.04228334 0.008232675
000030 ab cb 92 3d a2 b6 32 bc 24 9b a1 bd ea 2c cb 3d
       0.07167753 -0.010907801 -0.07890919 0.09920676
000040 aa f7 10 3e 3a b0 8a 3d 4b 17 9f 3d f0 e0 d0 bc
       0.14156976 0.06771894 0.07768115 -0.025497884
000050 2c 75 51 be 3b 8a bb 3c fe c1 a1 bc a5 9b 0e be
       -0.20454854 0.022893062 -0.019745823 -0.13926561
000060 da 9e e6 3d 6e f6 a7 bd 33 17 1c 3e e7 58 52 3d
       0.11260767 -0.082012996 0.15243225 0.051354315
000070 5b eb d4 3d 6a 1c 02 3d 65 32 08 bd bc 49 72 3d
       0.10396453 0.03176538 -0.033251185 0.05915235
000080 54 44 1f 3d 6b b7 11 be 2d b5 0f 3d 3e 0a 04 3e
       0.038883522 -0.14230125 0.035084892 0.12894532
000090 20 b8 e3 bd 5e 4f 2f 3d 13 2c d0 3c 96 2e 17 bc
       -0.111191034 0.0428003 0.025411641 -0.009227416
0000a0 5c 80 00 be c6 8a 1a be 3f 51 8e 3c 12 26 35 bd
       -0.12548965 -0.15092 0.017372726 -0.04422576
0000b0 f3 e9 8e bd a6 84 0d be b4 c8 3c 3a 51 e3 99 bd
       -0.06978216 -0.13820133 0.0007201538 -0.0751406
0000c0 09 9f 0d bc e4 99 03 3e d8 d4 a7 be e5 2d 29 be
       -0.008643874 0.12851673 -0.32779574 -0.16521414
0000d0 34 35 43 be af 05 ab 3a cd 87 d3 3d 5c 9b a4 bd
       -0.19063264 0.0013047958 0.10328636 -0.08037445
0000e0 43 d4 f8 bd f8 1b 07 3e bb d6 94 3d 02 e2 04 be
       -0.12149861 0.13194263 0.07267519 -0.1297684
0000f0 89 7b 47 bc 7e 74 39 3d fd 45 3a be 65 53 ec 3d
       -0.012175449 0.04527711 -0.18190761 0.11539344
000100 c2 cc 92 bd 23 be b7 3d f6 d3 b0 bd c3 73 34 3e
       -0.07167961 0.089718126 -0.08634178 0.17622285
000110 40 f9 30 bd a6 e9 9a 3d 2c 6e d9 bd 50 03 b8 bd
       -0.043206453 0.07564096 -0.10616717 -0.08985007
000120 59 2e d7 3d 06 d4 d7 3d 68 4a e5 3d 93 cf 06 3b
       0.10506887 0.10538487 0.111958325 0.0020570501
000130 e4 bc 05 3d 3b 97 1c bd 04 44 91 bd 39 94 6b be
       0.032650843 -0.038230162 -0.07093051 -0.23005761
000140 83 d9 9e be 3d a8 ff 3c 07 a0 24 3d 27 c9 2e 3e
       -0.31025323 0.031208152 0.040191676 0.17068921
000150 88 70 24 bc 99 f8 ca 3d 68 f3 c2 bd 36 c8 ae 3b
       -0.010036595 0.099106975 -0.09519082 0.0053339256
000160 db 7b 92 bd 75 a4 ed bd b1 88 2b bd 3a 6e 53 3e
       -0.0715253 -0.11603633 -0.041878406 0.20647517
000170 1e ec 1b 3a dd fa 94 3d 2d 78 6d 3d 85 eb 9b bb
       0.0005947965 0.07274411 0.057975937 -0.0047583007
000180 6d 5b 60 bc 64 f5 64 3d fa eb 54 3d 09 dd d3 be
       -0.013693673 0.055898085 0.051982857 -0.41379574
000190 ca c9 aa bd a1 c9 c0 3c 4a a0 4f be b1 3b 6e 3b
       -0.083392695 0.023533644 -0.20275989 0.0036351497
0001a0 af da bb 3d bd 1b dd bd fe 80 21 3d 3d 2f 37 bd
       0.0917257 -0.10796306 0.039429657 -0.044722784
0001b0 52 24 63 be 78 98 8a 3d ff 19 b0 bd 62 a4 1c be
       -0.22181824 0.06767362 -0.08598708 -0.15297082
0001c0 03 e2 7a 3d 36 7a f4 bd 7e b8 0d be 0e 48 d2 bc
       0.061250698 -0.119373724 -0.1383991 -0.025669124
0001d0 6e 8a b4 3d c4 98 83 bc 48 ae d1 bd 78 82 bd bc
       0.08815466 -0.016064055 -0.1023832 -0.023133501
0001e0 d7 18 f5 3d ef eb 58 bc 4a 34 5e bd 97 8e 56 bd
       0.119676284 -0.013239845 -0.054249085 -0.052382078
0001f0 86 a6 b4 bd 6d a6 29 3d 57 f2 5d bd e3 cb 91 3d
       -0.08820824 0.04141848 -0.05418619 0.071189664
000200 41 f2 e2 3a 15 9f 89 bd c3 2d 8f bb 35 bc f9 3d
       0.0017314629 -0.067197956 -0.004369469 0.12194101
000210 6a 98 0c be 63 f9 4a be 47 5f fb bd 3a 5f 06 be
       -0.13730016 -0.19821696 -0.12274032 -0.13122264
000220 32 0e ff 3d 13 91 32 3c 56 35 01 be 42 89 30 be
       0.124538794 0.010898846 -0.12618002 -0.1723986
000230 fe 4f 10 3a 36 f9 c4 3d 2f 4e 12 3e ff 8d 37 be
       0.0005505084 0.09617846 0.14287637 -0.17925261
000240 61 1f 34 3b 61 9c 01 be ce 9c 6a bd 86 2d 62 3d
       0.0027484524 -0.1265731 -0.057278447 0.055219196
000250 a9 07 2d 3d 80 55 7b bd bc f8 52 bd fc ad a3 3b
       0.042243633 -0.061360836 -0.051506743 0.004995106
000260 4d 80 63 be 96 b7 2e 3e b0 89 8f bc b3 ba 0f 3d
       -0.22216912 0.1706222 -0.01752171 0.03509016
000270 4a e1 a8 bd 86 1d 42 bc 70 ef ff bc 28 d2 9c 3c
       -0.082460955 -0.011847859 -0.031242102 0.019143179
000280 ca 18 c1 3d d7 e6 49 bd 8c 65 1d 3e 79 6d dd bc
       0.09428556 -0.04929241 0.15370768 -0.02702974
000290 87 6b 89 bb cb bf f8 3d 1e 2d b8 3d a3 57 eb 3d
       -0.0041937265 0.121459566 0.089929804 0.11491325
0002a0 4b 5a 54 3c b9 44 86 3c 32 54 f8 3b 00 e0 f2 3d
       0.012960981 0.016390191 0.0075783962 0.11859131
0002b0 1b c2 e6 3d 43 e6 83 3c ae 5d 1c 3e 46 b1 6a 3d
       0.112674914 0.016101008 0.15270111 0.057297967
0002c0 85 a9 18 bc a4 c8 10 3e ec ca 09 3e 47 5b 4f 3e
       -0.00931776 0.14139038 0.13456315 0.20249663
0002d0 4b 84 20 bd f7 f2 4a bd b4 2e 20 3d a4 4a 9d bd
       -0.039188664 -0.049548116 0.03910704 -0.07680252
0002e0 a7 69 1d be d2 98 37 3d 3f 67 bd 3b f7 24 23 bd
       -0.15372334 0.044823475 0.00578013 -0.039830174
0002f0 6e 38 27 be ca 96 03 bc e3 63 98 bd 87 27 ad 3d
       -0.1633012 -0.008031556 -0.07440927 0.08454805
000300 20 fd 9c bd 41 87 b1 bd 48 f4 92 bd 83 de 15 3d
       -0.07665467 -0.08668376 -0.07175499 0.036589157
000310 cc 55 10 3c c0 15 9d 3d 85 58 b7 bd 0d f4 b2 3a
       0.008809518 0.07670164 -0.08952431 0.0013653055
000320 e3 d1 2f bd f7 e6 6c bc ff c5 8c bc 12 5c 1b 3e
       -0.042924773 -0.014459363 -0.017184256 0.15171841
000330 5e 89 d1 3d 5c 01 de 3d 67 f9 e3 3d fd 7a 51 bb
       0.10231279 0.10840103 0.11131554 -0.0031964176
000340 15 cd 48 3c 5b 86 83 bd 73 b8 dc 3d 32 a6 22 3d
       0.012255927 -0.06422111 0.107773684 0.039709277
000350 d7 84 a4 bc 1e 69 2e 3e 0f e1 12 3d 36 12 aa 3d
       -0.020082874 0.17032287 0.035859164 0.08304255
000360 de 87 af bd ac ae a2 3d 14 cb c0 bd 38 88 5f 3e
       -0.085708365 0.07943472 -0.09413734 0.21829307
000370 93 3f 33 3c af 3f 6b bd 26 41 ba 3d 70 93 b9 3d
       0.01094045 -0.05743378 0.09094457 0.090613246
000380 01 d1 e0 bd e7 98 62 3c 63 b0 48 bc e9 3c 70 bd
       -0.10977364 0.0138304 -0.012249085 -0.05865184
000390 9b 3e 6d bd 35 cf b1 bd 7d 46 23 bd b1 eb 09 3e
       -0.057921033 -0.086821 -0.039862145 0.13468815
0003a0 26 10 df bd 35 2e ab bd 44 90 43 3d ab 57 18 ba
       -0.10891752 -0.08358423 0.047745004 -0.00058114034
0003b0 55 a1 f6 3d a6 d1 ce bd f5 99 6d bc 63 31 80 bd
       0.120424904 -0.10098581 -0.014502038 -0.0625942
0003c0 59 06 e5 bc 57 6a c2 3d 63 b8 26 bc c2 20 17 bd
       -0.027957128 0.09492939 -0.010175797 -0.036896475
0003d0 db 3d 4c 3e fc dd 87 bd d9 b4 9f 3d b0 c8 c7 3c
       0.19945471 -0.06634137 0.07798166 0.024387687
0003e0 35 40 0f be 0a 22 a3 3d 15 28 40 3c 86 25 33 3e
       -0.13989337 0.07965477 0.011728306 0.17494783
0003f0 f0 b2 02 be e1 50 3f be 04 af d2 bd 55 17 59 be
       -0.12763572 -0.18683197 -0.10287288 -0.21200307

onnx::MatMul_26 f4 [256, 128]
000000 2a 9b 02 be 7c d5 ee 3c 78 21 7d bd 86 96 8b 3c
       -0.12754503 0.029154532 -0.061799496 0.017039549
000010 c1 12 a7 bd b6 6e b4 bd 6d 39 c7 3d 72 6a 37 3d
       -0.08157874 -0.08810179 0.0972775 0.04477925
000020 78 51 fa bd 03 7e 4d bd 0d 18 cb 3c fe 14 82 bd
       -0.1222257 -0.050169002 0.024791742 -0.0635166
000030 96 8a 3e 3e 94 18 84 bc 1d 67 03 bd 28 fc 24 3d
       0.18607554 -0.016125001 -0.03208076 0.040279537
000040 39 89 a8 3d 5e 1e 0c bd 2a 43 97 3d bd 3c dc bc
       0.08229298 -0.034208648 0.073858574 -0.026884431
000050 fb 75 86 3d 7a 06 19 3d e6 37 ec 3c 75 9f bf bc
       0.06565472 0.037359692 0.028835248 -0.023391465
000060 d8 a5 8f bc 5e 72 ab bd 00 79 e6 3d 10 5d 72 3d
       -0.017535135 -0.08371423 0.11253548 0.059170783
000070 f1 b9 0d 3d cf d9 12 38 c6 ac af bd f0 f7 9f 3d
       0.034601156 3.5011963e-05 -0.08577876 0.07810962
000080 09 5a 70 3c 40 db e0 3d bb 81 7a 3c d3 7a 71 bd
       0.014669904 0.109793186 0.015289719 -0.058955025
000090 2a 5f 27 3d 5c 39 4d 3d e9 82 63 3d 12 f5 77 3d
       0.04086224 0.05010353 0.055544768 0.06053645
0000a0 19 4d c8 bd de 49 7f 3d ef 17 9f bc 3d 8e 4b bd
       -0.0978033 0.062326305 -0.019420592 -0.049696196
0000b0 46 5f c0 3d ce 84 c9 bd 25 a0 53 be 46 3c 9e bd
       0.09393172 -0.098397836 -0.20666559 -0.0772634
0000c0 f2 38 39 3a ec 3c 1f bd ff 5f 3d 3e a3 0a 01 3d
       0.00070656755 -0.03887646 0.18493651 0.031504285
0000d0 33 5f bc bb a1 f5 a4 bd 31 0c 17 3d e3 8d 41 bd
       -0.0057486533 -0.080546625 0.03687686 -0.047254454
0000e0 38 bf 14 3d 53 5d d1 bc 10 74 a9 3c 4a 2f c0 3d
       0.036315173 -0.025557196 0.020685226 0.0938402
0000f0 f2 eb 4e 3c ac 82 b5 3c cc d2 8e 3d 1b 37 86 3d
       0.012629496 0.022157036 0.069738 0.06553479
000100 52 81 ab bc b0 78 47 bd ba fd 88 bd e5 5e 14 bd
       -0.020935688 -0.04869908 -0.066890195 -0.03622331
000110 b9 37 ee 3b 00 84 89 3d d1 4f cc bc ea c0 0e 3d
       0.0072698263 0.0671463 -0.024940403 0.034851946
000120 51 8a de bb 9c 51 97 3b bb eb 88 bd a6 61 d5 bd
       -0.006791391 0.004617883 -0.06685587 -0.104190156
000130 2d ec 64 3d 4b b2 16 bd 7e 7c 4d 3d 7d 42 fb bb
       0.055889297 -0.036791127 0.050167553 -0.007667838
000140 23 48 9b bc a9 75 5f 3d d0 7f cd 3d a9 d4 36 bc
       -0.018955296 0.05455557 0.10034144 -0.011159101
000150 88 b8 1a be 5c d9 46 3b e5 a6 88 3c c4 da 34 be
       -0.15109456 0.0030341959 0.016681144 -0.17661577
000160 fe 27 80 3b c4 2e 1c 3e 33 ad 0b bd ac 6d a8 bd
       0.0039110174 0.15252215 -0.034100723 -0.08224043
000170 9c 40 5c bd 84 e3 bb bb 63 29 62 3d eb 62 42 bd
       -0.053772554 -0.005733909 0.05521525 -0.047457617
000180 31 71 a4 bc 95 0c 39 3d 12 fe e6 3d d4 26 cf 3d
       -0.020073505 0.045178015 0.11278929 0.10114828
000190 99 25 2c 3d 48 a2 0e 3d ef 1f cc bd e4 c3 0f 3e
       0.042028043 0.034822732 -0.09967028 0.1403957
0001a0 81 a1 20 bc eb b7 91 bb 4b 67 a6 3d 7f c4 5b 3d
       -0.0098041305 -0.0044469736 0.0812517 0.05365419
0001b0 3c 54 5e 3d 33 f9 d7 bb 62 8f 28 3c dc 94 99 3b
       0.05427955 -0.006590986 0.010288091 0.004686935
0001c0 ac 0e e6 bd 2b 44 07 be 97 4f 8a bd 21 4b 68 bd
       -0.11233267 -0.13209598 -0.06753462 -0.056712274
0001d0 f5 78 27 be f8 f3 84 3d 07 14 bb 3c 3f 39 c1 bc
       -0.16354735 0.06491846 0.022836698 -0.023586867
0001e0 99 1e d0 3c 60 61 53 3e fd 51 08 3d 87 ae a5 3d
       0.025405215 0.20642614 0.033281315 0.08089929
0001f0 e7 b3 cf 3d 8d 09 83 bd b5 30 27 bd 23 16 eb 3b
       0.101417355 -0.06398306 -0.040817935 0.0071742698
000200 8a 6c 77 bd af 7a 9c 3c 4a ab f8 bc 87 33 26 3b
       -0.060406245 0.019101469 -0.030355114 0.0025360303
000210 6d 19 23 3e b7 e8 38 3c 7e 45 75 3e 4e 81 b8 3d
       0.15927668 0.011285952 0.2395229 0.09009038
000220 c9 a7 47 3d e7 39 d2 bd 9b 51 97 bc d0 9a a6 bd
       0.048743997 -0.1026495 -0.01847153 -0.08134997
000230 df 7e ae 3d 6b 9f cf bd 37 4d 2f be b4 ea 0a bd
       0.085202925 -0.101378284 -0.17119299 -0.033915237
000240 5f 5d 10 bd 48 77 ed bc 5d f7 9f bd 26 36 cb bd
       -0.035245296 -0.028987542 -0.07810853 -0.09922437
000250 05 a4 b5 bd 68 42 2f bd a3 c5 f5 3c d4 09 3b bd
       -0.08869175 -0.04278794 0.030001467 -0.04566367
000260 dc 2e 52 3d c2 44 cc 3d 9d e6 04 bc c0 00 8a 3d
       0.05131422 0.09974052 -0.008111623 0.06738424
000270 e8 8c b0 bd fe 67 36 bd 77 3d 29 bd d2 f9 b8 bd
       -0.08620626 -0.04453277 -0.041318383 -0.090320244
000280 e7 0d 86 bd 7c 8d 81 3d 5c df 13 bd f3 f2 36 bd
       -0.065456204 0.06325814 -0.036101684 -0.04466529
000290 f4 6c 2a 3c 86 50 08 bd 3a 35 80 bc 1e f3 b1 bd
       0.010401953 -0.033279918 -0.01565038 -0.08688949
0002a0 1d e0 d9 3c 0e 09 d4 bc b4 6e 0c be 62 09 67 bd
       0.026596123 -0.025883224 -0.13714105 -0.056405433
0002b0 c5 b8 2f bd 81 1f 5f bd c5 36 98 bd 8c a8 6d 3e
       -0.04290082 -0.054473404 -0.074323215 0.23208827
0002c0 15 e7 7b bd 1c 62 c9 bc 0a 01 65 bc 07 5b 0a bc
       -0.061499674 -0.024582915 -0.0139772985 -0.008444554
0002d0 56 46 17 be 7a 22 1d bd 61 87 dd 3d 30 c9 b6 bd
       -0.14772925 -0.038362958 0.10816837 -0.08925092
0002e0 48 df e7 bc 73 43 ca bd c0 c8 c6 bd 69 76 77 3d
       -0.028304711 -0.09876146 -0.09706259 0.06041566
0002f0 ca 99 f7 bb ed e1 b9 3b 90 1f 51 3d c8 d7 7e bd
       -0.007556175 0.0056726844 0.05105549 -0.062217504
000300 65 53 24 3e f0 f1 17 3d f2 5c d1 bd ca cd 04 3d
       0.16047437 0.037095964 -0.10222806 0.03242282
000310 3b 2b 01 bd 79 4d e3 3d 9e 60 de 3d 09 77 de 3c
       -0.03153537 0.11098761 0.10858272 0.02715637
000320 06 c2 24 bd f5 9f b1 3d d6 b3 e7 3d e0 8f cb bc
       -0.040224098 0.086730875 0.11313598 -0.024848878
000330 80 17 de bd 4e db 1d be bd 4a 54 3e e7 45 a8 3d
       -0.10844326 -0.1541569 0.20731635 0.08216458
000340 40 e9 ed bd 49 4b 38 bd bd 9a 9b 3d d9 de 33 3e
       -0.116167545 -0.044993673 0.07597873 0.17565478
000350 ae 8c d7 bd bd 8f f2 bc 1a 3e 90 3d 59 b7 b6 bd
       -0.105248794 -0.029609555 0.07043095 -0.089216895
000360 35 48 2d bc 41 fc 7f bd f0 a8 01 3e 45 aa 7e bd
       -0.0105762975 -0.062496427 0.12662101 -0.0621741
000370 fd d9 c6 3c 9d 66 eb bd bd 3f 45 bd 5f bd 5f bd
       0.024273867 -0.11494181 -0.04815649 -0.054623958
000380 d6 a7 45 3c 76 45 c4 3d dd 01 f0 3d 75 ec d5 bc
       0.012063941 0.09583561 0.117191054 -0.026113728
000390 1e 37 97 bc 53 3d 96 bc bc 43 8e 3d 7d a5 1c bb
       -0.0184589 -0.018339789 0.06946513 -0.002390235
0003a0 ae f6 57 3d c8 d3 88 3d 68 e8 93 bd 52 5d 77 bd
       0.052725486 0.06681019 -0.07222062 -0.06039173
0003b0 fd fe 8b bc 06 14 2f 3e 86 bc a7 bc 67 22 4b 3d
       -0.017089361 0.17097482 -0.020475637 0.049593356
0003c0 7b 59 b6 3c f4 7b 16 3d 93 4e 82 bc c4 e5 a0 bd
       0.022259464 0.036739305 -0.015906608 -0.07856324
0003d0 e8 b4 96 3d ad a6 89 bc dd 90 75 bc 88 a7 01 bd
       0.07358724 -0.01680311 -0.014988151 -0.03165391
0003e0 e9 40 82 bd f5 b0 35 bd 05 76 10 bc 8a 61 03 bd
       -0.06360037 -0.044358213 -0.008817201 -0.032075442
0003f0 11 c6 6f 3d e7 30 94 3d 8c 49 fc bd 30 cd 3a bd
       0.0585385 0.0723589 -0.123187155 -0.04560584

onnx::MatMul_27 f4 [128, 8]
000000 e7 62 22 3d 4e 6b 36 3d 02 eb a0 3b 44 09 16 bd
       0.039645102 0.044535927 0.0049108276 -0.03662993
000010 d1 63 0e 3e a3 cf b1 bd ab 58 5d bd c9 3d 09 bd
       0.13905264 -0.08682182 -0.05403964 -0.03350619
000020 4b 1f cf bb 36 98 f8 bb 1a 23 e8 bb e2 6d b0 bc
       -0.006320869 -0.0075865043 -0.0070842626 -0.021536771
000030 f1 71 70 bc cf 5b 27 bc 95 f9 e9 bd 5b 7a 4e 3d
       -0.014675603 -0.01021476 -0.11424557 0.050409656
000040 01 2f bf 3c 47 e5 89 3c ef ec 48 3c d2 2f 63 3c
       0.023337843 0.01683296 0.012263521 0.013866382
000050 b5 7e b4 3c 0f 13 80 bc 4b da ef 3d 56 b5 59 bd
       0.022033075 -0.015634088 0.11711558 -0.05315145
000060 cb 1e 67 bd ab d6 b1 bc 57 6f 09 3d 63 ac b2 3d
       -0.05642585 -0.021708807 0.033553448 0.087242864
000070 15 95 65 3d 87 6c 1f 3c 9a 55 8f bd 90 c3 ed 3c
       0.05605038 0.009730465 -0.06998749 0.029023916
000080 94 b9 af bd ff 79 96 bc 66 d8 a6 bc 99 c9 17 3e
       -0.08580318 -0.01836872 -0.020366859 0.14822997
000090 7b f3 d0 bd 7d 64 33 3d 84 da 91 3d 94 ee b6 3d
       -0.1020269 0.043797005 0.07121757 0.08932224
0000a0 d9 67 1e bd 1b 25 b3 bd a2 24 80 3c 3a 3f 9f bb
       -0.038673256 -0.08747312 0.015642468 -0.004859832
0000b0 9c 46 9c 3d c2 41 88 3d 7b 01 1f 3b 94 da 3a bd
       0.07630655 0.06653167 0.0024262357 -0.04561861
0000c0 0e e9 ef bd c0 c3 68 3c 3c a1 95 bd 1e 5a 79 3d
       -0.117143735 0.014206827 -0.07306144 0.060876958
0000d0 91 e8 a5 bd 20 a3 82 3d 0b 19 32 3e d6 b4 9b 3d
       -0.08100999 0.0637877 0.17392366 0.07602851
0000e0 05 bd 13 bd d1 e5 04 3d 3b 74 45 3c ed 45 e2 bc
       -0.036068935 0.032445733 0.012051637 -0.027621234
0000f0 bf de 37 bd 89 74 88 3d 86 73 01 3d cf 4c fc 3d
       -0.04489016 0.06662852 0.031604312 0.123193376
000100 9d 3a 4b bb e7 bd cb bc a9 d3 31 bc 65 c9 66 bd
       -0.0031010278 -0.024870826 -0.010853686 -0.05634441
000110 76 10 fa 3b 2e b0 17 bd e9 17 b7 3d 06 e8 61 bd
       0.007631357 -0.037033252 0.089401074 -0.055152915
000120 70 5e fe 3b d7 ca 07 3d 52 7a b4 bc 13 a3 f1 bc
       0.0077627227 0.033152428 -0.022030983 -0.029496705
000130 14 0d 17 ba c0 69 29 bd 7e de 2a be 1b f5 a1 3d
       -0.00057621417 -0.041360617 -0.16686437 0.07908078
000140 2d 5f c7 bb 68 a8 5e 38 37 22 a0 3c 6c d5 b8 bc
       -0.006084344 5.3085765e-05 0.019547565 -0.022562705
000150 a1 4b a3 3c 9d 02 0a 3d eb 55 e3 bd c2 38 92 bd
       0.019933524 0.0336939 -0.11100372 -0.07139732
000160 12 c6 20 bb ec d9 73 bd 16 84 56 ba 4b e4 3a bc
       -0.0024532122 -0.059534 -0.00081831345 -0.011406968
000170 9d 6d f1 3c 31 d3 47 3e eb 79 19 3d cb 30 a1 3d
       0.029471213 0.19514157 0.037469786 0.07870635
000180 14 92 12 3c c7 32 a9 3c db 92 08 3c 6d d7 18 bc
       0.008945961 0.020654095 0.008335794 -0.009328705
000190 3a f6 f8 3b 27 23 c2 3b 80 07 2f 3d 59 d9 97 bd
       0.007597712 0.0059246006 0.042731762 -0.07414503
0001a0 be 1a 97 3c bd 7a 1f bd 70 60 a0 3b 20 19 54 bb
       0.018445369 -0.03893541 0.0048943087 -0.0032363608
0001b0 aa 08 18 bc a8 44 e6 3c 63 4b 03 3e 31 de df 3d
       -0.009279409 0.02810891 0.12821727 0.109310515
0001c0 a9 20 3b 3d d0 90 63 3c 0b a1 ae 3c 18 19 d7 bd
       0.045685444 0.013889506 0.021317026 -0.10502833
0001d0 2a 2c 80 3d 93 42 3f 3d fb 2b 19 bd 04 16 7d 3d
       0.062584236 0.04669435 -0.03739546 0.061788574
0001e0 98 4e 75 3d 3b 4c 78 3b fc 72 7b 3c 66 8f 78 ba
       0.059889406 0.0037887234 0.015347239 -0.0009481817
0001f0 f4 85 11 bb c3 d1 87 bc dc 5c f7 bd 50 b1 cb bd
       -0.0022205086 -0.016579514 -0.120782584 -0.09945929
000200 e9 af 73 39 ed 0b 47 bc ac f2 4f ba 03 3b 9a 3b
       0.00023239818 -0.012148839 -0.0007932584 0.004706742
000210 91 7f a7 bc 03 db 99 3c b0 f3 ef bd c7 3d ed bd
       -0.02044657 0.01878119 -0.117164016 -0.11584049
000220 39 8c 7e 3b 67 23 2d bb 8a ee cf 3d 53 6b a6 3d
       0.0038840903 -0.0026418807 0.101529196 0.08125939
000230 a4 d4 c7 bc d4 0d d4 bc 1b ed 4e 3e db 52 7b be
       -0.024393387 -0.0258855 0.20207636 -0.24543326
000240 0b d8 0e 3b 99 0d 31 3c 4b 41 5c 3c 0c 14 1a bc
       0.0021796252 0.010806465 0.013443301 -0.009404194
000250 7a 1d 27 bc f6 6a c6 bc 41 cc 35 be b7 2d 8f bd
       -0.010199899 -0.024220925 -0.17753698 -0.06991141
000260 0d 83 11 3c d5 27 6e bc e7 bb 7d bc 8e 8e 11 3c
       0.008881343 -0.014535864 -0.015486694 0.008884085
000270 30 b6 30 3c 44 46 0c 3b e4 b5 41 3d 6e 24 a0 bd
       0.010785624 0.0021404186 0.047292605 -0.078194484
000280 01 24 ab bb a5 ea 86 bc 02 94 00 bc 68 e6 a6 bc
       -0.005222798 -0.01646931 -0.007847788 -0.020373538
000290 2d ae f2 bc 54 08 90 bc 4b 88 de 3c 53 ab 45 3e
       -0.02962407 -0.017582096 0.027164599 0.19303636
0002a0 a9 29 9a 3c 26 4f fb bc 31 76 61 bc 7b 6b 04 3c
       0.018818693 -0.03067739 -0.013761089 0.008082266
0002b0 5a 17 83 3c 82 6d 20 3e 0c 8d 33 bb 88 0c 09 bd
       0.016002346 0.15666774 -0.0027397303 -0.033459216
0002c0 69 69 a0 bc 14 91 23 bd ca 12 52 bc 01 71 2f bc
       -0.019581513 -0.03993328 -0.0128218625 -0.010708095
0002d0 02 74 d9 bc 2a de 1f bc 9b 02 8a bd e0 f9 f4 bd
       -0.026544575 -0.009757558 -0.06738778 -0.119617224
0002e0 11 2e 7d 3d 25 0b 3f bd 77 94 5f bb 67 df e0 3d
       0.06181151 -0.046641488 -0.0034115592 0.109801106
0002f0 c6 a9 21 bb 61 83 d1 bc 85 02 6f 3d 86 c1 0e bd
       -0.0024667843 -0.025575342 0.058352012 -0.034852527
000300 72 4c 4f bc af 95 b0 3c 36 50 c7 3c 75 3e 01 3d
       -0.012652503 0.02155575 0.02433024 0.031553704
000310 fa 5b 3a bc cb ab 0c bd 86 48 e1 3d 79 8a 6e bd
       -0.011374468 -0.034343522 0.11000161 -0.058237527
000320 db dc 43 bc c2 b9 fe bc ee 7b 9d bc 02 66 d8 bc
       -0.0119545115 -0.031094436 -0.019224133 -0.026415829
000330 17 32 50 3c bc 25 55 3a a5 c1 86 bd 02 b9 7c 3d
       0.012707255 0.0008130928 -0.065799035 0.061699875
000340 19 01 21 3d 51 a0 c8 bd 03 e3 bc bd 15 46 46 bd
       0.039307687 -0.09796203 -0.092229865 -0.04840668
000350 bf c6 b3 3d 75 2a ae 3d 1e 4f 15 be a1 76 68 3d
       0.08778142 0.08504192 -0.14580962 0.05675376
000360 f6 9a 9c bd 68 0e 84 3d f2 49 c1 bd 82 73 bf bd
       -0.07646744 0.0644806 -0.09437932 -0.09348203
000370 31 03 12 bd f5 b0 3b 3d f3 56 06 bd 78 3a 1c 3e
       -0.035647575 0.045823056 -0.032797765 0.15256679
000380 66 23 e1 bc 48 e5 52 bd ea be 93 bc cd b3 47 bd
       -0.0274827 -0.05148819 -0.01803537 -0.048755456
000390 d9 c2 0e bd 78 98 91 3d 82 9c 94 bd a1 23 8a bd
       -0.03485379 0.07109159 -0.07256414 -0.06745077
0003a0 ad 12 0b bd 5c 27 02 3d c4 9b 12 3d 9f bd 8b bc
       -0.033953357 0.031775817 0.03579308 -0.017058192
0003b0 27 92 f7 bc 66 70 fd bb b0 71 e4 bd 4c 05 82 bd
       -0.030221058 -0.007734346 -0.11154497 -0.063486665
0003c0 0b 7d 2a bc 5d 6f 0d bc a6 d5 7a bc e9 ae 2d bc
       -0.010405789 -0.008632508 -0.015309727 -0.010600784
0003d0 f6 9c 55 3c ad 85 03 bc f1 fb 94 3d f8 cb 3c 3e
       0.013037911 -0.008027476 0.072746165 0.18437183
0003e0 61 c3 ed 3c 77 26 90 3c bc 9f ca bc c8 a2 a3 3c
       0.029023828 0.017596466 -0.02473437 0.019975081
0003f0 1c ad 17 3d 85 65 23 3d aa 12 e9 bd 44 9d 2c be
       0.037030324 0.03989174 -0.11380513 -0.16856867
